state_dic_policy_net/test_v2.pth (torch, 78679 bytes, 6 tensors)

layer1.weight f4 [128, 16]
000000 38 fe 02 3d 10 a5 07 3e e8 27 92 be da 24 55 be
       0.031980723 0.1324656 -0.2854607 -0.20814839
000010 0c 09 12 be 6a 49 28 3d 2b fb df bd 63 38 a2 3d
       -0.14261264 0.041085638 -0.10936578 0.07920911
000020 5a 20 43 bc 77 33 81 be 31 56 7e 3d fd b5 97 3d
       -0.011909569 -0.25234577 0.062093917 0.074077584
000030 4d 42 0a bf 32 9e 89 be 4a e4 bc bd f5 93 0c 3d
       -0.54007417 -0.26878506 -0.0922323 0.03432079
000040 67 14 5b bf e2 98 a3 3d 8f 01 d1 be f1 14 04 bf
       -0.85578007 0.079881445 -0.40821502 -0.51594454
000050 60 b1 7f be d3 65 b2 3c 5b dd 05 3d e4 69 16 bc
       -0.24970007 0.02177707 0.032681804 -0.00918052
000060 93 f4 0b 3e 58 f9 83 be 8f eb b9 3c 22 f4 10 3e
       0.13667516 -0.25776172 0.02269533 0.1415563
000070 5e a8 34 3e 04 5d 55 bd 92 78 04 3d 8e 54 81 bc
       0.17642352 -0.05209066 0.032341547 -0.01578739
000080 03 ab b3 3d f7 40 71 3d 24 41 e2 be b2 d5 00 bf
       0.08772852 0.058899846 -0.44190323 -0.50326073
000090 3b 2c 27 bd 26 47 4a be e2 8d 77 3d 3d 90 e1 be
       -0.040813666 -0.19753703 0.060438044 -0.44055358
0000a0 7f 38 83 3c c1 ca 2d 3d 69 9e 29 be 48 bf 0f be
       0.01601815 0.04242969 -0.16564335 -0.14037812
0000b0 62 e2 b5 be cc 4a 5b be c3 3e 10 3e ee 30 a6 bc
       -0.3552428 -0.21415251 0.14086442 -0.020287003
0000c0 d0 c8 7e 3d dd 4a 47 3d c9 6b a3 3d 24 f7 09 bf
       0.06220323 0.04865538 0.07979543 -0.5389273
0000d0 c3 51 ee 3d fc a3 60 bd 74 a8 b9 3d a8 36 16 bf
       0.116366886 -0.054843888 0.09065333 -0.5867715
0000e0 f7 41 84 bd dc 89 86 bd c0 94 8f be 3f b7 07 bf
       -0.06457894 -0.06569263 -0.28043175 -0.53013986
0000f0 aa 8a f4 3d e1 36 aa 3d c3 64 0a bf 44 28 0b bf
       0.119405106 0.083112486 -0.5406 -0.54358315
000100 cf 51 09 3e 3b 35 02 be 9d 01 9c 3d 90 ec 37 be
       0.13410114 -0.12715618 0.07617495 -0.17961335
000110 9f 7f 09 3d b8 e4 c3 3d 60 c4 4b 3e 70 73 2b 3e
       0.033568975 0.09565109 0.1989913 0.16743255
000120 6b b2 fd be 23 39 bf 3d e6 c9 d9 3d 2a 2b 45 be
       -0.49550185 0.0933707 0.10634212 -0.19254747
000130 39 97 06 bf 26 8b 76 bd 02 8b 80 be ed 93 27 bc
       -0.525745 -0.060191296 -0.25106055 -0.010228139
000140 d6 38 30 bf 57 64 f6 bc e6 bf 3b 3e 6d 27 f6 be
       -0.68836725 -0.030077143 0.18334922 -0.48076954
000150 1a f0 4a bd 1f b0 58 3c 4f c8 b6 bd 4b 2f a8 be
       -0.049545385 0.013225584 -0.089249246 -0.32848582
000160 43 24 46 bd 71 97 1e 3e 65 00 b1 3c 15 ca bc bd
       -0.048374426 0.15487458 0.021606633 -0.092182316
000170 5f 20 9f bd 7c ee 0a 3e b8 bf 1a 3e 9b 60 4b 3e
       -0.07769846 0.13567537 0.15112197 0.19861071
000180 7b 7b c2 be 8d 35 38 3d 76 bf d0 3c ce 4a 2b be
       -0.37984833 0.044972945 0.02548192 -0.16727754
000190 31 57 39 39 92 ca a9 3d c8 46 47 be 82 0b ad 3d
       0.00017675456 0.0829059 -0.19460595 0.084494606
0001a0 1c f9 0f bd 0c 01 31 bd eb d7 b1 bd ee 1c 8b be
       -0.03514968 -0.04321389 -0.08683761 -0.2717051
0001b0 ec 72 fe be 36 4c 2c 3e a5 a9 67 3d 7d 10 48 be
       -0.49697053 0.16825947 0.05655827 -0.1953754
0001c0 f5 11 c5 3d 32 2f c1 3d a6 f7 ec 3d c6 fa bc be
       0.09622566 0.0943283 0.11570673 -0.36910075
0001d0 a7 b8 91 3c 91 df 2a bc 34 00 4a 3d c1 de 00 bf
       0.017788244 -0.010429279 0.0493166 -0.50339895
0001e0 08 cb 00 3e 71 1d 67 bd 3c 06 4f be 77 c3 d3 be
       0.1257745 -0.056424562 -0.20217222 -0.41360065
0001f0 f4 41 84 be 0f 3c 9d 3d 9a be 18 bd 22 12 17 bf
       -0.25831568 0.07677471 -0.037291147 -0.59012043
000200 71 9d b8 be 7c 01 00 be 8c 9c 23 bd f7 65 42 bf
       -0.36057618 -0.12500566 -0.039944217 -0.75936836
000210 60 42 1f 3e c0 c1 fd 3d c3 a0 97 3c 70 ac 03 bf
       0.15552664 0.123904705 0.018509274 -0.51434994
000220 11 c2 f3 3d 3b ac cb 3d 0f c4 a6 3d 9d 8d 07 bf
       0.119022496 0.0994496 0.08142864 -0.5295046
000230 5e 0f 02 bd 37 83 32 bd ee 38 ab be e7 2a d8 be
       -0.031752937 -0.043582167 -0.3344187 -0.42220232
000240 be 14 77 bd bf fe 43 3e 4d 2a c1 3d 73 b5 ef 3c
       -0.060322516 0.19140147 0.09431896 0.029261326
000250 ec d5 7f 3d ac 0f 06 3e 7f 22 3f 3d 4b 83 d9 3c
       0.06245987 0.13091916 0.046663757 0.026551863
000260 13 91 e6 be 62 97 fe be f2 4f 07 be 3c 18 72 3e
       -0.45032558 -0.4972487 -0.1321409 0.23642057
000270 01 93 ab be 0a 02 ad be 05 54 56 bc 0c 1b 8e 3d
       -0.33510593 -0.33790618 -0.013081555 0.069387525
000280 57 80 06 3c 98 87 57 3c 35 b1 b0 be ac dd fb be
       0.00820931 0.013154887 -0.34510198 -0.4919256
000290 ff 6c cb 3d e9 f2 a4 3d 88 a8 a1 be e8 b9 d4 be
       0.09932899 0.08054144 -0.31573892 -0.41548085
0002a0 a1 d3 9c bc 34 02 f6 3c 9d 75 84 bd b6 29 8e be
       -0.019143881 0.030030347 -0.064677455 -0.27766198
0002b0 5b f9 1c 3d 47 e6 98 be 5c ed ec be 18 5c a7 bd
       0.03832374 -0.29863188 -0.4627484 -0.08171862
0002c0 8d 50 91 3e e2 de ee 3d 1f 7d c5 3d c5 29 8d be
       0.28381768 0.11663605 0.096430056 -0.2757093
0002d0 e8 34 0d 3e 87 2e ba 3d a2 31 81 3d 15 dd aa bd
       0.13789713 0.09090906 0.06308295 -0.08342949
0002e0 24 cf d5 bd 10 66 22 bd 3b 78 f2 3b f9 b9 54 be
       -0.104398996 -0.039648116 0.0073995865 -0.20774068
0002f0 87 65 c2 be 49 fd eb bd 78 f9 a5 bd 75 e0 a3 be
       -0.37968084 -0.1152292 -0.08104223 -0.32007185
000300 ee ed 7c 3e 48 94 66 be c5 cb 35 3e d1 49 64 3e
       0.24700138 -0.22517502 0.17753513 0.22293784
000310 e3 d3 27 be 9e f9 44 3e 9e ad 1f be 3e 8c c0 3d
       -0.16389422 0.19235846 -0.15593573 0.09401749
000320 76 64 73 be ca 1e 5d be 5e 99 6f be e0 c0 1a 3d
       -0.23768792 -0.21593776 -0.23398349 0.037781596
000330 ad fa 69 3d af 3d c9 3d 73 60 15 3e e2 73 11 3e
       0.05712383 0.09826218 0.14587574 0.14204362
000340 db 8a d5 be a8 27 9f 3d 8b 76 93 3d eb 2a b1 3d
       -0.417075 0.07771236 0.07200345 0.08650764
000350 60 57 16 be f7 f8 9e be bb e4 47 be df 60 99 be
       -0.14681768 -0.3104932 -0.19520847 -0.2995672
000360 d2 8a 93 be 43 f8 7e be 18 26 9d bd 9b ad 16 be
       -0.2881685 -0.24899392 -0.076732814 -0.14714663
000370 bb 3d d4 be 03 90 8c be 81 e9 aa bc 1d 79 15 be
       -0.41453347 -0.27453622 -0.020863296 -0.14596982
000380 bc 61 db 3d 6e 08 4f 3d fb a7 bd be 45 0f 1e bf
       0.10712001 0.05054515 -0.3704222 -0.6174205
000390 c8 04 7a bc 6e f8 20 bb 2a 08 6c bc 43 59 9f be
       -0.015259929 -0.0024562138 -0.014406243 -0.3112279
0003a0 fc ce 3f bd cf 3b 20 bd 76 d5 9a 3d d8 2c 00 bf
       -0.046828255 -0.039119538 0.07560246 -0.50068426
0003b0 74 ca a2 3c 08 5d 96 3b ac 3b 72 3d c9 36 f4 be
       0.019871928 0.004588727 0.05913894 -0.47698048
0003c0 f5 0c a9 3e c9 06 b1 bd 2e 64 0e be 08 51 b9 be
       0.33017698 -0.08643872 -0.13905403 -0.36194634
0003d0 c0 96 b5 3b 47 cb 00 3d 78 5f b3 bd 0e 13 9a bd
       0.0055416524 0.03144386 -0.087584436 -0.07523166
0003e0 d9 8c 1d bd b2 cb ae 3d 8f 14 fe bd e2 4d aa bc
       -0.0384644 0.085349455 -0.12406265 -0.02078909
0003f0 d0 25 71 be 84 f2 e8 bc 01 14 98 bc 49 29 06 3e
       -0.2354958 -0.028435953 -0.018564226 0.13101687

layer1.bias f4 [128]
000000 e8 2d dc 3a d3 3c 52 3e 31 5d 5c bd 4b b0 51 3d
       0.0016798349 0.20531015 -0.05379981 0.051193517
000010 db 48 0c 3e bc 31 47 bc d8 c6 bb 3d 0a fc d5 bd
       0.13699667 -0.012157854 0.09168786 -0.10448463
000020 16 72 d1 3d e3 db 28 3e f0 e9 01 3e 23 f1 72 bd
       0.10226838 0.1649013 0.12686896 -0.059311997
000030 b8 79 5c 3e ab 7b ed bd c7 99 3e 3e 7c 2b 81 bd
       0.21530807 -0.115958534 0.18613349 -0.06307122
000040 fd 93 07 3e 3e 14 af 3d 66 ad df bd e7 0b 06 be
       0.13240047 0.08548783 -0.10921745 -0.13090478
000050 03 09 3f 3e d6 66 84 3e 59 7f 46 3e f0 10 23 3c
       0.18655781 0.25859708 0.19384517 0.009952769
000060 9b 47 07 3d ca ba c6 bc 72 1d 3b 3c f2 e1 8b 3e
       0.033027273 -0.02425899 0.0114205945 0.2732082
000070 53 1b 92 bc b4 42 25 bd 16 cb 39 3e 9a 16 5c 3e
       -0.017835295 -0.040346816 0.18143877 0.21492997
000080 62 4e 9a bd 7f 3c 56 3e ef 28 37 3d 1a eb e0 bd
       -0.075344816 0.20921515 0.04471677 -0.10982342
000090 7c 91 10 3e 5d f2 a5 bd bf 8c 42 3d 22 11 76 3e
       0.14117998 -0.08102868 0.047497507 0.24029973
0000a0 84 e7 9d 3d fc 13 07 3e 0e 75 a1 3d d9 bc 68 3d
       0.07710174 0.13191217 0.078836545 0.056820724
0000b0 24 15 b5 3e a3 dc 49 3d 2f e7 36 3d a0 8d c3 3d
       0.35367692 0.04928268 0.044654068 0.09548497
0000c0 50 c5 f2 bb 5e 01 00 3e ab 03 8f 3e 25 bb 98 3d
       -0.0074087754 0.12500522 0.27932486 0.0745757
0000d0 62 63 6b 3c 86 26 4e bb ac f3 35 bd 4b cf 30 3e
       0.014366956 -0.0031456067 -0.044421837 0.17266576
0000e0 f2 95 92 3d 60 c1 24 3e 81 e5 da 3d 71 5d 81 bc
       0.07157506 0.16089392 0.10688306 -0.015791627
0000f0 5a c7 17 3e ee 6a e4 3c 9f 15 30 be d5 4e e2 bd
       0.1482214 0.02788302 -0.17195748 -0.11050192
000100 13 40 38 3e aa 40 3b 3e 02 31 05 3e d8 bd 3b 3e
       0.17993192 0.18286386 0.13006976 0.18334138
000110 21 a6 a9 3d 42 59 55 3d 02 51 22 3d 52 0a 85 3e
       0.0828364 0.052087076 0.039628036 0.25984436
000120 2b 17 0f 3e 7b 57 26 3e 4c d0 ca bd 01 38 44 3e
       0.13973682 0.16244309 -0.09903011 0.19161989
000130 87 55 fb 3d c6 c3 f8 3d 76 87 06 be 16 1f 8b 3d
       0.122721724 0.12146716 -0.13137612 0.067930385
000140 bd 9b 37 be e8 da 22 be 90 62 3c be 8d a1 26 be
       -0.17930503 -0.15903819 -0.18396974 -0.16272564
000150 3e 4c 43 3d 56 a1 ed bc 03 5d af 3d 71 64 8b 3e
       0.047680132 -0.029007595 0.085626625 0.27225068
000160 18 e1 fb 3d d5 c0 ba 3d 55 6d 00 3e 2d fd 25 be
       0.122987926 0.09118811 0.12541707 -0.1620986
000170 7f 58 49 3e 6e 5f 0e 3d 27 e3 38 bc f7 5d e7 3d
       0.19662665 0.034758978 -0.011284626 0.11297219
000180 65 96 92 3e f9 93 14 3c fa 23 9e bd 76 43 26 3d
       0.28630367 0.009068483 -0.07721706 0.04059168
000190 1f f5 e2 bb 09 c1 05 3e 2e 44 7d 3e c5 78 a4 3d
       -0.0069261934 0.13061918 0.2473304 0.080308475
0001a0 35 70 78 3d 06 b0 14 3e 11 20 c3 bd 9b 06 33 3d
       0.060653884 0.14520273 -0.095276006 0.04370747
0001b0 56 54 05 3e a0 34 39 3e a5 9e 8a bd 16 03 44 be
       0.13020453 0.18086481 -0.0676854 -0.19141802
0001c0 00 b9 f3 bc 0c 3f 12 be 58 85 b3 bd b9 d2 5a bd
       -0.0297513 -0.14281863 -0.08765668 -0.053423617
0001d0 aa 90 da 3d d3 22 b3 bc d5 88 ba 3d 9b ac 1f 3e
       0.10672124 -0.021867191 0.0910813 0.15593188
0001e0 7c 12 b9 3c e2 64 89 bd 22 fb f0 bd 9a a3 95 bd
       0.022591822 -0.06708695 -0.1176665 -0.07306595
0001f0 bc 57 07 bb 4d 77 43 3e d7 f7 12 be 29 f4 40 be
       -0.002065166 0.19088478 -0.14352356 -0.1884314

layer2.weight f4 [128, 128]
000000 9d 77 60 3b e6 24 15 bd c1 cc 03 bd 9e 62 50 3d
       0.0034250983 -0.036412142 -0.03217769 0.0508753
000010 9c 89 a8 bd 29 99 f9 ba 09 5d 27 3e 60 05 a5 3d
       -0.08229372 -0.0019042838 0.16344084 0.08057666
000020 e2 5d 2d bd ec 45 b2 be 17 16 ff 3d c6 3b 8b 3d
       -0.04232586 -0.3481897 0.12455385 0.0679851
000030 8d 72 70 3e 9a 8e 3c 3e 51 35 85 3d ef b8 aa bd
       0.23481198 0.18413773 0.0650431 -0.083360545
000040 d6 27 4a 3d c0 75 51 bd 1f d3 79 bd b4 3f bd bd
       0.049354397 -0.051137686 -0.060992356 -0.09240666
000050 88 94 8e 3d fc 86 07 bd 46 30 71 3e 16 4c d1 3d
       0.06961924 -0.033087716 0.23553571 0.1021959
000060 81 07 16 3e fc fa 5a be e1 c8 ca 3d 57 42 92 3c
       0.146513 -0.21384805 0.09901596 0.017853899
000070 8b 03 f1 bc fa 8b a9 3e b9 c4 5d 3d 20 c6 05 be
       -0.029420635 0.33114606 0.054142687 -0.1306386
000080 19 7b 63 be 9a c4 cf 3d f9 79 8f 3c d9 7a c3 3d
       -0.22214927 0.10144921 0.017514216 0.09544916
000090 7e 89 5a 3e 53 f7 2f be 15 c5 cf 3c 89 f1 65 3d
       0.21341512 -0.1718419 0.02536253 0.05613855
0000a0 bf c6 dd bc 4f 87 91 3c 54 47 03 be ca 6b d5 3d
       -0.027072309 0.017764715 -0.12820178 0.1042095
0000b0 1b 7b c7 bc b8 9f 3c 3d f1 c0 1a 3e e9 1b fa 3d
       -0.024350693 0.046050757 0.15112664 0.12212355
0000c0 61 07 5e bd 25 ce 27 3e 74 67 c5 bd 5e f6 e6 bd
       -0.054206256 0.16387232 -0.09638873 -0.112774596
0000d0 18 d4 74 3e d4 e3 97 bd 6b ba dc 3a 0f f8 4d be
       0.23909032 -0.07416502 0.0016840225 -0.20114158
0000e0 a2 74 87 3d 98 e9 48 3d a7 4f a4 3d 53 0d b7 be
       0.06614043 0.049050897 0.08023005 -0.35752353
0000f0 e3 e3 47 3d 43 bc 03 be cf c2 ab bd 3e 9e 01 3c
       0.048801314 -0.12864785 -0.08386766 0.007911263
000100 69 9b cf bc 81 d6 2b 3e da cf 85 3d aa f6 77 3e
       -0.02534266 0.16781045 0.06533785 0.24215189
000110 bc 4f 2e 3d c2 0e 0a 3e 65 80 18 3c 91 85 d7 3d
       0.04255651 0.13482192 0.009307955 0.10523523
000120 74 24 19 3d 66 0b 32 3c 75 6a e0 3c dc cc 07 bc
       0.03738828 0.010866975 0.027394513 -0.008288588
000130 ce 00 78 3d ec 3b 18 be 12 db 1c be 46 4f 9c bd
       0.060547642 -0.14866608 -0.15317944 -0.07632308
000140 11 a4 37 3d 56 3b 15 3e 2e f1 ad be 58 48 25 3e
       0.0448342 0.14573416 -0.33973068 0.16140878
000150 a8 e3 f9 3b 80 3c 62 3e 98 47 af 39 49 94 08 3d
       0.0076260157 0.22093391 0.00033431943 0.03334454
000160 07 98 5f 3c 9b 4e 00 3e 7c 1a c2 3d 33 2b 51 be
       0.013647086 0.12529986 0.09477708 -0.20426635
000170 08 3b 79 3e 97 e1 a9 3d 75 80 f3 bd 75 da 2c 3c
       0.24338925 0.08294981 -0.118897356 0.010550131
000180 c8 07 87 3c 53 ca 82 3d 54 de b4 3d 96 aa 14 3e
       0.016483203 0.063862465 0.08831468 0.14518198
000190 24 8a 2e 3e ca b0 14 be 36 4e 00 bd 15 b4 66 be
       0.17044884 -0.14520565 -0.031324588 -0.22529633
0001a0 7c cc 72 be ee 78 4a bd 60 7c a1 3e bb c8 7d be
       -0.23710817 -0.049431734 0.31540203 -0.24783604
0001b0 e0 eb 11 3e 9e ea 90 bb a6 3e 20 3d 43 b7 38 bc
       0.14250135 -0.0044225 0.039122246 -0.011274162
0001c0 f2 9b f9 3d 03 dc 8c be d6 31 a5 bd 62 11 25 bc
       0.12187947 -0.27511606 -0.08066146 -0.010074945
0001d0 b1 7b b3 bc 64 a6 35 3c da b0 4c 3e 37 07 87 3d
       -0.021909567 0.011087034 0.19989339 0.06593173
0001e0 b7 7f 6d bd 18 ed 01 be 83 06 00 3e 77 7d b0 3d
       -0.057983126 -0.126881 0.12502484 0.086176805
0001f0 aa 65 92 bd 69 b6 53 3e 06 fe 46 bd 9b 53 f6 bc
       -0.07148297 0.20675053 -0.0485821 -0.030069163
000200 bd 4a bf 3d f9 83 a1 3e 20 f6 31 3d c3 2c d0 bd
       0.09340427 0.31546 0.043447614 -0.101647876
000210 59 01 26 3e d8 bd 8c 3e 96 1a 19 3b 7f 5a 81 bd
       0.16211452 0.2748859 0.0023361794 -0.06316089
000220 23 25 a1 3d 0e e1 43 3d 31 8e 45 bd 79 f0 06 be
       0.078684114 0.04782205 -0.048231307 -0.1317767
000230 a6 e6 62 3c 7a ce 38 3e 02 7b 0d be 36 ca a2 bd
       0.013848936 0.18047515 -0.13816455 -0.07948725
000240 c7 e6 47 3e a6 b9 30 bd c0 d7 6a be 9c eb 81 3d
       0.19521628 -0.0431458 -0.22933865 0.06343767
000250 d9 d3 1c be 68 12 9e 39 c7 2f 7d bd 95 c0 48 be
       -0.15315188 0.00030149822 -0.061813142 -0.19604714
000260 19 a7 26 bd 1c a7 55 be 20 e3 9d bd 6d c1 1a 3c
       -0.0406867 -0.20864528 -0.07709336 0.00944553
000270 c9 6b 03 3e 35 b3 92 3d 5a 83 af bd 08 2b 11 3e
       0.12834086 0.07163087 -0.08569975 0.14176571
000280 4f 8d 9b bc d9 10 1b bd 2b 5a cd b9 e5 bc b3 be
       -0.01898828 -0.037857864 -0.00039167827 -0.35105053
000290 fb 92 61 be 45 90 6d 3e 21 ef 8b bd f7 12 93 bd
       -0.22028725 0.23199566 -0.068327196 -0.07181352
0002a0 e2 76 34 3e c0 99 dc bd 5b 35 aa be c9 54 00 3e
       0.17623475 -0.10771513 -0.33243832 0.12532343
0002b0 14 52 a4 3c b6 ba 13 bd 57 a3 d1 be d6 cc 73 be
       0.02005867 -0.036066733 -0.4094493 -0.23808607
0002c0 48 7d 3a be 47 9e 47 bd e1 24 03 3e 6e 5d 0c 3c
       -0.18211854 -0.04873493 0.12807037 0.008567197
0002d0 49 3e cb bd 42 d2 3e be 3b 7c 04 be 69 93 73 bc
       -0.09923989 -0.18634894 -0.12938015 -0.014866688
0002e0 0a 7e 94 bd f8 62 7c 3e cb 4e 9a bd b4 03 6e 3e
       -0.072506025 0.24647129 -0.0753456 0.232436
0002f0 eb 2e 11 3e 69 ce 03 3e 91 66 5a 3e 8f da 4f be
       0.14178054 0.12871708 0.21328188 -0.20298217
000300 7f 8d 22 3e b7 49 d2 3c 18 7e 42 be ed 92 d6 3d
       0.15874289 0.025669916 -0.18993413 0.104772426
000310 3b 04 5b be 27 53 a7 3d 12 16 25 bd f2 13 15 3e
       -0.21388333 0.08170157 -0.04030425 0.1455839
000320 de 7f 82 be d1 75 4d 3d 36 d9 a1 bd c9 50 bb bc
       -0.2548818 0.050161187 -0.07902758 -0.02286567
000330 d7 8a 09 3e 3c 4c 50 3e af 5c 9d 3d 47 0e 33 be
       0.1343187 0.20341581 0.076836936 -0.17485915
000340 56 63 95 be 02 46 a1 be 9b 62 1a 3c d5 9c a8 be
       -0.2917735 -0.31498724 0.009422923 -0.32932153
000350 8f 00 ec 3d 39 4a 13 be ff 87 00 be d2 18 cd 3d
       0.11523544 -0.14383782 -0.12551878 0.100145
000360 df 79 66 3d 4a 31 c3 3c 9b c3 9d ba ef ea e6 3d
       0.05626857 0.023827214 -0.0012036444 0.11275279
000370 d4 93 83 3c 07 dc 99 be 1b e6 38 3e 96 6c 35 be
       0.0160617 -0.3005068 0.18056528 -0.17717203
000380 fc 83 db 3d bc 57 86 be 58 15 48 bd c0 47 d9 3d
       0.107185334 -0.2623881 -0.04884848 0.10609388
000390 00 2d 3b 3e 31 37 aa 3d a1 28 96 bd 56 f2 0d be
       0.18278885 0.08311308 -0.07331968 -0.13861975
0003a0 83 6f c5 bd 37 98 e1 bd 95 48 9b bd 68 a4 46 be
       -0.0964041 -0.11015361 -0.07582203 -0.19398654
0003b0 aa de 52 3d 18 1d 72 3c 9d e3 17 3e 98 c8 3e b9
       0.05148188 0.014777444 0.14832921 -0.00018194539
0003c0 47 46 40 bc e2 13 ad bc fa 76 06 bd 65 14 56 3e
       -0.011735505 -0.021127645 -0.03282831 0.20906217
0003d0 b1 c6 85 bd 7e e7 90 bd 13 d9 10 3e 04 1e b7 3d
       -0.06532038 -0.07075404 0.14145307 0.08941272
0003e0 94 56 cb 3d 50 f8 9a 3d 9d e7 93 bd 66 b4 59 36
       0.09928623 0.07566893 -0.07221911 3.2440526e-06
0003f0 28 95 c9 bd 9f fa 50 3e c5 1b eb bd 1d 1b 8b 3e
       -0.098429024 0.20408104 -0.11479906 0.27169123

layer2.bias f4 [128]
000000 74 0a 31 3e 30 d3 c6 3c 1b 3b 43 3e 4a c7 d4 3b
       0.17289144 0.024270624 0.19065516 0.0064934837
000010 42 ca 04 3e ca f0 eb 3a 3a 5f 41 3e e1 f6 e4 3d
       0.1296778 0.0018000838 0.18883982 0.11179901
000020 cc 84 93 bd 6f 75 53 bd 87 f6 c4 3d 8c 05 ee 3d
       -0.07203063 -0.051625665 0.09617334 0.11622152
000030 38 b1 73 3e f5 d4 4e 3e 6f 3f af bc a2 41 fc 3d
       0.23798072 0.20198424 -0.021392552 0.12317206
000040 b4 70 0a bd 9e b0 5c 3e 2f 0a 13 bc 12 82 50 bb
       -0.03379889 0.21551749 -0.008974596 -0.003181581
000050 c8 73 3c 3e e1 5f a8 3c 73 33 c5 3e 88 99 17 3e
       0.18403542 0.020553531 0.38515815 0.14804661
000060 41 70 33 bc 20 b1 29 bd 0e 07 36 3e 96 68 0c be
       -0.010952056 -0.041428685 0.17776129 -0.13711771
000070 8d 1e 8c bd 6f 2d 2f 3e 13 6e 6f 3c 61 ac f9 3d
       -0.068417646 0.17107175 0.014613646 0.12191082
000080 97 79 ef 3d 1c b0 a1 bc d4 ff 34 3e e6 1b bb 3d
       0.11693113 -0.019737296 0.17675716 0.091361806
000090 7f 8f 63 bd c6 63 c6 ba 6c 91 38 3e aa 02 85 3d
       -0.05555677 -0.0015135936 0.18024224 0.06494649
0000a0 bf e5 88 3d 5a a1 af 3d 7a ef 72 3e 86 ff f6 3d
       0.066844456 0.08575697 0.23724166 0.12060456
0000b0 b6 6c 26 bd 8a 2d 9f 3d b3 24 05 bc c6 47 08 3e
       -0.04063102 0.07772358 -0.008126426 0.1330863
0000c0 83 16 18 3e 3b 52 9d 3d 1b 19 fc 3c fc f7 0b 3e
       0.14852338 0.076817 0.03077369 0.13668817
0000d0 7e 29 21 3e 71 52 f0 bb f4 f9 45 3d ae f8 83 bd
       0.15738484 -0.0073340465 0.048334077 -0.06443916
0000e0 95 cc 2b 3e b6 dc ae bd 6a d1 e0 bb 3d bb 58 bc
       0.1677726 -0.08538191 -0.0068609016 -0.013228235
0000f0 6e 92 a8 bd c8 15 2a 3e 22 95 2f 3a e1 78 36 bd
       -0.08231054 0.16609871 0.0006697943 -0.044548873
000100 4c 84 bc 3d 40 f9 0a 3e 35 2c f9 3d 78 3e da bc
       0.09204921 0.13571644 0.12166635 -0.026641116
000110 a4 e2 9f bd b2 1c f5 bc 31 40 1f 3e 26 31 a2 3d
       -0.078069 -0.02992091 0.15551831 0.079195306
000120 07 d8 47 3e a9 19 19 3e e0 8a 61 bd be 0d 1a 3e
       0.19516002 0.14951195 -0.055064082 0.15044305
000130 a1 74 fb 3d 1e 80 01 3d 2d 52 2c bc 30 45 77 bd
       0.122781046 0.031616323 -0.010517639 -0.060368717
000140 ec 00 b2 3d 77 de d7 3d f9 a7 96 bd 27 f2 c0 3c
       0.08691582 0.10540479 -0.07356257 0.023552967
000150 8e 50 11 bd da ad 4b bc ed d5 3d bd 23 a1 83 3d
       -0.035477214 -0.012431586 -0.046346594 0.06427219
000160 1a 30 70 3d ad b9 5d bd fd 1f f7 3d c6 50 53 3d
       0.058639623 -0.054132152 0.12066648 0.051590703
000170 4a 32 e7 bc 2a be bc 3e 73 23 ba 3d 66 23 73 ba
       -0.028222222 0.36863834 0.09088793 -0.0009274989
000180 7f ef 77 bd 66 78 02 3e d7 66 e0 3d 6b 95 e1 3d
       -0.060531136 0.12741241 0.10957115 0.11014827
000190 e5 07 56 3e 4e 10 30 3e c1 46 34 3e b4 df 09 3e
       0.20901449 0.1719372 0.17605115 0.13464242
0001a0 f3 2c d6 3d 48 3c 90 3d d9 70 b8 bd fd ef 28 be
       0.10457792 0.07042748 -0.09005899 -0.16497798
0001b0 eb 54 80 bd 71 a9 f2 3d 9b bb f4 3d e0 ba 1c 3e
       -0.06266197 0.11848725 0.119498454 0.15305662
0001c0 33 a2 04 3e d3 fe 75 bd 0d 22 e9 bd c0 13 c7 bd
       0.12952499 -0.060057472 -0.11383448 -0.09720564
0001d0 7a b7 ec 3d f4 f1 d2 3c a1 e0 ec 3c 1b d3 96 3d
       0.11558433 0.025750138 0.028915705 0.07364484
0001e0 d2 28 fe 3d 5a bc 9b ba a4 21 fc 3d 03 57 ab 3c
       0.124101296 -0.0011881695 0.12311104 0.020915514
0001f0 62 ae 5d 3e af 11 b0 3d 9b ba bf bd 07 0b b7 bd
       0.21648553 0.08597123 -0.09361764 -0.0893765

layer3.weight f4 [4, 128]
000000 89 8d 72 3e ea 4d 9f 3e 27 c6 fa 3d 49 43 d1 bd
       0.23686804 0.3111413 0.12244826 -0.10217912
000010 cd 41 28 3d b2 22 c8 3e 24 5f d8 3d 42 f6 d4 3c
       0.041078378 0.3908897 0.10565022 0.025996331
000020 2f d0 cb bd 4b c3 59 bd 91 c0 9b 3d 84 ee 6c 3d
       -0.09951817 -0.05316476 0.076050885 0.057844654
000030 89 ed 04 3e 08 f8 82 3d da a8 85 bb 04 23 79 3d
       0.12981237 0.063949645 -0.0040789666 0.06082441
000040 7d 0e 09 be 62 c1 58 3d 64 44 1c 3e 9f c0 94 3e
       -0.13384433 0.0529188 0.15260464 0.29053208
000050 76 2a 03 3e b5 a8 a7 3e ae af aa 3e 56 bf 82 3b
       0.12809166 0.327459 0.33337158 0.003990094
000060 10 d5 04 3d d8 63 82 3e 44 9f dc 3d 91 89 e2 3d
       0.032429755 0.254668 0.10772565 0.11061395
000070 60 d6 61 be 40 81 bd 3d 9c 67 81 be 20 97 c9 3d
       -0.22054434 0.09253168 -0.2527436 0.09843278
000080 88 5d a8 3d 0a a4 10 bd 84 3a 8e 3d d7 48 6b 3c
       0.08220965 -0.03531269 0.06944755 0.014360628
000090 bb fe 15 be da f5 82 bd 4e 55 b6 3d 72 3e 60 bd
       -0.14647953 -0.06394549 0.08902989 -0.054747052
0000a0 d7 30 80 3b 85 dc 13 bc f7 b9 f4 3d ad f2 fe 3d
       0.003912072 -0.009024744 0.119495325 0.124486305
0000b0 17 61 89 be 03 da cd 3c 6e c1 4e bd 1b f4 a7 3d
       -0.26831886 0.02512837 -0.050477438 0.08200856
0000c0 f2 55 03 3d 99 52 a7 3d 38 28 a1 3c 4b 75 09 3e
       0.032064386 0.08170051 0.019672498 0.1342365
0000d0 c4 e2 0a 3e 80 8d b4 3e ea 10 73 3e 30 fc 84 3e
       0.13563067 0.35264206 0.23736921 0.25973654
0000e0 74 0e e1 3d dc e7 e4 be dd 84 80 bd 9e 56 d9 bd
       0.10989085 -0.44708145 -0.06275342 -0.10612224
0000f0 41 f2 c8 be 20 e7 eb 3d 7b 61 2a 3d 65 14 8c be
       -0.39247325 0.11518693 0.04159687 -0.2735931
000100 5f f7 98 3d e9 d4 04 3d 4f 37 e6 3d fd 83 35 3d
       0.07469057 0.03242961 0.11241018 0.044315327
000110 0c d5 91 be ee ab e7 be 5b 21 3c 3d fa db a8 3c
       -0.28482854 -0.4524836 0.045930248 0.020612705
000120 20 96 b2 3d 65 75 7e 3d c5 aa ae bd 89 8b ad 3d
       0.0872004 0.062123675 -0.085286655 0.0847388
000130 2f 64 d4 3e 19 1d 18 3e 92 5c 89 be a3 b5 b5 3d
       0.41482684 0.1485485 -0.26828438 0.08872535
000140 3b e0 f8 3c 44 1b cb 3d 1b 74 85 3e 3b e8 db 3e
       0.030380359 0.0991731 0.26065144 0.42950615
000150 b8 89 40 3d 41 a2 16 3e 50 9f 1b 3d d1 bd 1c 3c
       0.04700634 0.14710332 0.03799373 0.00956674
000160 bb 17 86 3d 5c 27 8a be af 23 09 3e 3f c0 0a be
       0.06547495 -0.26983154 0.13392518 -0.13549899
000170 67 9f 2b 3e e8 15 98 3e 9c 55 c9 3c 9f e4 10 3c
       0.16760026 0.29704213 0.024576955 0.00884357
000180 91 97 14 be 20 57 ef 3d dd 53 8a 3d be 33 a8 3d
       -0.14510943 0.1168654 0.06754277 0.08212994
000190 83 6a b2 3d c3 73 b9 3d a7 4a cf 3d b9 60 c7 3d
       0.08711722 0.09055283 0.10121661 0.09735245
0001a0 ba 6a 07 3d c6 4a ce 3e ac 24 b4 be 93 62 9f be
       0.033060767 0.40291423 -0.35184228 -0.31129894
0001b0 bc a5 14 3c 2f 4e cd 3d 6d 5c e6 3d 54 a5 c2 3d
       0.009072717 0.10024678 0.112480976 0.0950419
0001c0 7a 31 51 3d 10 60 07 3e 1a a6 02 bf 67 b4 4b be
       0.051072575 0.13220239 -0.510347 -0.19893037
0001d0 2d 11 99 3e 15 f6 e9 3d a6 d0 02 3e 32 19 9e 3d
       0.29895917 0.114238895 0.12774906 0.077196494
0001e0 8f 91 1e 3d 5b 31 8f bd 6c 47 96 3e 16 6c 71 3d
       0.038713034 -0.06991836 0.29351366 0.05894097
0001f0 14 aa 34 3d 82 04 9e bc 5c 5a 15 be 92 3f 29 be
       0.04410751 -0.019289259 -0.1458525 -0.16528156
000200 a6 ad 33 3e 28 7e 58 3e 7d f8 aa 3d 25 19 19 3e
       0.1754671 0.21141875 0.08348177 0.14950998
000210 58 fa f3 3d 60 f6 96 be 3d 55 87 3d d4 da c1 3d
       0.11912984 -0.29484844 0.06608055 0.09465566
000220 8d ed 58 bd 86 4a ca bd 26 68 8f 3d 0e 25 eb 3d
       -0.05296092 -0.098774955 0.070022866 0.11481677
000230 79 af 3f 3d 47 8c f3 3d 51 b6 3a 3d 71 28 d6 3d
       0.046798203 0.1189199 0.045584027 0.10456932
000240 2a 6e a8 be 52 c7 d5 3d f0 46 9a be 65 a7 24 be
       -0.32896549 0.10438408 -0.30132246 -0.16079481
000250 44 08 d4 3d 03 31 c1 3e 8f 23 9d 3e 5f 3d f8 3d
       0.10353139 0.37732705 0.30691192 0.121210806
000260 09 a8 29 3e 85 41 bc be 53 31 a2 3c 87 0a 4f 3e
       0.16568007 -0.36768737 0.01979891 0.2021886
000270 bd d9 93 be 9e 2d b9 3d aa 6e 72 be a8 fc 70 3d
       -0.2887706 0.09041904 -0.23675027 0.0588347
000280 f1 27 d1 3c 1f 39 79 3d 8e d6 e8 3d 86 1a b4 3d
       0.02553174 0.06084549 0.11369048 0.087941214
000290 26 78 48 3e 3e 87 1c 3e c1 2b 2d 3d 4f 93 95 3e
       0.19577083 0.15285966 0.042278055 0.2921395
0002a0 d4 50 9e 3d 43 29 53 3e 90 87 52 3d 61 39 74 3d
       0.077302605 0.20621209 0.051398814 0.059625033
0002b0 d3 66 10 3d 07 b3 8b 3e ad ef a7 3e 06 1b ab 3e
       0.03525431 0.27285025 0.32800046 0.33419055
0002c0 1a cc d7 3d 68 d4 7b 3a d5 0d 7f 3e 3f 48 9c 3d
       0.10536976 0.0009606541 0.2490762 0.07630967
0002d0 e6 76 c9 3d 78 c5 1e 3d 07 97 27 be 7b d1 a3 be
       0.09837131 0.03876254 -0.16366206 -0.31995758
0002e0 54 93 91 3d 18 55 34 bd e3 20 af be 45 68 a6 3c
       0.07108179 -0.044026464 -0.34204778 0.020313391
0002f0 eb f5 92 be 93 fd 16 3d 9c 1a 81 3e df 7a a7 3d
       -0.28703246 0.03686292 0.25215614 0.08177733
000300 4c 28 99 3d 53 4a 6c 3d 24 64 c7 3d aa 88 10 bd
       0.07478389 0.05768807 0.09735897 -0.035286583
000310 4e ee 5e be 63 d4 88 3e 97 d6 82 3d 90 6e de 3d
       -0.21770594 0.26724538 0.06388586 0.10860932
000320 29 d3 cd 3d 86 78 50 bd ef 91 e9 be 39 ac 1a 3d
       0.10050041 -0.05089619 -0.4561915 0.0377619
000330 69 8d 52 3e fc 85 81 be 16 b9 2a 3e 50 fd 3e 3d
       0.20561756 -0.25297534 0.16672167 0.046628296
000340 d3 0e a9 3d 1a ed fe 3d c3 39 8b be 82 f0 05 3d
       0.082547806 0.12447567 -0.27192506 0.03270007
000350 98 78 20 3e 4d 76 00 3e ea df a2 bb 8c 52 cb 3d
       0.15671003 0.12545128 -0.0049705403 0.09927854
000360 28 37 bb 3d 0e 5b f3 bd ae 59 a2 3d 92 4c 06 3e
       0.091413796 -0.11882602 0.07927261 0.13115147
000370 cf d8 55 be 46 07 a4 3e 2b b9 89 3b 88 02 1d 3e
       -0.20883487 0.320368 0.004202982 0.15332997
000380 e1 de 62 be 6b 55 aa 3c cd e1 c9 3d f1 73 cc 3d
       -0.22155334 0.020792684 0.09857521 0.099830516
000390 de 8c 86 3d 83 c0 62 3d 95 a6 96 3d 1c a9 52 3d
       0.06569837 0.055359375 0.07355992 0.051430807
0003a0 d5 50 e7 3d 30 0b 7c 3c 39 b8 0d 3e da 18 54 be
       0.11294714 0.015383527 0.13839807 -0.20712605
0003b0 2e 70 1a 3e 95 3e 6d 3d 66 f0 a2 3d c3 8f f9 3d
       0.15081856 0.05792101 0.079560086 0.121856235
0003c0 84 90 e1 3d f4 d1 4f 3e 0b 37 e6 3e e7 07 0b 3c
       0.11013892 0.20294935 0.4496387 0.008485771
0003d0 bc a6 df bb 0e 89 02 be 84 2c 79 3d f9 f3 2f 3d
       -0.006825296 -0.12747595 0.06083347 0.04295728
0003e0 1e fb cf 3d 80 a5 c5 3d fc 67 42 3e d2 4a 85 bd
       0.10155319 0.09650707 0.1898498 -0.065084115
0003f0 eb ea 8b 3d 96 25 55 3d ed c3 a9 3e 66 ba 2f 3d
       0.068319164 0.052037798 0.33157292 0.042902373

layer3.bias f4 [4]
000000 ef 3c 18 3e 00 28 ef 3c fe 78 18 3d 71 77 18 3e
       0.14866994 0.029193878 0.037224762 0.14889313
