state_dic_policy_net/test_v7.pth (torch, 98391 bytes, 6 tensors)

layer1.weight f4 [128, 121]
000000 83 4f 69 bd c6 24 66 bd f9 db 64 bd cd a4 79 bd
       -0.056960594 -0.056187414 -0.055873845 -0.060948182
000010 be b0 75 bd 11 2b 69 bd dc 3a 5f bd 28 79 5f bd
       -0.059983008 -0.056925837 -0.054499492 -0.054558903
000020 2d 59 7d bd 87 d0 75 bd 3d 57 72 bd 96 18 73 bd
       -0.061852623 -0.06001332 -0.05916523 -0.05934962
000030 b4 4f 47 bd 1a 49 1d ba 06 2a 29 bd 57 8e fe bc
       -0.048659995 -0.00059999677 -0.041299842 -0.031073732
000040 3d 03 6c bd 8a db 64 bd e1 dc 0b bd ac 5e 84 bd
       -0.057620276 -0.05587343 -0.034146193 -0.0646337
000050 1f 5a 4a bd 5c 11 75 bd da ec 6e bd 69 64 85 bd
       -0.049402352 -0.05983101 -0.058331348 -0.06513292
000060 a1 1d 5e bd 79 e9 71 bd 22 be 79 bd 96 75 6f bd
       -0.054227475 -0.059060548 -0.06097234 -0.058461748
000070 4e 98 34 bd ff d1 75 bd 2e 91 6d bd 2e eb 49 bd
       -0.04409056 -0.06001472 -0.057999782 -0.04929655
000080 57 47 70 bd b8 8f 6f bd 27 da 6d bd f0 cb b4 bc
       -0.058661785 -0.05848667 -0.058069374 -0.022069901
000090 89 1a 24 bc 23 0b 9e bd 9d e7 49 bd cf 03 cc bd
       -0.010016092 -0.07716968 -0.04929315 -0.09961664
0000a0 de c2 58 bd 46 1a 75 bd 61 70 f3 bc ca 26 7c bd
       -0.052920215 -0.05983951 -0.029716672 -0.06156043
0000b0 3a ec 65 bd 11 26 5c bd cc 2e 67 bd 6d 06 6f bc
       -0.056133486 -0.05374724 -0.056441113 -0.014588934
0000c0 f6 e5 6f bd 23 f7 7e bd 03 1a 80 bd 74 01 5c bd
       -0.058568917 -0.062247407 -0.06254961 -0.053712323
0000d0 23 eb 7a bd 5c c9 3d bd 1e 58 6e bd 7d e5 5f bd
       -0.0612594 -0.04633461 -0.058189504 -0.054662216
0000e0 a3 39 54 bd 61 d7 6a bd c4 29 31 bd d8 ff 4f bd
       -0.05181278 -0.057334308 -0.04325272 -0.0507811
0000f0 ad 1b 43 bd 34 13 54 bd cc 93 f8 bc 40 a3 16 be
       -0.047633816 -0.051776126 -0.030343913 -0.14710712
000100 0f 41 ac bd 88 15 60 bd 29 42 77 bd aa 5d 77 bd
       -0.084108464 -0.054708034 -0.06036583 -0.06039206
000110 c6 7d 76 bd 2c d9 07 bd e7 25 60 bd 78 af 76 bd
       -0.06017854 -0.033166096 -0.054723646 -0.060225934
000120 ea 98 68 bd 13 e9 1a bc fd 7b 5d bd 86 56 4f bd
       -0.056786455 -0.009454983 -0.054073323 -0.050619625
000130 db bc 70 bd 2e 1d 72 bd fb c4 56 bd d2 20 e2 bd
       -0.058773857 -0.05910986 -0.05243395 -0.11041416
000140 5a 4a b1 bd 4e b1 0a bd 88 85 97 bd 70 16 4d bd
       -0.086567596 -0.033860497 -0.07398516 -0.050070226
000150 0c 22 e1 bc 35 04 bf bc 3b a5 b9 be 0d a5 6e bd
       -0.027482055 -0.023317436 -0.36258873 -0.058262873
000160 b1 19 80 bd e2 a4 41 bd b9 52 7c bd 3e 7a 5e bd
       -0.062549 -0.047276385 -0.061602328 -0.054315798
000170 dc 1f a0 bd d4 79 73 bd 3d 2b 4c bd ae 73 66 bd
       -0.07818577 -0.059442356 -0.049845923 -0.056262664
000180 41 7b 62 bd e7 ae 10 bd dd ba 60 bd 6c f9 75 bd
       -0.055293325 -0.03532305 -0.054865707 -0.06005232
000190 87 8c 53 bd de 8c 2a bd 8b 9e 14 be 19 32 87 bd
       -0.05164769 -0.041638248 -0.14513604 -0.06601352
0001a0 39 23 64 bd 72 7c 60 bd 31 af 66 bd 2a 9f 9b bd
       -0.055697653 -0.05480618 -0.05631942 -0.075987175
0001b0 ad 90 ed bd 0d 79 6a bd e8 b8 6a bd c6 3f 70 bd
       -0.1159986 -0.05724435 -0.057305247 -0.05865457
0001c0 fc f1 6e bd c6 2c 7a bd d7 32 68 bd 18 dc 69 bd
       -0.058336243 -0.061077856 -0.05668911 -0.057094663
0001d0 d4 d7 7a bd 14 ff 62 bd e1 57 79 bd 6f ab 67 bd
       -0.061240986 -0.055419043 -0.060874823 -0.056559976
0001e0 0b fd 75 bd fa be 6a bd 0a 31 7f bd 27 41 7e bd
       -0.060055774 -0.057311036 -0.062302627 -0.062073853
0001f0 f9 1b 6c bd 79 0f 7d bd db dc 68 bd 4a e5 7c bd
       -0.057643864 -0.061782334 -0.05685125 -0.061742105
000200 68 66 76 bd d9 04 7b bd 84 6a 72 bd 99 9f 74 bd
       -0.060156256 -0.06128392 -0.059183612 -0.059722517
000210 d0 81 74 bd e4 28 3b bd a1 60 03 bd 6f aa 11 bd
       -0.05969411 -0.045693293 -0.032074574 -0.03556293
000220 d0 5a 0f bd ac 50 7c bd 0c 4a eb bc 43 70 45 bd
       -0.034998715 -0.061600372 -0.028721832 -0.048202764
000230 5c e2 08 bb b3 c7 43 3c ff c8 81 bd 42 d4 7a bd
       -0.0020886874 0.0119494675 -0.06337165 -0.06123758
000240 16 d4 90 ba 5a 07 75 bd 1f a0 77 bd 45 f0 8d bc
       -0.0011049535 -0.059821464 -0.060455438 -0.017326484
000250 43 a4 7a bd da ac e4 bc 92 8c 6f bd 55 dc 77 bd
       -0.06119181 -0.027914453 -0.058483668 -0.06051286
000260 91 c7 51 bd 88 59 77 bd 46 74 66 bd 28 e2 00 be
       -0.051215712 -0.060388118 -0.05626323 -0.12586272
000270 a6 fd b9 bd 5c 87 0e bd 81 f1 03 bd 05 95 5a bd
       -0.09081583 -0.034797058 -0.032212738 -0.053364772
000280 b3 74 14 bd 0e da f9 bb a4 af d9 bc 7a e3 3c bd
       -0.036244106 -0.007624871 -0.02657301 -0.046115376
000290 b0 da 71 bd 35 21 7e bd 2a ec a6 bc 7a 6c 7e bd
       -0.059046447 -0.062043387 -0.020376284 -0.06211517
0002a0 23 e8 9c bc da ba 78 bd cb 8e 81 bd 8f 44 7e bd
       -0.01915366 -0.06072507 -0.06326064 -0.0620771
0002b0 ad dc 1e bc 9b 3d 83 bd d6 6f fa bc d4 a4 82 bd
       -0.009696168 -0.06408235 -0.030570906 -0.06379095
0002c0 fc 9e 6b bd 0f e6 cf bc 3c d2 76 bd 58 87 b5 bd
       -0.057524666 -0.025378255 -0.06025909 -0.088637054
0002d0 7a 45 bb bc b6 d4 e0 bc 99 88 55 bd 87 42 26 bd
       -0.022860277 -0.027445178 -0.052132223 -0.04059079
0002e0 75 d8 9b bc 1d f4 0c bd 27 9e 7e bd 9c 81 70 bd
       -0.019024113 -0.034412492 -0.062162545 -0.058717355
0002f0 f1 46 f1 bc 1a 9e 6c bd 7f ec 8f bc 90 e3 82 bd
       -0.029452773 -0.057767965 -0.017568825 -0.0639106
000300 9d 4e 77 bd 29 b0 74 bd 70 77 c8 bc 24 91 79 bd
       -0.060377706 -0.059738312 -0.024471015 -0.060929433
000310 91 59 23 bd 27 f9 77 bd a4 d5 72 bd 68 43 80 bd
       -0.03988034 -0.060540345 -0.059285775 -0.06262857
000320 22 99 57 3b e8 74 16 bd 93 e5 1a bc c4 c2 ca bd
       0.003289767 -0.036732584 -0.009454149 -0.0990043
000330 89 73 c2 bc dd 98 c2 bc 24 ab 9f bc 6f 06 0f bd
       -0.023736732 -0.023754532 -0.019490786 -0.034918245
000340 84 5e 6d bd c5 ac 84 bd 34 6b ee bb c8 a4 67 bd
       -0.057951465 -0.06478266 -0.007275963 -0.056553632
000350 a0 30 67 bd 0d e2 f0 bc fa a5 78 bd 0f 87 f0 bc
       -0.056442857 -0.029404664 -0.060705163 -0.029361276
000360 9f f7 68 bd 7a 19 6c bd b2 1d 82 bc dc 3c 6e bd
       -0.056876775 -0.057641484 -0.0158833 -0.05816351
000370 36 ff 66 bd 08 f6 63 bd 52 87 21 bd ba 65 a0 bd
       -0.056395732 -0.055654556 -0.039435692 -0.07831903
000380 ab b3 67 3c 70 f4 6c bd 23 c3 8d bc d6 99 c4 bc
       0.014141957 -0.0578503 -0.017304963 -0.023999136
000390 eb 6e 80 bc b6 d0 6f bc d6 69 84 bd f2 3b 76 bd
       -0.01567789 -0.014637163 -0.06465499 -0.060115762
0003a0 88 e7 80 bd 9d ae 80 bd af cf 81 bd 9a b0 67 bd
       -0.06294161 -0.06283305 -0.063384406 -0.056564905
0003b0 0d 11 7b bd 18 53 79 bd e3 b0 83 bd 92 7d 6a bd
       -0.061295558 -0.06087026 -0.06430223 -0.05724866
0003c0 84 88 7b bd 2e 86 76 bd 0f dc 9d bd 80 06 96 bd
       -0.06140949 -0.060186557 -0.077079885 -0.073254585
0003d0 93 b7 9d bd ab 1d 9e bd b5 07 99 bd 19 fc 9e bd
       -0.0770103 -0.077205025 -0.07472173 -0.077629276
0003e0 82 78 8d bd 38 2a 9a bd 7e 7d 9c bd 5f 76 9f bd
       -0.06907751 -0.07527584 -0.07641123 -0.07786249
0003f0 56 d5 8e bd ec c3 8e bd 8e f9 15 bd 2f 33 cb bb
       -0.06974284 -0.06970963 -0.036614947 -0.00620117

layer1.bias f4 [128]
000000 95 f5 6c 3d 2a 88 83 3d 0c 97 9f 3d fe 51 fd 3c
       0.057851393 0.064224556 0.07792482 0.030922886
000010 4d 1a 9c 3c 33 e5 99 3c 5e 30 64 39 2f 12 6e 3c
       0.01905551 0.018786049 0.00021761793 0.0145307025
000020 fb 2f 60 b9 c4 95 a1 3d 36 79 d1 3d 2e 7c 5a bb
       -0.00021380179 0.07889894 0.10228197 -0.0033338177
000030 ac df bc 3b e7 ac dc bc 75 4f 80 3c 8d ce 5b 3c
       0.0057639685 -0.026937915 0.015662888 0.013415945
000040 fd 23 bb bc 9b 00 dd bc f9 63 d5 3c 0f 88 84 3d
       -0.022844309 -0.026977828 0.026048647 0.064712636
000050 3a 52 fc 3d 36 eb 40 3c da cc 0d 3c 1b 51 16 3d
       0.12320371 0.011774829 0.008654797 0.036698442
000060 a4 91 f2 3d 1a 89 9f 3d 49 5d bc 3d 37 76 8c 3c
       0.11844185 0.07789822 0.0919748 0.017146213
000070 03 34 4e 3d aa 2d bb bc c2 e1 b9 b8 c2 dc d6 bc
       0.05034257 -0.022848923 -8.863538e-05 -0.026228312
000080 5a 5a 91 3d 4f 20 f8 3c 6c 66 0b 3c 7f 00 90 3d
       0.07097311 0.030288843 0.008508306 0.070313446
000090 4a 17 30 3c 7a fc ea 3c 76 f8 11 3b ad 80 3d 3d
       0.01074774 0.028684843 0.0022273338 0.046265293
0000a0 50 49 6b 3d 3c 5a 31 3c bd 97 86 3d fc e1 77 3d
       0.057442963 0.010824736 0.065719105 0.06051825
0000b0 cb 45 83 3d 5e 90 52 bb df b5 b5 ba 02 82 c6 3d
       0.06409796 -0.0032129507 -0.0013863406 0.09692766
0000c0 e4 0d cc 3c 41 2e a1 bb e7 4a 2c 3d 99 90 be 3c
       0.024908967 -0.004918844 0.04206362 0.023262309
0000d0 86 53 20 bb e3 99 68 3b 7d 4a 9e 3d 42 0f 42 3b
       -0.0024463846 0.0035492114 0.07729051 0.0029611145
0000e0 36 69 e7 3c 73 2d 9d 3d a9 99 52 3c 33 88 8e 3d
       0.02824841 0.076746844 0.012854018 0.06959572
0000f0 c0 ab bb bb db eb 3d 3d d1 c6 ba 3d 5f 80 13 3c
       -0.0057272613 0.046367507 0.091199525 0.009002774
000100 49 6d c6 3c 03 57 16 bc 48 a9 03 bc 20 e2 75 3d
       0.024222033 -0.009176019 -0.008035965 0.060030103
000110 0d 05 d1 3d 5c cd 6b bb 28 79 c9 39 0c a5 43 3b
       0.102060415 -0.0035980558 0.00038427976 0.0029853014
000120 13 a2 3d 3c a6 88 06 3d 85 96 16 3d 5a 4a b0 bc
       0.011574286 0.03284516 0.03676464 -0.021519829
000130 e1 8c 9c 3c 9e 99 0f bb de 21 6e 39 ce 0e b0 bc
       0.019110145 -0.0021911631 0.00022710065 -0.021491434
000140 7b 2e c9 3d f2 e8 64 bd 9f 38 6c 3d 02 38 d7 3d
       0.098233186 -0.055886216 0.057671186 0.105087295
000150 67 b7 1e bc cb f4 76 3d b5 ab 66 3d c9 20 c0 bc
       -0.009687281 0.060292047 0.056316096 -0.023453133
000160 e6 82 92 3c d8 e5 86 3d 9a e8 10 3c 18 1a 2a 3b
       0.017884683 0.06586808 0.008844519 0.0025955494
000170 11 3d c3 3c b7 12 1c 3d ff 64 dc bc 8a 64 25 bd
       0.02383283 0.038103785 -0.026903627 -0.040379085
000180 3b ae 6b 3c c2 bc 0a 3d d0 7f 86 3d 14 b0 74 3d
       0.0143848015 0.03387142 0.06567347 0.059738234
000190 1b c0 8b bb b9 c4 5e bb f8 2b ab 3d 29 7e 5c 3c
       -0.004264844 -0.0033991768 0.08357996 0.013457813
0001a0 23 6d 7d 3d 36 13 1f 3d 5e 2c 59 3b 90 b5 58 bb
       0.06187166 0.03883668 0.0033138017 -0.0033067204
0001b0 ab 32 bf 3d 06 ca 25 3d bf b5 82 bb 36 81 1c 3d
       0.09335836 0.040475868 -0.003988951 0.038209163
0001c0 4e 22 aa b8 ac bc 72 3e b9 d3 01 3d a3 70 9d ba
       -8.1126214e-05 0.23704785 0.031696055 -0.0012011718
0001d0 53 a0 6f 3c 52 b7 52 bb 5c be bd bb 06 da 3f 3c
       0.014625627 -0.0032152724 -0.005790515 0.011709696
0001e0 d4 ae 0e bc 7d 02 b5 3d 9a 60 42 3b eb d9 f3 3a
       -0.008708674 0.08838365 0.002965963 0.0018604373
0001f0 29 4e 19 3e 25 b9 b3 3c af 9b f9 3d 30 73 89 bd
       0.14971222 0.02193887 0.121878974 -0.067114234

layer2.weight f4 [64, 128]
000000 34 9b e3 ba 9e ba c7 3a 0f 99 d6 3a 2f f0 69 3b
       -0.001736498 0.0015238111 0.0016372519 0.003569614
000010 68 90 08 ba 21 7e be 3a 52 7a fd 3a d7 14 05 3b
       -0.00052095065 0.0014533439 0.0019338822 0.002030661
000020 b3 28 34 bb d9 ff dc 39 54 0a 8a ba 26 d3 7f 3b
       -0.002749008 0.0004215229 -0.0010531642 0.0039035766
000030 64 20 c6 3a 83 c9 22 ba 78 70 21 3b 9e 71 a8 3a
       0.0015115854 -0.0006209837 0.0024633687 0.0012851243
000040 69 64 ed 39 7f 47 e9 3a 5f ec 20 b9 8a 7a 91 3a
       0.00045278974 0.0017797797 -0.00015346844 0.0011099142
000050 75 11 60 b9 cb 66 a0 ba 21 5f bb b9 e0 c6 a0 ba
       -0.00021368808 -0.0012237666 -0.00035738296 -0.0012266301
000060 01 6d ee ba 34 b7 17 3b d3 d5 63 38 a0 b5 51 3a
       -0.0018190445 0.002314997 5.4320157e-05 0.00079997815
000070 fa a3 7b bb 17 98 e2 39 e9 38 80 bb 02 16 22 3b
       -0.0038397298 0.00043219395 -0.003913034 0.0024732356
000080 f8 19 07 bb 9d 08 81 bb 18 98 7d 39 65 ef bd ba
       -0.0020614844 -0.0039377944 0.0002418462 -0.0014490901
000090 fe f2 8c ba f3 93 dc b9 fd 25 0b 3b 6c 24 0d bb
       -0.001075357 -0.000420719 0.002123236 -0.0021536602
0000a0 4c a7 4e 3b 2c 80 7e 3a d2 e3 95 bb d2 a1 41 bb
       0.0031532822 0.000970843 -0.0045742774 -0.0029545915
0000b0 59 20 2a bb 49 ae 67 bb 6b 8a 95 bb aa 36 3a bb
       -0.0025959222 -0.0035351685 -0.00456362 -0.002841393
0000c0 eb 44 58 bb 3c e1 72 bb 21 b9 89 39 39 70 cf ba
       -0.0033000063 -0.003706052 0.00026268608 -0.0015826292
0000d0 5c 58 22 bb 73 0a 5a bb e0 7c 7d 3a d9 f3 83 bb
       -0.0024771905 -0.0033270388 0.0009669792 -0.0040268716
0000e0 eb 87 04 bb 41 c9 8f 3a 88 cf 52 ba fc 72 8e 3a
       -0.0020222615 0.0010970013 -0.0008041789 0.0010868008
0000f0 35 89 3f bb 88 f6 01 39 0f cd 6e ba dc 88 d6 b9
       -0.002922607 0.00012394239 -0.00091095356 -0.0004091923
000100 e6 08 a3 ba 25 d1 12 bb 9d 0a 23 3b bb 09 54 bb
       -0.0012438565 -0.0022402492 0.0024878152 -0.0032354433
000110 6a 1c 36 bb e6 f5 27 bb 2d 2e a3 ba d5 38 42 39
       -0.0027787932 -0.0025628745 -0.0012449675 0.00018522453
000120 02 63 a1 3a 55 b1 ed 3a 48 29 94 bb 6a f9 47 3b
       0.0012312832 0.0018134514 -0.0045215227 0.0030513653
000130 de 44 a2 bb 50 c2 60 bb 21 a0 e6 3a e4 e7 40 bb
       -0.0049520573 -0.0034295507 0.001759533 -0.0029435093
000140 ae fd a1 ba d6 c4 1d 3b f7 aa 37 bb 16 89 ab bb
       -0.0012358928 0.0024073622 -0.0028025487 -0.005234848
000150 65 dc a8 3a 50 75 db ba 2d 96 d7 37 e5 4b 0a 3b
       0.0012883066 -0.0016743336 2.5699928e-05 0.0021102366
000160 c4 13 3b b8 a7 88 95 bb 9c 89 9e 38 61 1b 2f 3b
       -4.4602682e-05 -0.0045634094 7.559659e-05 0.00267192
000170 1e 16 06 bb 63 af 2b bb 9b 5b 4a bb de d4 8a 39
       -0.002045996 -0.0026197068 -0.0030877355 0.0002648001
000180 7d 62 70 bb 4e 74 fa 3a 95 09 75 bb 76 b0 90 bb
       -0.0036679797 0.0019108148 -0.0037389745 -0.004415567
000190 58 f6 52 3a cf c9 aa ba 35 d2 01 ba 3f 41 c7 ba
       0.00080475723 -0.0013030114 -0.0004952283 -0.001520194
0001a0 e9 0f 6d bb a0 dd dd 3a ab e7 68 ba 40 6d 86 bb
       -0.0036172813 0.0016927011 -0.0008884619 -0.004102379
0001b0 f2 6d ff ba 66 bd 9d 3a d9 53 25 bb f8 24 85 ba
       -0.0019487722 0.0012034595 -0.002522698 -0.0010158112
0001c0 e5 09 65 3b 32 88 e4 ba 64 b8 1a 3b 64 73 20 3b
       0.0034948525 -0.0017435609 0.002360844 0.002448284
0001d0 f8 7f f5 b7 2b 2c b2 3a 01 a2 07 3b 2f 3a 56 bb
       -2.9265866e-05 0.0013593485 0.0020695927 -0.0032688489
0001e0 61 80 95 3a f6 74 04 3a 53 4c 20 3b 9d 72 67 ba
       0.0011406058 0.0005052829 0.0024459555 -0.00088290294
0001f0 3a 82 4b 3b 77 93 89 3a e6 f8 27 3b 26 a2 2d bb
       0.0031052963 0.0010496218 0.0025630533 -0.0026494353
000200 09 95 99 bb 81 34 8c bb 7d fa 58 bb be 11 83 bb
       -0.004686956 -0.00427872 -0.0033108287 -0.003999918
000210 ef c3 35 3b 2a 6b 88 3b f2 6b 9f ba 23 46 12 3b
       0.0027735194 0.0041631656 -0.0012162908 0.0022319637
000220 55 e4 c0 ba 05 00 af 3a 39 2b b9 3a b4 fa dc ba
       -0.0014716486 0.0013351446 0.0014127261 -0.0016859383
000230 81 34 1a bb 7c 16 5f bb d7 ef 4a 3b 96 69 ae ba
       -0.002352983 -0.0034040501 0.003096571 -0.0013306614
000240 bc ca df 3a 60 b1 bc 3a e8 32 87 b9 53 13 a2 bb
       0.0017073969 0.0014396124 -0.00025787135 -0.0049461513
000250 19 65 e8 ba 35 c0 9f bb 94 96 46 3b 27 5a d3 3a
       -0.0017730325 -0.004875208 0.0030302154 0.001612489
000260 d9 1c 66 ba 5f e4 3a 3b eb 5d 5d 39 bc fc af ba
       -0.00087781023 0.0028517467 0.0002111119 -0.0013426761
000270 fb 8e 04 bb cb 45 68 3b b9 00 86 3a 34 4c 71 3b
       -0.0020226825 0.003544199 0.0010223604 0.0036819102
000280 5f 9f 66 ba fa cc 6f 38 5b 75 a3 bb ac 35 7d bb
       -0.0008797552 5.717294e-05 -0.004988355 -0.0038636727
000290 76 ae 09 3b 07 c8 37 bb 46 2a 18 3a 29 3e 8d 38
       0.0021008528 -0.002804281 0.0005804639 6.734982e-05
0002a0 fe 3b a9 ba 1c 6d 35 3b 0f f1 97 ba ac 09 e9 39
       -0.0012911556 0.0027683442 -0.0011592227 0.0004444843
0002b0 8e ff 9e bb 5e c4 b0 ba 87 c8 30 3b 15 bb 09 3b
       -0.004852242 -0.0013486256 0.0026974992 0.002101605
0002c0 1d fa 38 3b 50 ed 37 bb 18 31 86 bb 28 69 ba ba
       0.002822525 -0.0028065033 -0.004095208 -0.0014222013
0002d0 ba 3f 65 ba f6 d8 24 ba 9e b8 90 3a cd 52 43 3b
       -0.0008745153 -0.0006288433 0.0011041348 0.0029803992
0002e0 4d 98 1a 3b 75 e5 84 bb c7 5e 36 b9 5d 8c 85 bb
       0.0023589313 -0.0040556737 -0.0001739218 -0.0040755705
0002f0 6d ee 75 bb c5 62 80 bb 72 d3 4b bb 5e c4 e0 b9
       -0.0037526146 -0.0039180242 -0.0031101373 -0.00042870914
000300 7f 37 46 3a e6 6f 0e bb 18 80 09 3b 6c a1 12 3b
       0.000756137 -0.0021734177 0.002098089 0.0022374047
000310 eb 4f b0 3a e2 ed 18 3b 13 5a 80 bb f8 c3 76 bb
       0.0013451552 0.0023335149 -0.0039169877 -0.0037653428
000320 c3 3b 38 3a 45 d7 76 ba 8e 9a 84 bb a6 77 10 3b
       0.0007027948 -0.0009416233 -0.0040467447 0.0022043972
000330 be 74 07 bb 9a 91 38 bb 50 f0 50 b9 93 16 69 3a
       -0.002066895 -0.0028162957 -0.00019925949 0.00088916084
000340 92 cb 36 bb 2a 4e 32 bb 65 49 bb ba c5 85 d3 ba
       -0.0027892333 -0.0027207234 -0.0014288841 -0.0016137889
000350 0b ce 37 3a 39 bc a4 bb a4 7c 34 3b 68 f3 cc ba
       0.0007011599 -0.0050273207 0.0027540112 -0.0015636506
000360 66 dd 3b 3b 98 39 50 3b 51 2c 37 bb 6e c5 f0 3a
       0.00286659 0.003177261 -0.0027949999 0.0018369386
000370 89 e1 9e ba f1 09 0e bb 29 a8 a8 38 1d 5f 63 bb
       -0.0012121658 -0.0021673406 8.0421865e-05 -0.0034694143
000380 b1 87 e4 ba 9a 1d 43 3a 9c be a6 b9 6d aa 9c 3a
       -0.0017435459 0.00074430706 -0.00031804002 0.0011952646
000390 ac 78 b5 3a 3c c9 7d 3a b7 e6 a6 bb b1 46 7e 3b
       0.0013845167 0.00096811703 -0.0050934213 0.003879946
0003a0 a8 d4 ae 38 9a e3 56 38 13 cf 83 bb ef a2 44 3b
       8.336577e-05 5.1233546e-05 -0.004022488 0.0030004343
0003b0 a7 44 a7 ba 7a af 85 ba bc 9a 69 3a da b1 c1 ba
       -0.0012761549 -0.0010199391 0.0008911302 -0.0014777735
0003c0 fd 9b 7a bb a1 50 75 bb f9 41 14 ba 46 41 5c 3b
       -0.003823995 -0.0037432092 -0.00056555826 0.0033608242
0003d0 39 4b 02 3a ea 4d 11 bb 8e 25 9c bb d0 ca 99 bb
       0.00049703155 -0.0022171685 -0.004765219 -0.0046933666
0003e0 b4 0c 63 3a a7 88 31 bb a4 1a a6 3a b4 61 73 3b
       0.00086612557 -0.0027089508 0.0012672734 0.0037137093
0003f0 98 27 81 3b 4e 81 d9 ba 99 23 95 ba 60 9e 75 bb
       0.0039414875 -0.0016594322 -0.0011378407 -0.0037478432

layer2.bias f4 [64]
000000 9c a9 42 bb 33 65 09 3b 8a 47 02 3e 53 40 dc 3d
       -0.0029703146 0.002096486 0.12722602 0.10754456
000010 61 f2 aa ba 3e cc d7 3d 98 32 39 3b 17 5d 7d 3c
       -0.0013042205 0.10537003 0.0028258916 0.015464089
000020 55 a0 0b 3e a6 9f e8 3d 9a a5 ff ba 79 6c 70 bb
       0.1363538 0.113585755 -0.0019504309 -0.0036685748
000030 fb 7e 14 3b c5 7e a1 bb 76 99 4e 3b f8 22 93 3d
       0.0022658694 -0.004928442 0.0031524575 0.07184404
000040 0f d7 49 bb e3 b2 e7 3d 92 be 21 3c 65 fe af 3d
       -0.003079835 0.11313417 0.009872096 0.08593444
000050 52 d4 cd 3d 6e a6 86 bb ae 8e 0f 3e 1b 8f 0c 3b
       0.100502625 -0.0041091954 0.14019272 0.0021447602
000060 13 d4 d4 3d 0d a8 68 bc 35 af 0f 3c eb e1 4c bb
       0.103920124 -0.014200223 0.0087698 -0.0031262587
000070 63 6a fc 3a 64 63 8e 3d 5d e1 1d 3b 54 11 1a bb
       0.001925778 0.06952551 0.0024090626 -0.0023508864
000080 24 0f c4 3d ed 52 9d 3b f9 17 5f bb b0 f4 da 39
       0.095732 0.0048011453 -0.0034041388 0.00041762507
000090 52 b4 71 3c 08 87 80 3b ce 83 5f 3c f6 de 19 bb
       0.014752464 0.003922347 0.0136422645 -0.0023478842
0000a0 45 2c 42 3c ed a1 d4 3d 44 8a 5a ba 50 f6 76 3d
       0.011851375 0.103824474 -0.0008336643 0.060293496
0000b0 20 8c 81 3b aa e4 88 bb 7f 66 31 bb 3c 47 92 bb
       0.003953472 -0.0041776495 -0.002706915 -0.004464058
0000c0 58 35 ff ba 9a e4 87 bb 6e 84 db 3d 9c 1f 13 bb
       -0.0019470854 -0.0041471245 0.10718618 -0.002244926
0000d0 ba 14 9d bb 6f ed c0 3d 94 81 d6 3d 21 bb cc 3d
       -0.0047937306 0.09420287 0.10473934 0.099966295
0000e0 1d 3b 50 3c b4 7e 26 ba f7 1a 28 3c 45 df d5 3d
       0.012709406 -0.00063512777 0.010260335 0.10442976
0000f0 5c 1f 2d bb 43 8e 08 3e 5f 7b 6a bb f2 7c 3a 3b
       -0.0026416397 0.13335519 -0.0035779101 0.002845582

layer3.weight f4 [4, 64]
000000 e2 ae a0 3b fa bb 86 3a 72 d7 87 be b2 31 2f be
       0.00490366 0.001027941 -0.2653156 -0.17108801
000010 27 85 89 3b 31 d1 27 be c7 e6 4a 3e 69 21 7a 3f
       0.004196781 -0.16388394 0.19814597 0.9770723
000020 78 0c 91 be 19 41 36 be 10 ae c1 3b b3 56 47 b8
       -0.28329825 -0.1779827 0.0059106424 -4.7526042e-05
000030 42 a0 ca ba 2f bd 51 3b 42 fe aa 3e d5 e7 62 3e
       -0.0015459138 0.0032003631 0.33397108 0.2215875
000040 ac a4 90 ba ac 5d 30 be 08 f8 8f 3d ac 8c 76 3e
       -0.0011035404 -0.17223233 0.0702973 0.240771
000050 fe 45 33 be 8c 25 a0 3b 8a de a6 be cc e9 6f bb
       -0.17507169 0.0048872884 -0.3259166 -0.003660786
000060 a5 56 23 be 76 d7 f4 3e 88 0e 63 bd 59 44 4c 3b
       -0.15951021 0.47820634 -0.05543378 0.0031168668
000070 bf bc 58 ba 3d ac 99 3d c1 a5 b4 bb 2b 1e 58 3b
       -0.00082678715 0.07503555 -0.0055129235 0.0032976966
000080 db ec 48 be fc cd 68 bd 35 1a e6 ba 58 0b 4c bb
       -0.19621603 -0.056837067 -0.0017555418 -0.003113469
000090 83 0c a9 be e7 7c 37 3f c9 a8 46 3f db 27 40 3b
       -0.33017358 0.7167496 0.77601296 0.002932063
0000a0 e4 2f cb 3d 4b ae 2d be 8c 60 c2 ba 28 47 13 3f
       0.09921244 -0.16961019 -0.0014829799 0.5753045
0000b0 9f 9f e5 3d 43 5f 92 3b 3a ae 10 3b 67 93 92 3a
       0.11212086 0.0044669225 0.0022076503 0.0011182845
0000c0 21 e0 09 bb 65 b9 6b 3e 86 ac 33 be 0c 26 ae 3b
       -0.0021038132 0.23019941 -0.17546281 0.005314594
0000d0 c8 80 1a 3b cf d7 2a be e5 36 2b be a0 b9 2c be
       0.0023575295 -0.16683887 -0.1672016 -0.16867685
0000e0 4b 3b 5e 3e 8f e7 a0 3a 58 2a 51 3e 40 41 43 be
       0.21702306 0.0012276041 0.20426309 -0.1906786
0000f0 cc b8 2b 3b ca c0 a7 be a8 ca bc ba 08 2c 49 be
       0.0026202677 -0.32764274 -0.0014403658 -0.19645703
000100 83 ef 81 bb 4c 7e a9 bb 65 36 7b be a0 b5 37 be
       -0.0039653196 -0.0051725265 -0.24532469 -0.17940378
000110 21 60 e8 3a c3 15 20 be e8 fb 1f bd 32 6c c4 3e
       0.0017728844 -0.15633301 -0.039058596 0.38363796
000120 f2 76 85 be ad dc 2d be 9d 1f 3e 3b 9b 3a b0 3b
       -0.2606731 -0.16978712 0.0029010542 0.00537808
000130 78 88 4e bb 29 05 c8 3a 39 f5 04 bf e0 b5 4d 3b
       -0.0031514447 0.0015260327 -0.5193668 0.0031388924
000140 72 62 16 3a d2 83 3c be 7b 0b 14 3f 4a 30 58 3e
       0.00057367154 -0.1840966 0.5783002 0.21112171
000150 a5 40 2f be 20 c6 1a 3b 29 64 a7 be 36 55 e6 39
       -0.17114504 0.0023616627 -0.32693604 0.00043932506
000160 00 d8 49 be c9 d8 06 3f 9b eb 9e 38 bf d3 6a bb
       -0.19711304 0.5267454 7.577912e-05 -0.0035831777
000170 17 f3 b7 3b 3a d8 d1 3e cf f4 c5 ba 55 0f 8b 3b
       0.0056136954 0.4098528 -0.0015102866 0.004243771
000180 e6 6e bf be 51 b7 d9 3e d4 28 66 3b 78 98 73 3b
       -0.37389296 0.42522672 0.003511955 0.0037169736
000190 44 e2 33 be 29 4b 52 be 21 c6 fd 3e 0d 71 a3 3a
       -0.17566782 -0.20536484 0.49565223 0.0012469605
0001a0 9b 99 5e 3e b7 14 22 be af 82 12 3b 32 b4 13 3f
       0.21738283 -0.15828215 0.0022355726 0.5769683
0001b0 a5 5b b5 be 1e 2d 1e b9 cc 3c 4a 3b ba 83 b3 bb
       -0.35421482 -0.00015084862 0.0030858992 -0.0054783495
0001c0 9d dd a7 bb c6 f6 ad 3e 58 7a 2e be bb fa 84 3a
       -0.005122854 0.33977336 -0.17038858 0.0010145524
0001d0 a7 44 a5 b9 8e 50 23 be f7 80 28 be 14 72 22 be
       -0.00031522402 -0.15948698 -0.16455446 -0.1586383
0001e0 d7 6a 89 3e 44 e0 c1 ba 23 32 d5 3e 71 72 2c be
       0.26839325 -0.0014791568 0.41639814 -0.16840531
0001f0 23 29 52 3b 77 1f 8e be 46 9a 7f 3b 62 03 a1 3e
       0.0032067976 -0.2775838 0.0039001866 0.31447893
000200 d5 a9 ae bb 46 16 4e 3b 70 45 92 be 5b 95 34 be
       -0.005330304 0.0031446381 -0.28568602 -0.176351
000210 fd 01 bf bb bc c4 22 be 4e 7f 95 3e ee 58 de be
       -0.0058290944 -0.1589536 0.29198688 -0.43427223
000220 dc f1 4f be b3 41 0c be df 05 9b 3b f8 3a 6b 3a
       -0.20307106 -0.13696937 0.0047309245 0.00089733256
000230 f3 f7 8e 3b 3b 47 cf bb f7 ea ad 3e db 4e 69 3e
       0.004363054 -0.00632563 0.33968326 0.22783987
000240 a1 8e f2 3a 3b d2 40 be 7b f6 62 bb 15 3d a7 3e
       0.0018505641 -0.18830197 -0.0034631777 0.3266379
000250 22 52 47 be 69 70 6a ba eb 66 9b be 70 2a ef 39
       -0.19464925 -0.0008943142 -0.30351958 0.0004561725
000260 55 db 75 be 18 5e 04 be 87 e5 a4 3e 57 9f 3c 3b
       -0.2400945 -0.12926519 0.32206365 0.0028781497
000270 1e 5e 80 3b f6 90 4e 3e 7e 96 99 bb 06 c7 fb ba
       0.0039174696 0.20172486 -0.0046871295 -0.0019209094
000280 44 bd 7a be 4a 2d 82 3e 7b 3e ea 3b 23 12 a0 3b
       -0.24486262 0.25425178 0.0071485615 0.0048849746
000290 f9 3f a8 be a1 58 37 bf 85 fc 5d 3f 7e 3c 38 3a
       -0.32861307 -0.7161961 0.8671344 0.0007028057
0002a0 33 0a 2a 3f 19 1d 24 be 30 4f a4 3b 2d 2d be 3e
       0.6642181 -0.16026725 0.0050143227 0.3714384
0002b0 7c e0 1e be e5 8c a2 ba 84 5c ae 3b cf 9f 84 bb
       -0.15515321 -0.0012401609 0.0053210873 -0.004047371
0002c0 82 08 c1 3b 9f 4d 56 3e 5f c8 0d be 29 c0 95 bb
       0.005890907 0.20928048 -0.13845967 -0.0045700264
0002d0 9c 68 0d bb 69 fa 38 be 12 10 25 be 29 55 2d be
       -0.0021577245 -0.18064274 -0.16119412 -0.16927017
0002e0 d8 5b 35 3e 4c 81 7e 3a 65 92 3e 3d 1d 0e 0d be
       0.17710817 0.0009708598 0.04652633 -0.13774915
0002f0 72 b7 22 3b ff 88 b4 be b3 fe a7 3b bd 28 da be
       0.002482858 -0.3526077 0.005126798 -0.42609206
000300 17 2f 92 3b 87 49 83 b9 c3 f9 90 be 5d d5 15 be
       0.00446118 -0.0002504105 -0.28315553 -0.14632173
000310 f5 2d 8f bb c9 8c 2e be 47 bd a3 bd 79 67 83 3c
       -0.004369492 -0.17045893 -0.07995086 0.01604055
000320 7f a9 97 be 00 85 37 be 40 52 dc 3a 4b 85 e3 3a
       -0.29621503 -0.17921829 0.001680918 0.001735845
000330 22 cb 48 39 d3 7b 07 3b 98 d2 11 3f 7f f9 03 3f
       0.00019149159 0.002067317 0.56961966 0.51552576
000340 86 7f ce 3a 09 05 45 be b3 7f 93 3d 36 19 c6 3e
       0.0015754558 -0.19240202 0.07202091 0.3869111
000350 1b 1a 4d be 92 d2 15 3b 81 7c 86 be 61 e8 81 3b
       -0.2002949 0.0022861105 -0.26266864 0.0039644693
000360 2d 3c 3d be bd 6f 05 3e d8 a1 32 3b 7f 49 0c 3b
       -0.18479986 0.13030906 0.002725711 0.0021406112
000370 a1 f0 4b 3b 37 d5 58 3e 8d 0f 84 3b 6b 7b 66 bb
       0.0031118768 0.21175085 0.004030174 -0.0035168778
000380 86 0f 62 be 3d 91 ea 3d 49 a3 8f bb 7b 98 57 ba
       -0.22076234 0.11453483 -0.004383479 -0.00082243205
000390 91 c9 8f be 42 c8 c9 3e c8 12 28 3f 4a 01 ba bb
       -0.2808347 0.39410597 0.6565366 -0.005676423
0003a0 fa 3b e9 3e dc 24 34 be 86 c7 2a bb 2a 9c 70 be
       0.4555357 -0.17592186 -0.0026058867 -0.23497072
0003b0 e9 f6 44 3f 5b 17 b3 b9 d3 ee 5d bb 60 b9 c7 bb
       0.76939255 -0.00034158942 -0.0033864274 -0.0060950965
0003c0 5b 85 a1 3b dd 0b 01 be 96 18 29 be 90 a5 07 bb
       0.0049292273 -0.12602182 -0.16513285 -0.0020698048
0003d0 ca 76 cd 39 94 09 1d be 52 bf 29 be ab 03 2e be
       0.00039189152 -0.15335685 -0.16576889 -0.16993587
0003e0 e8 3f f6 3e 01 69 ac 3b 7b f2 eb 3e af 27 28 be
       0.48095632 0.005261541 0.46083435 -0.16421388
0003f0 b8 db 56 bb 75 cb b4 be ce d6 2a bb bc 41 12 3f
       -0.0032784771 -0.35311475 -0.0026067975 0.5713155

layer3.bias f4 [4]
000000 bc b9 1b be 1c 8c 9b bd 3e b5 2c bd 14 4c a7 bd
       -0.15207571 -0.07595083 -0.042165034 -0.081688076
