state_dic_policy_net/test_v3.pth (torch, 78679 bytes, 6 tensors)

layer1.weight f4 [128, 16]
000000 b3 d9 36 3d db 2e e5 3c d1 6a e3 3c c7 33 0d bd
       0.044641208 0.027976444 0.027760895 -0.034473207
000010 d7 04 fa 3b 28 7b 32 3b 59 85 0d 3d 01 d9 58 3d
       0.0076299715 0.0027234051 0.034551 0.052941326
000020 04 4f 5c 3e 7a 86 f2 3d f7 99 a8 bd a2 0c 99 be
       0.21514517 0.118420556 -0.082324915 -0.2989245
000030 ee 08 73 be 63 cf e2 be 0c 25 03 bf 9e a2 a2 be
       -0.23733875 -0.44298849 -0.51228404 -0.31764692
000040 fc 9d 16 3e 6e 5e de 3d f4 06 6b 3d 4b 4d 7f 3c
       0.14708704 0.10857855 0.057379678 0.015582393
000050 6a 78 05 be fc 8a 0d 3e 69 61 90 bd 1f f0 17 3d
       -0.13034216 0.1382255 -0.070498295 0.03709423
000060 e9 e4 d3 be e3 d6 eb bc 09 10 97 be 2c 7c 4b 3d
       -0.41385582 -0.02878899 -0.2950442 0.049678966
000070 d5 35 01 bf ac 42 e4 be 91 e5 55 3d b5 bc b3 be
       -0.50472766 -0.44582117 0.052220885 -0.3510491
000080 76 6a d7 3d 86 1f 2d bd f7 00 15 3e 8e db 07 3e
       0.10518353 -0.04226639 0.1455115 0.13267347
000090 95 67 69 3e a5 40 88 3e 30 e0 8e 3e 2b 1f 52 be
       0.2279342 0.2661182 0.27905416 -0.20519702
0000a0 aa 3c fd bc 5f fd 1a be 6a 73 b0 3d 47 c9 31 3e
       -0.030912716 -0.15135716 0.086157635 0.17361937
0000b0 04 87 91 3d e6 83 3f be a4 a4 80 bd ed 50 47 bd
       0.0710583 -0.18702659 -0.06281403 -0.04866116
0000c0 da 05 21 3e a7 24 42 3e d7 0b 57 3d 1b dc b6 3d
       0.15724888 0.18959294 0.052501526 0.089287005
0000d0 53 52 9b 3d 82 f7 98 be 1b 48 06 be 7b 08 4c be
       0.075840615 -0.29876333 -0.13113444 -0.1992511
0000e0 77 9f 9f 3d 15 2d 22 3e b9 45 90 be f7 c0 34 be
       0.077940874 0.1583751 -0.28178194 -0.17651735
0000f0 59 25 7e 3d bb be 31 be 63 72 9e bd 42 2d b3 3e
       0.062047336 -0.17357914 -0.07736661 0.34995466
000100 0a d2 30 bf e3 69 8c 3c bb c7 80 3e 29 c4 12 be
       -0.69070494 0.017140334 0.25152382 -0.14332642
000110 43 99 a7 be dd 3c c5 bd 15 9c 25 be d6 b2 1a 3e
       -0.32734117 -0.096307494 -0.16172822 0.15107283
000120 6c c1 95 bd 6e f9 bc 3d be 8f a2 bc ae 5b 20 3b
       -0.07312283 0.092272624 -0.019843932 0.0024468708
000130 88 1a b0 3d 22 48 87 bb 5c c1 b7 3d 5d 32 95 bc
       0.085988104 -0.004128472 0.08972427 -0.018212492
000140 80 f3 25 3e a1 0d c2 bd c9 8a b3 bd 80 2a 14 bd
       0.16206169 -0.09475256 -0.087667055 -0.036173344
000150 2f d1 f5 3d ad 09 1c 3e b7 03 51 3e 17 74 42 3e
       0.12002789 0.15238066 0.20411573 0.18989597
000160 b5 5a c9 bd a2 97 c7 bd 0b 3e aa be 4a 27 57 be
       -0.09831754 -0.097457185 -0.3325046 -0.21011081
000170 17 d1 d7 3d 26 07 61 be f5 71 52 3e 33 9f ec 3b
       0.105379276 -0.21975383 0.20551284 0.0072211265
000180 f5 1c c2 bc f4 03 81 be 0e 66 ee 3d 89 4b ae be
       -0.023695448 -0.25198328 0.11640559 -0.34042004
000190 63 88 91 3d 43 70 c9 be 62 46 92 be 41 c9 9c be
       0.07106092 -0.3934346 -0.28569323 -0.30622295
0001a0 4f 9f 98 be 10 a3 9c 3c 0a cf ba be e3 37 be 3d
       -0.29809043 0.019120723 -0.36486083 0.09288003
0001b0 26 29 d8 be e8 af 94 3c da f2 55 bd 37 ff a7 be
       -0.42218894 0.018150285 -0.052233554 -0.328119
0001c0 31 e5 e5 be 20 25 29 3e a0 d9 e8 3d b8 48 2e 3e
       -0.44901422 0.16518068 0.11369634 0.17019928
0001d0 f4 7e 23 bd 08 0e e3 bd b9 5f a5 bd e0 b9 86 3c
       -0.039915994 -0.110866606 -0.08074898 0.016446054
0001e0 d2 2c 91 bd 20 af 5b bd 5a 9b 12 bd 42 b2 0d 3d
       -0.07088627 -0.05363381 -0.035792686 0.034593828
0001f0 cd 64 05 bf 4e e8 3b 3e 7d ec 11 bd c6 ee 0c be
       -0.52106935 0.18350336 -0.035625923 -0.1376296
000200 8c a3 34 bf 27 7a 46 3e ba 9a 32 3e a6 57 2e 3e
       -0.7056205 0.19382535 0.17441836 0.17025623
000210 d4 8d 10 bd e2 6a 2b be f1 5b d1 bc c3 7a e1 bd
       -0.035291508 -0.16739991 -0.025556536 -0.11009743
000220 9f 60 c1 bd 6e 63 38 3e 03 9f c9 bd 21 e5 23 be
       -0.09442257 0.1800668 -0.09844782 -0.16005374
000230 6c b2 8c be c0 2b 58 bd 60 5f 66 bd 5f f6 79 3d
       -0.27479875 -0.0527761 -0.0562433 0.061025973
000240 aa ab 5e 3e 1c 20 b6 bd 14 e9 e8 3d c6 73 93 bd
       0.21745172 -0.08892843 0.11372581 -0.071998164
000250 8d 2b 47 3e 27 c1 4e bd ac 2b f4 3d 11 ee 35 be
       0.19450207 -0.050477173 0.11922392 -0.17766596
000260 99 fa 06 bf 56 03 a2 be 26 39 01 bd d0 13 26 be
       -0.5272613 -0.3164317 -0.03154864 -0.16218495
000270 80 67 0c bf 3a 26 40 bd 5d e9 6c 3e 2e 93 e4 3d
       -0.5484543 -0.046911456 0.23135896 0.11160885
000280 d3 f9 9c 3d e3 5d 61 3e 08 a2 8f 3d ac a8 47 3d
       0.07664838 0.22008471 0.07013327 0.048744842
000290 5d a3 e2 3d 82 47 cf 3d c8 e5 9f 3d 27 7c 54 be
       0.11066315 0.10121061 0.07807499 -0.20750485
0002a0 3c 95 f0 bd e9 4c 3c 3b 46 2c 10 bd c1 1e 40 3e
       -0.11747214 0.0028732365 -0.035198472 0.18761732
0002b0 b8 7f 98 3c e5 cf 69 3e 2b 87 21 bf 77 8a 92 be
       0.018615589 0.22833212 -0.63096875 -0.28621265
0002c0 83 29 8d 3e 71 c2 47 3e 5a 1c 4d 3e b5 9b 8b 3e
       0.27570733 0.19507767 0.20030347 0.27267233
0002d0 3a fd 95 bd 89 28 40 3e 60 b8 3f 3c 22 4c e3 3d
       -0.0732369 0.18765463 0.011701673 0.110985056
0002e0 71 1e bb bd 5e 69 a8 3d 94 ed 97 3d b1 35 58 bd
       -0.091366656 0.08223222 0.07418361 -0.05278558
0002f0 73 6a 92 3e 01 47 6d 3e a2 f0 e4 3d 37 1c cd 3d
       0.2859684 0.23171617 0.111787096 0.10015147
000300 ac f7 11 bf 3e 5f ac bb 6e 26 65 be 0d 9e 89 be
       -0.5701854 -0.005260377 -0.22377941 -0.26878396
000310 54 8e 09 be d1 c3 30 be f3 19 39 be 5c 61 bf be
       -0.134332 -0.17262198 -0.18076305 -0.37378967
000320 b0 04 5e be a9 6d e8 bd 8a e6 a7 be 30 44 55 be
       -0.21681476 -0.11349041 -0.32793075 -0.20826793
000330 30 71 64 3c e2 7d f1 bd ef 64 07 bd a8 de b3 3d
       0.013943002 -0.11791588 -0.033055242 0.08782703
000340 ab c4 1c 3e 84 8a 37 3e f4 7f 04 3e 30 75 d5 be
       0.15309398 0.17923933 0.12939435 -0.4169097
000350 5d fd 2d be 5c 88 32 3e de 94 e2 bd 18 e6 6f be
       -0.16991182 0.1743483 -0.110635504 -0.23427618
000360 ed b7 21 3e 5c 59 1b 3d 33 71 55 3e 20 35 48 bd
       0.15792818 0.037927017 0.20843963 -0.04887879
000370 c3 9c db bd d1 2d 0d bd ac 72 c0 bc dd 91 74 bd
       -0.10723259 -0.034467522 -0.02349218 -0.05970942
000380 05 9c 11 be 1f 94 1e 3e 78 63 ef 3d af 05 99 be
       -0.14219673 0.15486191 0.11688894 -0.2988715
000390 93 18 71 3d cc 5c 96 3d 98 b4 b9 be 6e 86 22 be
       0.058861326 0.07341918 -0.36270595 -0.15871593
0003a0 d5 81 cf be db 95 8d bd 42 69 86 bc ac 9f 96 be
       -0.4052874 -0.06913348 -0.016407613 -0.29418695
0003b0 cc 4f 12 bf 41 1c ae be 93 b3 26 3c 53 b0 c3 be
       -0.5715301 -0.3400593 0.01017465 -0.38220462
0003c0 83 9f 8d 3d 95 32 7b be 20 7b 75 be af 80 e2 3b
       0.0691519 -0.24531014 -0.2397275 0.006912313
0003d0 d6 1c ae 3d 7f ae e5 3d d9 5d c2 be 8b b4 cf bd
       0.08501594 0.11214923 -0.37962225 -0.10141858
0003e0 c9 84 d7 3d ac e4 8a 3d 8f a1 93 3d 55 33 ca bd
       0.10523374 0.06781897 0.07208549 -0.09873072
0003f0 33 a1 75 be 09 d5 84 3d e1 4c 82 3d 0e 12 15 bf
       -0.23987274 0.06485946 0.0636232 -0.58230674

layer1.bias f4 [128]
000000 2b cb e2 3d 34 60 c1 3d c1 92 22 3d 3a ae 71 bc
       0.110739075 0.094421774 0.039690737 -0.0147510115
000010 34 a0 63 be d4 52 03 3e bb 37 d9 3d 69 50 35 bc
       -0.22229081 0.12824565 0.10606333 -0.011066535
000020 2f 17 b2 bc 4d 3f e5 bd fc 40 2c 3e 76 6f cb 3d
       -0.02173957 -0.11193714 0.16821665 0.09933369
000030 9b e8 0c 3d 1e 41 31 3d ab fe 57 bd 86 be a3 3d
       0.034401517 0.04327499 -0.052733105 0.07995324
000040 29 24 d9 3c ca bd e6 bd da d7 82 3e 94 2f 34 be
       0.0265065 -0.11266668 0.25555307 -0.17596275
000050 ad 8f 84 be 07 32 7f be db 28 df bd 21 5a a1 bd
       -0.25890866 -0.24921428 -0.108964644 -0.07878519
000060 ed c6 aa 3d 0b d1 7b 3d 5d 7a b8 3d 8d 0b de 3d
       0.08338723 0.061478656 0.09007714 0.10842047
000070 e4 ce c7 bd 1f 2c 6f bd 9a b1 cd bd d4 e9 f8 bc
       -0.09756258 -0.058391687 -0.100436404 -0.030384935
000080 e8 64 02 3e b9 95 2d 3d 9d f0 71 3e 7b 72 0d be
       0.12733805 0.042379115 0.23626943 -0.13813202
000090 f0 c3 36 3e 72 82 33 3c f2 3f 6f 3e f9 f1 8b 3e
       0.17848182 0.010956394 0.23364237 0.27333048
0000a0 5f f0 78 3e f2 be e8 3d 0c 0d 14 3e bb 63 ee bd
       0.24310444 0.11364545 0.14458102 -0.11640116
0000b0 98 fc 2a 3d cd ef cc bd 45 9c 89 3c 45 09 2b 3d
       0.0417448 -0.10006676 0.016798148 0.041756887
0000c0 53 80 5c bd 92 3f 22 3d a5 b9 da bd c0 a6 cb bb
       -0.053833317 0.039611407 -0.1067994 -0.0062149465
0000d0 14 e1 fe 3d 15 c9 b7 bd 50 02 f7 bc 7c 43 b4 3d
       0.12445274 -0.089739 -0.03015247 0.08801934
0000e0 e7 57 04 bd 42 4a 47 be b2 fb 80 3e 97 db 88 be
       -0.032310393 -0.19461921 0.25192028 -0.26730034
0000f0 c1 e1 f7 3d 7f 25 83 bd 53 8d 62 bd 03 1d f8 bd
       0.12103606 -0.06403636 -0.05531056 -0.121149085
000100 dd 88 ec 3d 53 74 85 3d 94 48 28 bc 9f bc 1b 3e
       0.11549542 0.06516328 -0.01027121 0.15208672
000110 64 ab d3 3d d0 ca 37 be 9c 40 1b be d4 c5 00 3e
       0.103354245 -0.1794846 -0.15161365 0.12575465
000120 b8 cb 4f 3e 0f dc d2 3d 5d e1 cd bd e5 50 0c be
       0.20292556 0.10295879 -0.1005275 -0.13702734
000130 95 d6 21 bc 9d 78 a1 3d f9 6f 86 3e 80 64 53 3e
       -0.0098778205 0.07884333 0.26257303 0.20643806
000140 f9 90 82 3d b7 cf e1 3d 71 e9 35 3e 85 6e 01 be
       0.063753076 0.110259466 0.17764832 -0.12639816
000150 16 2c b4 bd 24 dc ef bc 57 9f 32 be ae eb 92 bc
       -0.08797471 -0.029279776 -0.17443596 -0.017934646
000160 75 d7 1c 3e a2 5d f7 3c 25 13 63 be 6f d0 f7 3d
       0.15316565 0.030196015 -0.22175272 0.121003024
000170 b5 c6 83 3c c4 ff 06 3e 42 ef e6 3c 8d e6 82 3c
       0.016085962 0.13183504 0.028190259 0.015979076
000180 4e 5f 03 be 89 b9 ea 3d ed 8a 17 3e 36 d0 42 3e
       -0.12829325 0.11461169 0.1479909 0.19024739
000190 cb 49 06 be e1 96 54 bd b2 76 43 bd ac 73 8a bc
       -0.13114087 -0.0519017 -0.04772062 -0.01690086
0001a0 f1 1d 6d 3e 06 95 ca 3d 99 ba f0 3d 82 6d d0 3d
       0.23155953 0.09891705 0.11754341 0.10177137
0001b0 a4 d2 c2 bd d0 38 14 be ea 77 5a 3e 5e ba cd bd
       -0.09512833 -0.14474797 0.21334806 -0.10045312
0001c0 cc 72 8e 3b 83 74 11 3d 93 93 6b 3e 23 dc e4 3d
       0.004347181 0.035511505 0.23005514 0.111748
0001d0 56 d7 78 3d b1 8e 9b 3c 68 f4 e9 3d ff 55 13 be
       0.060752235 0.018988939 0.1142357 -0.14388274
0001e0 43 9d d8 bd 52 d1 33 be e6 4e e8 bd b4 26 0d 3d
       -0.1057687 -0.17560318 -0.11343174 0.03446074
0001f0 03 7c af 3c 7e b3 88 bd e0 9f 2a be bd e2 32 bd
       0.021421438 -0.066748604 -0.1666255 -0.043673266

layer2.weight f4 [128, 128]
000000 a4 4b 11 be 5a 2a d5 bd ba bc c2 3b 2b 57 26 bd
       -0.14189011 -0.104084685 0.005942908 -0.040610474
000010 23 13 73 bd 34 10 3c be 61 0e cc bd b0 d8 89 be
       -0.059344422 -0.18365556 -0.0996368 -0.26923132
000020 58 46 41 be 90 40 be bd e2 c5 96 bd f2 15 a3 3b
       -0.1887449 -0.09289658 -0.07361962 0.0049769813
000030 d2 b8 ea bd a8 72 6e bd 3e e7 bf bd 7b f1 0d be
       -0.11461033 -0.058214813 -0.09370278 -0.13861649
000040 ed 67 89 bd d4 90 2a be 4b c1 69 bd f8 bd 5e bd
       -0.067092754 -0.1665681 -0.057069104 -0.054380387
000050 8a 29 f6 bd d1 88 d5 bd 46 45 63 bd 97 0f 35 be
       -0.12019642 -0.10426486 -0.055485986 -0.17681728
000060 78 1a 84 bc 5b c5 cb bd 53 bd 79 be a7 95 79 bd
       -0.016125903 -0.09949752 -0.24388628 -0.060933735
000070 b4 36 be 3c 13 40 10 bd d0 34 1e be 19 83 8b bd
       0.023219444 -0.035217356 -0.15449834 -0.06812114
000080 e5 89 03 bc d3 db b1 be 58 da 21 3d f8 58 8c ba
       -0.008028482 -0.34738025 0.03951487 -0.0010707667
000090 5e 2c c9 3c 71 78 c6 bd f4 7d 9a bc af db 88 3d
       0.024557289 -0.09690941 -0.018858887 0.06682526
0000a0 37 c8 48 3d fc cb 6c be b4 ba 47 be 6c 0c 80 be
       0.049019065 -0.23124689 -0.19504815 -0.25009477
0000b0 fc 9f 48 be 01 52 d9 bd 1d 62 ab bc c5 d3 31 be
       -0.19592279 -0.10611344 -0.020920807 -0.1736594
0000c0 d1 8b d6 bc 1a 3f 49 bd 07 56 54 be 2d 3f e1 bd
       -0.026189717 -0.049132444 -0.20735942 -0.10998378
0000d0 64 9d 0b be d0 fe 46 be 05 d2 d1 bd 65 71 54 be
       -0.13634259 -0.19433141 -0.10245136 -0.20746382
0000e0 80 ad a3 bd 46 d8 13 be 14 a9 c6 be 7c 8f 8f bd
       -0.07992077 -0.1443797 -0.3880087 -0.07009789
0000f0 5b 43 29 bc 1d 75 39 be 94 7b 41 be b8 51 30 3d
       -0.010331 -0.18111081 -0.18894798 0.043046683
000100 20 bb 80 ba 95 09 1b be cd 94 8d bd dc c9 4d 3d
       -0.0009821393 -0.15140374 -0.06913147 0.050241336
000110 10 3d 61 be 76 8f fc bc 06 8a ac bd 83 c0 e0 bc
       -0.2199595 -0.030830126 -0.084247634 -0.027435547
000120 72 6e 08 3d 2d 98 c1 3c 58 dc 91 bd 01 e2 98 bc
       0.033308454 0.023632133 -0.07122105 -0.018662455
000130 e0 32 45 be 7d ba d9 bd f0 33 05 bd 34 3e 9a 38
       -0.19257689 -0.10631273 -0.032520235 7.3548785e-05
000140 d6 6e 1e bd 53 65 a4 bc fa 18 99 3d 73 f3 2c be
       -0.03867992 -0.020067846 0.07475467 -0.16889744
000150 ee b0 3c bd 88 9a 2c be 27 c9 8f bc 6d 05 97 3c
       -0.04606717 -0.16855824 -0.017551972 0.018435204
000160 54 33 ae bd 0b ae 13 be 1a ef 61 bd 6c fc bd bd
       -0.08505884 -0.14421861 -0.055159666 -0.09276661
000170 15 81 d7 bd 29 9b a0 bd 78 e1 e9 bd 5f 5e 62 be
       -0.10522667 -0.078420945 -0.11419958 -0.22106312
000180 53 ee 1b bd a9 26 43 be a9 5d 1f bb 8f 44 d0 bd
       -0.03806908 -0.19057716 -0.00243173 -0.101693265
000190 5c 0e 66 be 41 d4 18 bd 40 6e 5e be f2 ab ab 3c
       -0.22466415 -0.037311796 -0.21721745 0.020956013
0001a0 b7 5b 37 bb 63 80 20 bd c0 cf 21 bc c6 46 3b be
       -0.002797825 -0.03918494 -0.009876192 -0.18288717
0001b0 9b 75 10 3c 01 a3 37 be 02 b5 b9 be 78 ce 20 be
       0.008817102 -0.17933275 -0.3627091 -0.15703762
0001c0 0f 01 15 be e4 f6 56 be 5b 77 e6 bd 93 a5 bb bc
       -0.14551185 -0.20992619 -0.11253234 -0.0229061
0001d0 af 8c af bd 3b 5d 6f be 72 6d 4d bd c1 d8 c4 bd
       -0.08571755 -0.23375408 -0.050153203 -0.09611655
0001e0 90 d9 4c bd 72 5e 66 bd ae 95 9a be 2c 3a 39 be
       -0.05001217 -0.056242414 -0.30192322 -0.18088597
0001f0 80 15 8b bd e6 3c 13 bd 53 66 06 be 9f 31 57 be
       -0.0679121 -0.03594675 -0.13124971 -0.21015023
000200 4a ab 3f 3e 37 89 87 be e2 79 cc bd e9 d4 64 3d
       0.18717685 -0.26471874 -0.09984185 0.05586711
000210 c1 58 94 bd 2e 1b 56 3d 29 4f 81 bd 90 37 80 be
       -0.07243491 0.052272014 -0.06313927 -0.2504239
000220 8b 67 84 3c fe 17 8a be dc 9e ee bd 54 e6 0e 3e
       0.016162654 -0.2697143 -0.11651394 0.1395505
000230 f0 b9 28 be 21 e0 35 3e 7c e9 29 be a6 b6 e5 bd
       -0.1647718 0.1776128 -0.16592973 -0.11216478
000240 d8 25 83 be 27 38 44 be 95 1b 0c 3e 87 94 33 3b
       -0.2561481 -0.19162045 0.13682397 0.0027401762
000250 4f 13 fc 3d ce b5 78 bd 97 c4 08 3d 40 34 06 be
       0.1230837 -0.060720257 0.033390608 -0.1310587
000260 fa 2b ae bd bb 53 23 3e 27 22 1a be 0f 69 17 be
       -0.085044816 0.1594991 -0.1505209 -0.1478617
000270 21 06 9b 3d b2 54 a1 be 14 65 9a 3d e7 63 1a bd
       0.07569528 -0.3150993 0.0753881 -0.03769293
000280 a2 52 a1 be 33 be 26 bd 3e 7e 9e bd 1d 2c 74 3d
       -0.31508356 -0.04070873 -0.077389225 0.059612382
000290 95 de 08 3d a9 aa 42 3a b2 d0 04 bc 1f 6c c9 bc
       0.033415396 0.0007425943 -0.008106397 -0.024587689
0002a0 84 3d 81 bd 96 8e b4 39 39 2f 90 bd 85 18 ca bd
       -0.06310561 0.0003443851 -0.07040257 -0.09867958
0002b0 8e 8b 81 bd ef 57 82 3c df 8c 2e be 6a 55 98 be
       -0.06325446 0.01591107 -0.17045926 -0.29752666
0002c0 5f 00 e1 3c 81 2e c0 3d c9 5e 84 3d dd 12 89 be
       0.027465997 0.0938387 0.06463391 -0.26772204
0002d0 e5 9f 41 bd d3 dd 34 be e5 72 1b be 73 b0 3d be
       -0.047271628 -0.17662744 -0.15180548 -0.18524341
0002e0 bb b4 a1 bd a7 5a 09 bd f4 8f d9 be 28 79 46 bd
       -0.078958 -0.03353372 -0.4249264 -0.048455387
0002f0 66 df 32 bc fb 2d 12 3d b4 ef 81 be 76 97 b6 bd
       -0.01091752 0.03568838 -0.2537819 -0.08915608
000300 41 23 92 bd 31 e1 0a bd 3e 42 61 be 46 65 3e be
       -0.071356304 -0.033906166 -0.21997926 -0.1859332
000310 2a 54 30 ba 53 0b 84 be b6 3c b9 bc 8b 30 cc bd
       -0.00067264086 -0.2578989 -0.022611957 -0.09970196
000320 7b c7 af bc 39 c9 97 3d f1 d7 c0 be ec cf 88 bd
       -0.021457424 0.07411427 -0.3766475 -0.06680283
000330 cf 3e 82 be e2 68 23 be 8e fd c5 be 0c 69 9c 3c
       -0.25438544 -0.15957978 -0.3867001 0.019093059
000340 72 01 3c 3d 87 63 56 3d 52 dd 3a bd 39 4d 4b 3d
       0.045899816 0.05234101 -0.045621224 0.049634192
000350 66 71 a2 3d a2 a6 07 3e e7 81 79 3d 12 f1 da bd
       0.07931785 0.13247159 0.0609149 -0.10690512
000360 99 03 66 3d fb 32 a2 bd a8 3b 8d bc 3c 0c 31 be
       0.056155775 -0.0791988 -0.01724036 -0.17289823
000370 9f dc 54 bd f4 a1 c8 3d b3 0a d2 bc ba 01 9a bd
       -0.051968213 0.09796515 -0.025639867 -0.075198606
000380 6f c0 da 3b 03 be c8 3d 25 4b aa bd 89 cf 18 be
       0.006675772 0.09801867 -0.08315114 -0.14922918
000390 71 6f 23 be b6 6f 11 bd b6 51 3f bd 2b 56 56 3d
       -0.1596048 -0.035506926 -0.046708785 0.05232827
0003a0 46 3b d1 bb 94 9e 84 ba c6 94 34 3e 47 58 1c be
       -0.00638524 -0.0010118061 0.17634878 -0.1526805
0003b0 e5 44 a6 bd 13 de e5 bd 8a 66 83 3d f3 74 e6 3c
       -0.08118609 -0.11223998 0.06416042 0.028131938
0003c0 09 a6 ff 3c c9 0a af bc 53 ea 82 bc e4 d5 06 be
       0.031207101 -0.021367447 -0.015980875 -0.1316753
0003d0 49 07 4f bd 9d 16 ac be e5 8e 84 be 37 1d 22 3b
       -0.050544057 -0.33611003 -0.2589027 0.0024736652
0003e0 17 ef d7 bb 0c 4a 24 bd 36 2b 1c be 70 2d f6 bd
       -0.006589781 -0.04010968 -0.15250859 -0.12020385
0003f0 66 ad 65 be e7 b5 7e bd 50 62 05 bf 3c f8 02 3e
       -0.22429428 -0.062185194 -0.5210314 0.12790006

layer2.bias f4 [128]
000000 c8 d0 20 3d e6 72 66 3d 90 56 14 3e bc 88 0f 3e
       0.03926161 0.05626192 0.14486146 0.14017004
000010 d7 01 31 3e 27 1f 05 3e 15 bc 45 3e 30 0e 80 3c
       0.17285858 0.13000165 0.19310029 0.015631765
000020 29 98 2c 3e 26 61 db 3d 7d bd 50 3e d1 84 fc 3d
       0.1685492 0.10711889 0.20384784 0.1233002
000030 94 d1 a6 bb 9d ed 1a 3e 89 ce e8 bc 60 28 de 3d
       -0.0050909016 0.15129705 -0.028418796 0.10847545
000040 89 fe a7 bd f2 74 a6 bd e5 3b 2c 3e 9a d5 f6 3d
       -0.082028456 -0.08127774 0.16819723 0.1205246
000050 77 6f 4d 3e 83 b5 c0 bc f0 65 04 3e 9f 8c 59 3e
       0.20062052 -0.023524052 0.12929511 0.21245049
000060 9a ae 14 3e ae 7a e7 3d a8 72 1d 3d f7 c2 af bc
       0.1451973 0.11302696 0.038439423 -0.021455271
000070 27 cd 22 be d4 04 b0 3d 73 bc 6e 3e a4 30 38 3e
       -0.15898572 0.08594671 0.23314075 0.17987305
000080 7b 42 09 3d 20 93 4a 3e 2a 7e e7 3d 29 49 07 3d
       0.033510666 0.19782686 0.11303361 0.033028755
000090 ad fd 4d 3e b7 b7 cf 3d e1 e6 de 3d f7 30 41 3e
       0.20116301 0.10142463 0.108838804 0.18866335
0000a0 86 a3 0a 3e ff 37 07 3e 52 14 c3 3c 6b 50 0d be
       0.13538942 0.13204955 0.0238134 -0.13800208
0000b0 da f8 87 bc 17 f9 19 3d a0 93 37 3e 9f c8 49 3e
       -0.016598154 0.037591066 0.17927408 0.19705437
0000c0 ce 44 51 bd 60 2f 46 3e 75 07 78 3b 23 71 6d 3e
       -0.051091008 0.1935401 0.0037846242 0.2318769
0000d0 b2 ad c0 bc b3 13 8a bd bf ec ab bd e3 60 48 be
       -0.023520324 -0.067420386 -0.08394765 -0.1956821
0000e0 25 95 ff 3d 73 fd 61 3d 73 77 da 3d 9c 8d 14 3e
       0.12479619 0.05517335 0.106673144 0.14507145
0000f0 31 70 4c 3e 27 8f b9 bd 07 5a 53 bd d8 b7 bf 3d
       0.19964673 -0.09060507 -0.05159953 0.09361237
000100 e0 39 b4 bd 55 69 c8 3d d9 2e 12 bd 5b 38 9a bc
       -0.08800101 0.097857155 -0.03568921 -0.0188257
000110 07 02 87 3e 0f 20 2a bd cc 63 45 3e 1c 04 a5 bc
       0.26368734 -0.04153448 0.1927635 -0.020143561
000120 85 d0 30 3e 34 c9 24 3e f9 dc f3 bd d1 c1 5b 3d
       0.17267044 0.16092378 -0.119073816 0.053651635
000130 b7 94 05 3e 20 9a 0d 3e 42 48 12 3c 6a ca 62 3d
       0.13045011 0.13828325 0.00892836 0.05536882
000140 df 92 0f 3e 72 c2 1c 3e 96 dd 5b bd 18 69 38 bd
       0.1402087 0.1530855 -0.053678118 -0.0450221
000150 a3 3a 33 3c a7 ca 80 3d 77 10 bd 3d cf b1 96 3c
       0.010939273 0.06288653 0.09231656 0.018395333
000160 4e d4 94 3d 05 dc 4d 3e c3 e3 36 3e 87 f2 a6 bd
       0.072670564 0.20103462 0.17860322 -0.08151727
000170 6c d0 14 3e eb 5f 0d be a6 a8 19 3e 48 bf ba 3c
       0.14532632 -0.13806121 0.1500574 0.022796288
000180 45 da 89 3d bb 8e 40 bc 4a 37 30 3e 26 aa 93 bd
       0.06731085 -0.01175278 0.17208591 -0.072101876
000190 b8 60 12 3c 50 16 6a 3e 04 6d 10 bc 78 ca 51 bd
       0.008934192 0.22860074 -0.008815054 -0.05121848
0001a0 74 8a cc 3d 26 b6 29 3d cf 63 b7 bd 8b 72 23 3e
       0.09987345 0.041433476 -0.08954584 0.15961663
0001b0 76 55 08 bd 58 b4 46 bd 9a 24 72 3e d4 52 8c bc
       -0.033284627 -0.048511833 0.23646775 -0.01712934
0001c0 90 49 34 3e 5e 41 fa 3d c8 18 ed bd d6 1e 95 bd
       0.17606187 0.12219499 -0.11576992 -0.07281272
0001d0 a8 eb 4a 3e 9a dd 53 3d 77 61 24 3e f3 02 40 3d
       0.19816458 0.051725008 0.16052805 0.046877813
0001e0 68 7a 61 bd 96 5b 30 3e f9 40 db 3d 47 d4 fb 3d
       -0.055048376 0.17222437 0.10705752 0.12296348
0001f0 b7 21 3b 3e 02 e9 5c 3e 53 e4 9a 3d b1 09 71 bd
       0.1827458 0.2157326 0.07563081 -0.058847133

layer3.weight f4 [4, 128]
000000 ec d3 1c bc 7a 23 70 3d 16 c5 bc 3c e7 52 8e 3d
       -0.0095720105 0.058627583 0.023043197 0.06949406
000010 4b 42 d3 3d bb e0 ae 3d 2d dd d8 3d ae a3 64 3e
       0.10315379 0.08538958 0.10589061 0.22328064
000020 31 73 81 3d c0 50 7d 3d fb c4 e4 3d fd 5a 72 3d
       0.06320799 0.061844587 0.111703835 0.059168804
000030 90 e4 84 3d 08 24 1c 3d ce f9 84 be 84 bb ff 3d
       0.06488907 0.0381203 -0.25971836 0.12486938
000040 66 21 12 3d c6 80 9f 3c cc d1 1d 3d 9a e9 d0 3e
       0.035676382 0.019470584 0.038530156 0.40803224
000050 07 1c 0d 3d 8d 4f 42 be f5 ce 31 3d e4 4d f8 3d
       0.034450557 -0.18975659 0.04341026 0.121242315
000060 03 d0 6a 3d 60 a1 b8 3b 03 10 9b 3d be ea 20 be
       0.05732728 0.005634472 0.07571413 -0.15714547
000070 0b 7c 09 be d3 23 a0 3e c2 81 77 3d ff a3 b0 3d
       -0.13426225 0.31277332 0.06042648 0.0862503
000080 de bf bd 3d 09 8b d0 3c 8f 37 13 3e c1 20 f4 3e
       0.092651114 0.025456922 0.14376663 0.4768124
000090 56 06 a6 3d 8c 5e d8 3d 2f ae 73 3d 0e 30 b6 3d
       0.08106677 0.105649084 0.059492286 0.088958845
0000a0 4d 9a f5 3d f6 8d f3 3d 7f 3e 44 3e ac fe 53 be
       0.11992321 0.11892311 0.19164465 -0.20702618
0000b0 41 3e ac 3d b3 83 74 3e 1e 16 b7 3d 1b 4e 33 3d
       0.084103115 0.23878364 0.089397654 0.04377566
0000c0 6c f6 02 bd 91 7c d0 3d 90 e1 d3 bd 57 c0 a0 3d
       -0.031973287 0.10180009 -0.10345757 0.07849186
0000d0 6b 93 96 3c e9 0c 0c be 55 42 b1 be 78 b7 9f be
       0.018380841 -0.136768 -0.3462092 -0.31194663
0000e0 ad cf cb 3d 20 94 04 3e 67 c1 af 3e d6 cf f9 3d
       0.099517204 0.1294713 0.34327242 0.12197845
0000f0 6e df 0c 3c ab 8f b6 be 8e 1b 96 be d8 f2 75 3e
       0.008598192 -0.35656485 -0.29317898 0.24018419
000100 17 c7 88 3d 8d 34 20 3b 47 65 b3 3e c8 51 8b be
       0.066785984 0.0024445385 0.35038206 -0.27210832
000110 e3 05 f3 3d a1 48 9a be 8a e4 b7 3d 6b 25 5c 3e
       0.11866357 -0.30133536 0.08979137 0.21498649
000120 db 9b a5 3d c4 08 b6 3c 3b 29 62 be 6d 6f 50 3e
       0.08086368 0.022220977 -0.2208604 0.20355006
000130 71 35 f0 3d 39 ec a1 bb 37 c0 e1 3e 6e 14 b7 3d
       0.11728943 -0.00494149 0.4409196 0.089394435
000140 5a be 00 3e 26 1c c0 3d 88 99 8d bc d2 c5 e5 be
       0.12572613 0.09380369 -0.017285123 -0.44877487
000150 2e 40 99 3e dd 25 d3 3d 1e fc f3 3d a0 65 08 be
       0.29931778 0.10309956 0.11913322 -0.13320017
000160 53 0c 54 3b f9 64 8a 3d b3 fc f5 3d e5 51 c2 3d
       0.0032355979 0.0675754 0.12011089 0.094882764
000170 e2 02 21 bd 0f b9 1f 3d d9 38 01 3d 99 1c 34 3e
       -0.03930939 0.038994845 0.031548355 0.17589034
000180 82 c6 39 bd b8 38 ef bd bc 83 ea 3d 33 1f bd be
       -0.045355327 -0.1168074 0.114509076 -0.36937866
000190 1b 3c 72 3b 42 32 c0 3d e3 47 a6 3e e3 fe b3 be
       0.0036962095 0.09384586 0.3247672 -0.351554
0001a0 5c f9 96 3d 5a f6 9c 3d b8 ed 78 3d ba 2c d4 3d
       0.0737178 0.07664175 0.06077358 0.103600934
0001b0 00 a0 ad bd 54 8c 9d 3d ce bb ce 3d 3d 4c 8a be
       -0.08477783 0.07692781 0.10094415 -0.2701129
0001c0 11 92 98 3d cc b3 d9 3d 79 26 d7 3d 87 b8 33 be
       0.07449735 0.10629997 0.10505385 -0.1755086
0001d0 9c 04 cc 3d ce 0c c9 3d 4d 48 79 3b d0 46 02 3e
       0.09961817 0.098168954 0.003803748 0.12722325
0001e0 23 33 3a bd a1 a2 f3 3d 76 99 bc 3d ad d5 c9 3d
       -0.045458924 0.118962534 0.09208958 0.098552085
0001f0 b7 12 a4 3e 49 f8 b4 3d 89 8b 95 3d cd 69 3e bd
       0.32045528 0.08836419 0.07302005 -0.04648762
000200 76 66 45 be 8f 91 b0 be e1 1d 86 3d 1c b1 b3 3d
       -0.19277367 -0.34486052 0.06548668 0.08774015
000210 4d 21 84 3d 21 35 62 3d d4 a7 09 3e ac b5 db bd
       0.06451664 0.05522645 0.13442928 -0.107280105
000220 59 31 89 3d 34 c1 94 3d 8f 3f d3 3c 18 09 dc 3d
       0.066988654 0.07263413 0.025787143 0.10743922
000230 1b 55 24 3d c3 88 5e 3d f8 cb 77 be b8 54 e4 3d
       0.040120225 0.054329645 -0.24198902 0.11148971
000240 fe 87 cc 3d df 40 43 3d c5 61 e2 3d d5 74 0c 3d
       0.09986876 0.047669288 0.11053804 0.034291107
000250 c8 73 04 3e 8f 22 67 be d9 6d 06 3e 84 45 cc 3d
       0.12934792 -0.22571777 0.13127841 0.099741966
000260 94 0b 09 3e 80 d8 fc 3d 72 60 89 3c f7 f7 46 3d
       0.13383323 0.123459816 0.016769622 0.04857632
000270 4f 54 06 3c 22 72 76 3e c7 6d e6 3c 5e 51 16 3e
       0.008198812 0.24066976 0.028128518 0.14679477
000280 05 28 76 bc 1d 79 9d 3b 89 fc 55 3e 16 31 35 be
       -0.01502419 0.0048056976 0.20897116 -0.17694506
000290 51 e8 cb 3c d6 69 01 3e 30 5d cc 3d f1 2e 8c 3d
       0.02489105 0.1263803 0.099787116 0.06844891
0002a0 f8 78 55 3d e2 2a b7 3c 2d 45 b3 3d 6d 0f 15 3e
       0.052117318 0.022359315 0.087534286 0.14556666
0002b0 40 c4 ba bb b8 11 97 be 2f ed e8 3c cc 60 8b bb
       -0.0056996644 -0.29505706 0.02843341 -0.0042534824
0002c0 5c 27 3e 3d 71 29 b6 3d 8f f3 90 3d 89 a1 97 3d
       0.046424255 0.08894623 0.07077705 0.07403857
0002d0 d4 9d 1b bd b3 fd c0 be a5 15 98 bc 4c 04 6b be
       -0.037992314 -0.37693557 -0.018565008 -0.22950858
0002e0 34 1f 50 3d c0 51 82 bc 18 0e 53 be 3b 36 c4 3d
       0.050811008 -0.015908122 -0.20610845 0.09580656
0002f0 b5 b1 05 3e 3f a7 4b bb 97 3d e4 3e d4 be de 3d
       0.13056071 -0.0031075028 0.4457824 0.10876241
000300 4f 99 e6 3d 33 68 f7 3d 57 75 e3 bd 58 5a 64 be
       0.1125971 0.12080421 -0.11106365 -0.22300088
000310 a0 49 0b 3e 36 97 81 be 72 3b 08 3e 9b 69 d7 bd
       0.13602304 -0.25310677 0.13303927 -0.105181895
000320 c8 8b be 3d 73 60 f3 3c 41 d4 fb bd a7 80 d8 3d
       0.09304005 0.029709077 -0.122963436 0.105714135
000330 7a a0 96 3d 74 47 ff 3d 91 f6 e1 be 7a 48 bc 3d
       0.07354827 0.124648005 -0.44133428 0.09193511
000340 ca be cc 3e 3c 21 85 3d 78 da 31 3d e8 ac d2 bd
       0.3998931 0.065004796 0.04342124 -0.102868855
000350 9e 5b a0 3e 37 bd 28 3d dd 3d 04 3e a5 57 0c 3e
       0.31319898 0.041196074 0.12914224 0.13705309
000360 40 fc 20 3e 95 f2 19 3c 01 72 dc 3d 99 2f bd 3d
       0.15721226 0.009396215 0.10763932 0.09237594
000370 bc eb 11 3e fa af 9e be d0 10 9b 3e 51 c0 52 bd
       0.14250082 -0.30993634 0.30286264 -0.05145294
000380 a9 67 9c 3d 01 a6 75 3e c4 51 db 3d 2d 45 09 3e
       0.07636959 0.23989107 0.10708955 0.13405295
000390 ed 5e 66 be df 8a a1 3c ae ea 9d 3e 0e e0 07 3e
       -0.22497149 0.01971954 0.3084311 0.13269064
0003a0 4b 26 e5 3d 11 f5 bc 3d 17 8a 05 3d cc 85 04 3d
       0.111889444 0.0922643 0.032602396 0.03235416
0003b0 66 ca 98 be 16 9a cb 3d 43 27 2a 3d 62 eb d7 bb
       -0.29841918 0.09941499 0.04154135 -0.006589339
0003c0 01 90 83 3d e8 e8 c7 3c 33 43 52 3c 51 de 17 be
       0.06423951 0.02440305 0.012833404 -0.148309
0003d0 7a 30 10 3c 9e e4 e2 3d 60 84 c9 3d 25 b8 33 be
       0.00880062 0.110787615 0.09839702 -0.17550714
0003e0 01 a0 be 3d fb e8 d2 3d d1 3a cd 3b 59 37 ce 3d
       0.09307862 0.10298344 0.006263115 0.100691505
0003f0 b1 d2 c4 3d 9a a5 bd 3d 13 78 a9 3e da 96 96 3c
       0.09610499 0.092601016 0.33099422 0.018382479

layer3.bias f4 [4]
000000 80 30 48 3d 7d 1f b7 3d 52 85 9e 3d e2 e1 67 3d
       0.04887438 0.08941553 0.077402726 0.056611903
