state_dic_policy_net/test_v8.pth (torch, 98391 bytes, 6 tensors)

layer1.weight f4 [128, 121]
000000 31 46 32 3b 03 56 38 ba bb f1 b4 3b c2 db 04 3b
       0.0027202482 -0.000703186 0.0055219806 0.0020272587
000010 8b 7e ad bb 13 7d 98 b6 59 7a 15 3b b9 dc d4 b7
       -0.005294626 -4.5445136e-06 0.002280852 -2.5375151e-05
000020 63 cf a2 3b 0d 9d bc bb a0 54 63 bb 88 a6 b1 3b
       0.00496857 -0.0057560266 -0.0034687892 0.0054214634
000030 14 54 e2 bb 86 f8 94 3a 64 00 0d 3b f6 9e 50 bb
       -0.0069069955 0.001136557 0.0021515125 -0.003183303
000040 26 1b 02 ba 36 a9 d1 bb 9e ef bd 3b 82 50 c3 bb
       -0.0004963152 -0.0063983453 0.005796387 -0.005960525
000050 f4 a5 a9 3b de 3f f1 ba 55 da 9c 3b ac 5d 5e bb
       0.005177254 -0.0018405875 0.0047867694 -0.0033930345
000060 0c 46 b4 3b ea 85 a7 bb 69 4a b2 bb 6b 56 10 3c
       0.0055015143 -0.0051123993 -0.0054409993 0.008809666
000070 48 01 b1 bb a9 e6 96 3b 8f c4 bc bb 41 15 6e 3b
       -0.005401764 0.0046051336 -0.0057607363 0.0036328586
000080 4c 11 a2 bb fb 76 dd ba 50 8a 55 39 23 59 cb b9
       -0.0049459096 -0.0016896421 0.00020364788 -0.0003878559
000090 97 ce a8 bb 76 c7 46 3b c3 86 e4 bb 19 4c 6e bb
       -0.0051515806 0.003033129 -0.0069740727 -0.0036361276
0000a0 7d 7b c0 bb a6 1f e1 bb c5 4b 10 3b eb bc 88 3b
       -0.005874096 -0.006870228 0.0022017818 0.0041729114
0000b0 8d 4b e4 3b 02 3d 92 ba 73 91 ca 3b a3 58 2e ba
       0.006967014 -0.0011157098 0.0061818897 -0.0006650781
0000c0 bd 17 a7 3b 45 be 75 3b 5f 9c a6 3b 33 cb e3 bb
       0.0050992654 0.0037497443 0.005084559 -0.0069517135
0000d0 3a 76 68 ba 57 ad c0 ba a8 3c 8b 3b af 7c e9 3a
       -0.0008867715 -0.0014700097 0.004249174 0.0017813648
0000e0 87 6d 85 bb 23 08 01 3c 94 bd f4 bb fa 65 44 bb
       -0.0040718946 0.007875475 -0.0074688885 -0.002996801
0000f0 a4 ef 97 3a 3c e5 94 bb 86 b5 ac 3b e7 f8 11 bb
       0.0011591804 -0.0045439284 0.0052706627 -0.0022273601
000100 78 73 3f bb 34 b5 bd b9 2e 61 ff 3b 2e 0b 58 36
       -0.0029213112 -0.00036183896 0.007793567 3.2193016e-06
000110 98 6e 9c 3b e9 50 2c 3b c9 7c 03 3c c6 cf aa 3b
       0.004773926 0.0026293343 0.008025357 0.005212757
000120 5f b7 64 3b 2f 5b 9c b9 0d 89 07 3c 96 54 05 3b
       0.0034899337 -0.00029822576 0.008272422 0.0020344607
000130 07 99 f1 3b 94 43 b7 3b 73 7f 22 bb af 03 ba bb
       0.0073729786 0.0055927727 -0.0024795204 -0.0056767086
000140 d0 59 ae 3a 1f 81 32 3b d2 eb 1f ba 7f df aa 3b
       0.0013301913 0.0027237607 -0.00061005086 0.005214631
000150 f6 51 48 3b 6b d7 b0 3b 95 25 fc bb 17 6f c3 bb
       0.003056643 0.0053967736 -0.00769491 -0.0059641707
000160 cc 62 86 3b b7 8e 8d bb 76 ec c8 3b 68 ce 8a bb
       0.004101133 -0.0043199915 0.006131704 -0.0042360313
000170 f4 f3 c6 3a a2 4a db ba b7 e8 92 bb 62 01 b4 bb
       0.0015178905 -0.0016730616 -0.004483308 -0.005493329
000180 ff e3 65 ba d4 c0 58 bb 6a 8d 02 ba d2 53 c4 3b
       -0.0008769631 -0.003307392 -0.0004980179 0.0059914375
000190 a5 2c cb bb 8c c1 2d 3b 70 e8 7f 3a c6 a0 b4 3b
       -0.0062003904 0.0026513068 0.0009762114 0.0055123297
0001a0 da 2f c3 3b 1b cf cf bb 2f b1 5d 39 6f 97 97 3b
       0.005956632 -0.0063418276 0.00021142208 0.0046262066
0001b0 b6 bd 85 bb d4 b0 a9 3a e4 63 b2 3b 40 73 aa 3b
       -0.004081453 0.0012946376 0.005444037 0.005201727
0001c0 42 1a ba bb e9 f6 0c 3c 04 3e a2 ba 54 51 04 bb
       -0.0056793997 0.00860379 -0.0012378101 -0.0020190077
0001d0 04 47 17 3b 62 ef 2e 3b 7f e2 08 3c 7a 08 82 bb
       0.00230831 0.0026692976 0.008354782 -0.0039682956
0001e0 08 6f c7 3b 34 d5 2e 3b bd 03 7a 3b a0 d9 dc 3b
       0.006086234 0.0026677372 0.00381492 0.00673981
0001f0 1a 48 27 3c 6a 0c 35 3c f2 be 0d 3c d5 3e 80 3a
       0.010210061 0.011050323 0.008651482 0.000978435
000200 c8 a4 d0 3b 5c 1c 2d 3c dd 6c d1 3b 97 1b c1 3b
       0.0063672997 0.010565843 0.0063911513 0.0058931815
000210 2b ff 26 3c d6 e3 b9 3d 81 e3 f7 bd aa f7 c6 3d
       0.010192673 0.090766594 -0.1210394 0.09715207
000220 02 0d 9f 3d 9b a6 d7 3b e7 f4 0b bc c1 6c c0 bb
       0.07766153 0.00658114 -0.008542276 -0.0058723395
000230 bd 82 77 bb 91 4f 80 bb 1d 69 c8 3b f6 14 3b 3c
       -0.0037767135 -0.003915735 0.006116046 0.011418572
000240 93 25 ba bd ce 10 d6 3b e0 29 18 3c a2 5e 6f 3d
       -0.09089198 0.006532765 0.0092873275 0.05843986
000250 bf 6d 84 3a 74 b0 2b bc 2f d2 28 3c f4 37 4a 3c
       0.0010103508 -0.010479081 0.010304018 0.012342442
000260 ea 22 a5 bb 66 a0 f5 3b 05 c4 a5 3b 3d cd 0b bd
       -0.0050395625 0.0074959276 0.0050587677 -0.034131277
000270 dd 63 03 bd ee 7b ba 3a 03 d2 99 3c 80 54 c0 3b
       -0.03207766 0.0014227608 0.0187769 0.005869448
000280 82 07 66 3b 46 cf 22 3d 52 bf ac 3c 12 f7 ae ba
       0.003509969 0.039748453 0.021087322 -0.0013348779
000290 c2 c3 00 3c 1a ce f2 3b d8 29 09 bd 79 10 a4 3b
       0.007859172 0.007409823 -0.03348717 0.0050068465
0002a0 23 f8 05 3c 83 f9 d2 3b 40 49 6c 3c bf 98 f9 3b
       0.008176836 0.0064384355 0.014421761 0.0076170857
0002b0 7e 9f 30 bc f1 87 b4 3b 32 ce c4 3b fa 55 7d 3c
       -0.010780213 0.0055093695 0.0060060257 0.015462393
0002c0 48 a5 67 3c b1 9d 5e bd 48 d1 00 3c e8 0e 8c 3a
       0.014138527 -0.054349605 0.007862397 0.0010685595
0002d0 75 98 5c bb f2 53 0e bc 35 d6 d3 bd c6 d4 60 bd
       -0.0033660207 -0.008687006 -0.10343591 -0.054890417
0002e0 3c 80 a9 bc 47 67 ef 3b 21 a3 a4 3b 44 27 f3 3b
       -0.02069103 0.007306013 0.0050243293 0.0074204523
0002f0 09 a6 6a 3d 9b ea a5 3b f6 fd 4b bc 54 a4 7d 3c
       0.05728725 0.0050633675 -0.012450686 0.015481073
000300 4b c1 b0 3b 1c c4 17 3b 8b ca c3 3c 0a 0d cb 3b
       0.005394136 0.0023157662 0.023900291 0.0061966227
000310 46 e1 29 3d 77 86 21 3c 90 c4 aa 3b 4b da a1 3d
       0.041474603 0.009858719 0.0052114204 0.07902964
000320 87 33 e9 3d 3b 24 33 3d 1e ff 70 ba a3 84 21 bc
       0.11386781 0.043735724 -0.0009193289 -0.009858283
000330 3e a6 ea ba f6 37 fd 3c 26 89 8c ba 43 e1 2a 3d
       -0.0017902327 0.030910473 -0.0010722026 0.041718733
000340 b8 40 05 3b 85 ef bc 3b 5b cb 84 bd e4 cb 98 3b
       0.0020332765 0.0057658576 -0.064840995 0.0046629775
000350 7d 33 1d 3b 50 00 91 3b f6 26 3e 3c 82 d2 a3 3c
       0.0023986988 0.004425086 0.011605969 0.019997839
000360 05 32 a3 3a 2d b0 7a 3a a1 6d aa 3c b9 c7 12 3c
       0.001245082 0.00095629954 0.020804228 0.00895875
000370 d4 81 57 3a c0 18 4a 3d 2d 26 8e 3d eb 75 92 3d
       0.0008220945 0.04934001 0.06940875 0.07151397
000380 78 ae 6b 3b e3 d6 dc 3b d6 2b 7f 3c ca 61 71 3c
       0.0035962146 0.0067394837 0.015574416 0.014732787
000390 93 62 01 3c bf fa 49 3b 64 5f 68 3b 36 54 ce 3b
       0.007897037 0.0030819622 0.0035457248 0.00629666
0003a0 ef 28 a8 3a b5 42 be 3b 4a ff 06 3c 8f d7 6e 3c
       0.0012829582 0.005806292 0.008239577 0.01457776
0003b0 cb 22 d6 3b 75 50 5b 3c 36 2e b3 3a 79 fd db 3a
       0.0065349094 0.013385882 0.0013670388 0.0016783915
0003c0 f5 ca 19 3b 67 b2 06 3c ed 74 c4 bc f8 08 f2 bc
       0.002346692 0.008221245 -0.023981536 -0.029545292
0003d0 d6 c1 f6 bc 6b bc b2 bc 2d 52 a7 bc 66 62 f6 bc
       -0.030121725 -0.02181836 -0.020424927 -0.030076217
0003e0 ca 5d f7 bc a4 e6 91 bc 29 29 c0 bc 46 33 e9 bc
       -0.03019609 -0.017810173 -0.023457127 -0.028466832
0003f0 fc d8 ff bc 15 ed e6 bc 0d 4e ef 3a 27 41 8f 3b
       -0.031231396 -0.028189221 0.0018257514 0.0043717804

layer1.bias f4 [128]
000000 17 75 83 bb 6d 74 98 bb 0a 4d dd 3c 39 df c3 3c
       -0.004011761 -0.004652551 0.027014274 0.023910152
000010 68 ca ca bb 43 bd d1 3c 13 ce 25 bc 42 a0 21 3b
       -0.0061886795 0.025602942 -0.010119933 0.0024662171
000020 ca ea 20 bb a1 ed fb bb ef eb 27 bc 0c c1 7c 3d
       -0.0024554008 -0.0076882397 -0.010249122 0.06170754
000030 2a d2 82 3c fc 59 9c bb 0d d0 aa 3c 9f 68 af 3c
       0.015969355 -0.004771469 0.02085116 0.021412192
000040 3a 31 fa 3c 4a 8d 9e 3c 47 4a 53 3c a9 91 c7 bb
       0.030541051 0.019354481 0.012896127 -0.006090362
000050 00 c4 85 3b d3 5b f0 3b 5e bd 32 bc d9 27 4c bc
       0.004082203 0.007335165 -0.0109094065 -0.012460672
000060 c0 f6 91 3b 35 09 db 39 ee 4c c8 3b d1 e3 2f bb
       0.0044544637 0.00041777795 0.0061126864 -0.002683867
000070 6b 2e 99 bb 5e ed cf 3b 10 b4 83 bc dc b8 f8 bb
       -0.004674723 0.006345435 -0.016077071 -0.0075903963
000080 4f 80 ac bb e4 48 57 bb db 03 f4 ba 1e 6e 89 3a
       -0.005264319 -0.0032849843 -0.0018616872 0.0010485088
000090 63 46 0d bb ec 3f 7d bb e4 63 c3 b8 98 75 81 3a
       -0.0021556846 -0.0038642837 -9.316931e-05 0.0009876965
0000a0 f7 33 97 bb 4f b5 08 bc e2 ea 54 3a 12 5a 4f bc
       -0.004614349 -0.008344009 0.00081221585 -0.012655752
0000b0 ae d8 b1 bb c3 4c e7 3c 2a 52 da 3c 9c 62 ac 3b
       -0.0054274416 0.028234845 0.026650507 0.0052607786
0000c0 cb 61 88 3b d3 c8 c2 3c d1 46 99 b9 d1 65 f1 3a
       0.0041620485 0.023777401 -0.00029235196 0.0018417184
0000d0 fe 21 ce 39 a8 fe c0 3b 03 2c 40 3c 6f e2 c7 bb
       0.00039316708 0.0058897324 0.011729243 -0.006099991
0000e0 70 52 b5 3b cb bf 9f 3c 03 70 5b bc fc 7a cf 3a
       0.005533509 0.019500634 -0.013393405 0.0015829499
0000f0 b8 c0 9f 3c b1 6f a8 3c 0d af e9 39 14 e5 a9 3b
       0.019501075 0.020561071 0.00044571646 0.005184779
000100 7c 6a 7d ba 96 2a 2b bb de 97 d6 bb 52 c5 46 bb
       -0.00096670515 -0.0026117912 -0.0065488657 -0.0030330014
000110 0b f6 da bb 4d 34 88 3a af 9b 12 3d c7 e9 02 bc
       -0.0066821626 0.0010391563 0.035793003 -0.007990307
000120 28 12 a7 3b af 9e ae 3a 8e 98 df bb 9b 80 59 bb
       0.0050986 0.0013322438 -0.006823606 -0.0033188227
000130 ae 95 a0 3c 2b 02 58 bc 40 64 36 b8 6b 04 de ba
       0.019602623 -0.013184111 -4.3485546e-05 -0.0016938573
000140 43 ea 34 3c b0 fa cd bb 54 53 7a bb d3 75 a6 3c
       0.0110421805 -0.006285988 -0.003819664 0.020319855
000150 dd e5 ec 3a d0 24 c1 3c fe 6e dd 39 cc 6e f9 bb
       0.0018073876 0.023577124 0.000422351 -0.007612085
000160 1b 40 56 bc 09 38 77 3c 22 5d c9 bb e5 11 65 3b
       -0.013076807 0.015089043 -0.0061451355 0.0034953293
000170 24 95 16 bc 4f ef 7b bb ed b7 a5 3c 06 f7 e6 bb
       -0.009190831 -0.00384422 0.020229304 -0.0070484905
000180 89 32 24 3c aa c6 e2 3a 44 24 19 3b 78 f6 0e bc
       0.010021814 0.0017301638 0.0023367563 -0.008725755
000190 cd 7b e0 3c 47 f7 14 bc 04 6f 9d ba 20 6e 69 3b
       0.027402783 -0.009092159 -0.0012011235 0.0035618618
0001a0 85 61 c1 3c 57 f3 fe bb b0 16 d2 3b f0 17 e2 ba
       0.023606071 -0.007780473 0.006411396 -0.0017249566
0001b0 1c 09 c4 3c fa ec 67 3c 46 98 f7 bb ee f7 11 bb
       0.023930125 0.014155621 -0.007555994 -0.0022273022
0001c0 6d f0 55 bc 4c ba 08 3d 95 5b 59 3c 1d 2a 06 bc
       -0.01305781 0.03338079 0.013266464 -0.0081887515
0001d0 5c 30 47 3c 97 5e 70 bb b1 57 5f 3a 5d b3 89 3b
       0.012157526 -0.0036677474 0.0008519842 0.00420229
0001e0 20 1d 00 bc a8 9b b8 39 76 ae 31 bc 58 bd 7a 3b
       -0.007819444 0.00035211188 -0.010844817 0.003825983
0001f0 4b d5 31 3a 31 02 a2 3b d9 f4 bd 3c 5a df 25 bc
       0.0006783797 0.004944109 0.023188042 -0.010124052

layer2.weight f4 [64, 128]
000000 ab d0 4e 3a 64 5c b3 3d 30 ad cb be 52 bc 84 bd
       0.00078893703 0.087578565 -0.3978057 -0.06481232
000010 46 9e f2 3b 3c 30 62 3d 15 d0 1a bd e5 50 ba bb
       0.0074041216 0.05522178 -0.0377961 -0.005685913
000020 fd 52 27 3d 85 1c 94 b7 2f b6 a0 bb e7 bd 65 3e
       0.04085063 -1.7656255e-05 -0.0049045305 0.22435723
000030 4a 40 df 3d ea 68 8b be 15 d1 f1 bd 3f 90 13 3d
       0.10900934 -0.2722848 -0.11807457 0.036026236
000040 92 1c 40 3c da eb 0d 3d 56 a1 2e ba 0b c5 0a bb
       0.011725562 0.034648754 -0.0006661614 -0.0021174576
000050 f2 7d bb be ca 55 99 bc 84 83 8c bd 95 c3 8f 3b
       -0.36619526 -0.018717665 -0.06861022 0.004387329
000060 57 ff e3 3b 6e d0 4b 3e fd 0a 58 be 24 93 7c 3d
       0.006957929 0.19903728 -0.21097942 0.06166376
000070 9c 36 bd ba 5d 7d ee ba 27 bc eb 3c 2c fe 51 3a
       -0.001443583 -0.001819532 0.028776241 0.0008010592
000080 34 0a 10 bb b0 62 c9 ba c1 e9 99 be e7 8b 9c 3c
       -0.0021978738 -0.0015364494 -0.30061153 0.01910968
000090 3c 01 36 bb 10 23 a6 3b b2 b7 43 be 9f 41 2d 3d
       -0.0027771732 0.0050700977 -0.19113043 0.04229891
0000a0 3c 77 31 3d 92 33 42 bd f0 2d 81 39 9b 2a 90 bc
       0.0433266 -0.047412463 0.00024639023 -0.01759844
0000b0 3c e9 ef 3d 76 99 bc bd 5b 9f 84 3c db c3 da b8
       0.11714408 -0.09208958 0.016189268 -0.00010431531
0000c0 b9 52 22 3c f2 ac 02 3d b1 dd 50 3b dd d2 83 bb
       0.009907418 0.031903215 0.003187042 -0.0040229396
0000d0 f6 d5 81 bd 07 ee 94 3b f1 8e f0 bc 67 4d 04 3c
       -0.06339638 0.0045449766 -0.029365035 0.008075095
0000e0 15 e5 45 3b 07 2a 3d bd a0 2d 98 3d 42 1f b3 b8
       0.0030196358 -0.04618266 0.07430577 -8.541207e-05
0000f0 d2 dd 1c 3d 25 e2 01 3d f7 c9 a6 3a b2 5f 0b bc
       0.03829748 0.03170981 0.0012724985 -0.008506702
000100 c3 c0 80 3d fc 19 28 3a 2f 60 82 bb f1 9b 1a bc
       0.062867664 0.00064125634 -0.003978751 -0.009436593
000110 b3 f4 ef bb 86 e5 2d bb f7 23 32 be c6 18 02 3e
       -0.0073228716 -0.0026534512 -0.17396532 0.12704763
000120 b0 58 22 bb 7e ad 88 3c 8d ee 4b 3b 26 72 82 bb
       -0.00247721 0.01668429 0.003111753 -0.0039808927
000130 68 73 50 be 77 d0 4e bd 99 2d 27 bd 96 4e 4c 3b
       -0.20356524 -0.050491776 -0.04081497 0.003117477
000140 3c 9d 19 3a 93 4f ca bd b8 57 a3 bb fe f1 0c 3d
       0.00058599166 -0.09878459 -0.004984822 0.03441047
000150 9a b4 ca bb b2 31 76 bd 47 b5 3d bd 3a b5 b6 3b
       -0.00618608 -0.060105987 -0.046315458 0.005575803
000160 72 1d ac bc 54 04 e2 bb 45 87 bb 3a 1b b5 8c bc
       -0.021010134 -0.0068974886 0.0014307281 -0.017176202
000170 13 ce a9 3c 6e b5 32 bd 5c 4a b5 bd cb a8 3f 3c
       0.020728147 -0.043630056 -0.088520736 0.011697958
000180 53 3f 35 3d 51 1c a6 bd 5e 79 14 3d 70 98 0a 3d
       0.044249844 -0.0811087 0.036248557 0.033836782
000190 1a a0 44 bd 7b 50 5f bc f8 3c f9 3a ba 6c a4 bc
       -0.048004247 -0.013630028 0.0019015362 -0.020071376
0001a0 83 0d 8f 3d 62 c4 21 3d 1d a2 80 be 45 4a 35 bc
       0.06984999 0.039493926 -0.25123683 -0.0110650705
0001b0 eb 0f 22 be c3 16 8b be e3 76 ef 3d 20 34 60 3b
       -0.15826385 -0.27165803 0.11692598 0.0034210756
0001c0 3c 8b dc 3d 6d 9d 5b be 6e 16 a3 3d 92 71 03 3b
       0.10768744 -0.21446772 0.079632625 0.0020056707
0001d0 88 13 71 bc 69 a2 7b 3d e3 91 ca 3c 9a 68 06 3c
       -0.014714129 0.061434183 0.024727767 0.00820365
0001e0 b1 1e bf 3d 9f af 94 ba ea 4d bd 3d e0 b2 e9 3a
       0.09332026 -0.0011343843 0.092433766 0.0017829798
0001f0 c9 29 fc 3d 63 07 3a bd 28 f8 ed bc 53 f8 a2 3d
       0.123126574 -0.0454172 -0.029048994 0.0795752
000200 d5 c7 c4 ba 0e 26 fc 3d dd be 4b be 1e 99 45 bd
       -0.0015013168 0.12311946 -0.19897027 -0.048241727
000210 8a 5b 62 3d ec b8 e4 3d 63 84 ad 3d e9 4b bd 3a
       0.05526308 0.111680835 0.084725164 0.0014442179
000220 e1 7e 94 3d ea 82 63 bb 04 83 33 3e c2 03 a1 3c
       0.07250763 -0.0034715482 0.17530447 0.019655112
000230 d2 c9 3b 3d a7 88 d7 bd 6d 57 ab bd 3b 84 3c 3d
       0.045846768 -0.10524111 -0.083662845 0.046024542
000240 94 2d d4 bd f5 8f 40 3d 81 63 e0 bc a4 36 91 3b
       -0.10360256 0.047012288 -0.027391197 0.0044315625
000250 e8 08 bb bc ce 4d 93 bc 9f 1f a5 3d 34 d9 94 3d
       -0.022831395 -0.017981436 0.08062672 0.07267991
000260 33 3c be bb 21 9a 4f 3e 03 eb 5c be 06 be dc bb
       -0.005805516 0.2027364 -0.21574025 -0.0067365197
000270 27 0e 56 ba 6b 54 ca bb 51 84 d3 3d f7 9b f0 3a
       -0.0008165561 -0.006174614 0.10327972 0.0018357028
000280 5b a2 14 38 25 a0 86 bb fe 69 a0 be 69 2c ec 3d
       3.5437155e-05 -0.004108446 -0.31330866 0.11531908
000290 a0 ac 33 38 68 fa 3e 3b aa bf 60 bd d1 da 30 bd
       4.2837695e-05 0.0029140953 -0.054870285 -0.04317743
0002a0 17 64 b2 3d f8 66 00 bc 17 a3 4c 3b 9e ca a1 3d
       0.08710497 -0.00783705 0.0031225139 0.07899974
0002b0 e0 f6 5c 3d ec ac 02 be b5 93 0a 3d 61 3b 38 3b
       0.053946376 -0.12761277 0.03383227 0.0028111564
0002c0 7a 34 88 bd fe 01 20 3d b8 70 b4 b9 15 38 d7 3a
       -0.06650634 0.0390644 -0.00034416257 0.0016419912
0002d0 cf 9d ab 3c 85 99 ed 39 fe 31 dc bc 67 7f 1c bb
       0.020949272 0.00045318544 -0.026879307 -0.0023879649
0002e0 dd 22 d9 bb fd ae 99 bc 15 45 0c 3e 5a c5 a5 3b
       -0.0066264705 -0.018760199 0.13698228 0.0050589265
0002f0 c2 1b a1 3d 25 9e 81 3d 78 e4 0c 38 cd 1a f0 bb
       0.078666225 0.06328992 3.359138e-05 -0.0073274137
000300 78 0e d8 bc 53 92 8b bb 3c 2d be 39 e0 18 22 3c
       -0.026374087 -0.0042593866 0.00036273326 0.009893626
000310 1f 3a af 3c 0c 5c 44 3a 71 fe 18 be e4 39 f7 3d
       0.021390019 0.00074905227 -0.14940812 0.12071589
000320 08 00 81 3b 0f cf 32 3d f0 f8 99 bb 77 d6 b4 ba
       0.0039367713 0.043654498 -0.004698865 -0.0013796826
000330 02 a1 4d bd 26 b0 8c 3d 7b e8 05 3b af f0 25 3b
       -0.050202377 0.06869535 0.0020432759 0.002532046
000340 fe da 78 3c 49 c0 45 bd 91 83 74 3b b0 16 5c 3d
       0.015188931 -0.04827908 0.0037309865 0.053732574
000350 d8 d5 17 bc ad 4d b3 bb 2e d0 1e bd 0a ab 7d 3b
       -0.009267293 -0.005471906 -0.038772754 0.0038706684
000360 ee b1 c7 bc ac 4a 47 bc 36 77 d4 3b 8d 66 55 3d
       -0.024376836 -0.012163799 0.0064839376 0.052099753
000370 93 e0 41 3e ed f0 d0 bd d6 6c 4a bd fb 04 25 3c
       0.18933325 -0.10202203 -0.0494202 0.010071988
000380 8e d9 61 3d fb 9c 17 be 83 8b a8 bb dc ae 42 bc
       0.055139117 -0.14805977 -0.005143584 -0.01188251
000390 d2 59 74 bd fb 83 f2 3b 4a 20 0a 3d be df 38 3d
       -0.05965597 0.007400987 0.0337222 0.045135252
0003a0 ac 63 c0 3d dc 0a 99 ba 2a 60 95 bd b3 50 3a 3c
       0.09394011 -0.001167621 -0.072937325 0.011371779
0003b0 45 e6 59 be f6 37 1d be 0a 6c 19 3d 55 6d 9a b9
       -0.21279247 -0.15353379 0.03745655 -0.00029454628
0003c0 fb f7 dc 3d 9d 0e ed bd 8c 6d 00 bd 59 18 b2 3b
       0.10789486 -0.11575053 -0.031354472 0.0054350314
0003d0 47 c8 fc bc 01 dd fa 3d 00 86 ea bc b5 b1 4c ba
       -0.030857218 0.122491844 -0.02862835 -0.0007808463
0003e0 41 4d bf 3d 9d 93 b2 ba 20 88 99 3d 56 ea 09 3a
       0.09340907 -0.0013624314 0.07496667 0.0005261054
0003f0 18 99 94 bb c3 90 af bd b5 7a e2 bc 4e d4 f9 3d
       -0.0045348518 -0.08572533 -0.027646402 0.12198697

layer2.bias f4 [64]
000000 dc a9 ad 3c 23 62 f3 3c 6c df 3a 3d 64 11 43 bc
       0.02119916 0.029709881 0.045623228 -0.011906002
000010 ac 7a 43 3d b6 e8 e3 3b a6 62 c2 bb fe 39 39 3d
       0.04772441 0.0069552315 -0.00593217 0.04522132
000020 85 d6 ea bb 9b 60 55 bc 5b ab d8 3b 81 44 6b 3b
       -0.007166686 -0.013023521 0.006612224 0.0035898986
000030 99 90 66 3d ab 15 4c 3c 04 a9 3f 3d d1 35 44 bc
       0.056290243 0.012456338 0.046792045 -0.011975721
000040 d4 1e 18 3d db 2d 99 3c 0b c2 21 3d 36 ee 65 bb
       0.037138775 0.018698623 0.039491694 -0.0035084612
000050 31 7f a0 bb cb 9d 2a bb 47 61 97 bb a3 2c 25 3d
       -0.004897975 -0.0026033993 -0.0046197507 0.040325772
000060 91 2d c0 3b e9 c6 58 bb 2e 59 65 3d c3 11 4d bc
       0.005864807 -0.0033077544 0.05599325 -0.012516442
000070 4e 86 b4 3c c9 b8 ba ba 23 f6 33 3d 66 72 42 3d
       0.022036698 -0.0014245744 0.043935906 0.04747238
000080 1f b8 b2 3c f9 a7 11 3d 08 85 00 3d 3c 31 56 3d
       0.021816311 0.03556058 0.03137687 0.052293047
000090 93 26 c7 bc ee 9e 3a 3d 9f 8c ec ba a9 46 19 3c
       -0.024310386 0.045561723 -0.001804728 0.009355226
0000a0 10 ba 77 3c 87 43 27 3b 2a 58 22 bc 71 28 9e bc
       0.015120044 0.0025522427 -0.009908715 -0.019306393
0000b0 af bc bc 3c 76 29 4e bb d7 76 4e 3c 86 d5 33 3b
       0.02303919 -0.0031457818 0.012601576 0.0027440502
0000c0 9b 58 c9 bb c5 4b 9e bb ef 8b 39 3d 62 24 1b 3b
       -0.006144596 -0.00483081 0.045299467 0.002367281
0000d0 19 b9 1e 3c 01 57 c3 3c e4 57 d4 bb 9b 42 4c 3d
       0.009687685 0.023845198 -0.006480204 0.049868207
0000e0 3a c5 4f 3c 96 e0 ba 3b c2 de 27 3c 84 0b f3 bb
       0.0126813 0.0057030423 0.010245981 -0.0074171443
0000f0 09 b4 72 3c 96 e2 2f 3c 70 b6 5a 3d 3e b6 04 3c
       0.014813432 0.010735175 0.053396642 0.008100091

layer3.weight f4 [4, 64]
000000 80 d9 56 3e e7 82 57 3e 8b 18 bb 3d a7 81 2d 3e
       0.20981407 0.21046029 0.091355406 0.1694399
000010 4f 24 f4 3d 38 3c 63 3e a6 82 c3 3d be 7f e5 3d
       0.11920988 0.2219094 0.095464036 0.112060055
000020 77 f8 96 bb c2 93 c1 3e 57 f7 a9 3d 87 98 4d bb
       -0.004607256 0.37808043 0.082991295 -0.003137143
000030 90 57 8b 3e 32 67 74 3e 77 fa f0 3d 47 fd b5 3d
       0.27215242 0.23867491 0.117665224 0.088861994
000040 b5 f9 d8 3e c5 f9 db 3e e1 c9 cb 3d 7b 6a 45 3e
       0.4237801 0.42963997 0.09950615 0.192789
000050 80 17 5c bb d4 42 c5 3e 36 94 02 bc ef af 8c 3e
       -0.0033583343 0.38527548 -0.007969907 0.27477977
000060 c1 f7 83 3e 82 20 b0 3e 63 4a 8b 3e c9 f4 e2 3d
       0.2577496 0.34399801 0.2720519 0.11081845
000070 e2 d7 94 be 95 9b 43 3e 84 f3 cb 3d 79 09 fe 3d
       -0.29070956 0.19102319 0.09958556 0.124041505
000080 49 59 87 3e ee 2c 01 3e 19 ab a9 3e 0b 2b 76 be
       0.26435307 0.12614796 0.3313835 -0.24039857
000090 e9 1d 2a 3e 51 9b 0a 3e 66 10 1f 3e ec f2 ba 3e
       0.16612972 0.13535811 0.155336 0.3651346
0000a0 5f b7 27 3e c7 02 32 3b 25 2a 84 3e b0 20 aa 3d
       0.16378544 0.00271623 0.25813404 0.08307016
0000b0 a8 9c d2 3e f9 6d 17 bc 35 9d 91 3e 30 d9 d1 3a
       0.41135144 -0.009242528 0.28440252 0.0016010161
0000c0 2b 4f de ba 6b 11 61 bd dc e2 a1 3e 1f 9c de bb
       -0.001696085 -0.05494825 0.31618392 -0.0067935134
0000d0 cb da 84 3e 87 ef db 3d e8 03 77 3e 9e 88 ef 3d
       0.25948176 0.107390456 0.24122584 0.116959795
0000e0 82 e2 b3 bd c3 fe 0a 3c 7d 0f d8 3b b4 f0 28 bb
       -0.08783437 0.0084835915 0.006593643 -0.0025778236
0000f0 b2 e0 d0 3e dd 1a d5 3d 87 bd e7 3d c3 86 19 3f
       0.4079643 0.104055144 0.11315446 0.59971255
000100 df 88 43 3e 2a 9b 7c 3e 2c b4 da 3d b8 f8 9d 3d
       0.19095181 0.24668565 0.10678896 0.07713455
000110 2d fe 02 3e 92 83 4f 3e 4c 2c e3 3e bc d6 fd 3d
       0.12792273 0.20265034 0.44369733 0.12394473
000120 13 5b 48 bb 42 c1 2c be 12 4a 02 3d 82 8e d0 b9
       -0.0030571863 -0.16870597 0.03180892 -0.00039779028
000130 9c bb 99 3e b5 f5 52 3e 17 9e e9 3d ca db 65 bc
       0.30025947 0.20601542 0.11407106 -0.014029453
000140 13 5c 8e 3e a9 93 76 3d 50 2e e0 3d 4b 12 fc 3e
       0.27804622 0.060199413 0.109463334 0.49232706
000150 58 74 89 bb e1 e4 4a 3e 9a 55 be bb ee b7 9a 3e
       -0.0041947775 0.19813873 -0.0058085443 0.30218452
000160 66 f6 33 3e d8 ce 8d 3e 84 a1 5f 3e 4f ce d7 bd
       0.17574462 0.27696872 0.21838957 -0.10537397
000170 3c 6a f0 3e 8a 25 a2 3e d8 be ee 3d 49 9b 0a 3e
       0.4695605 0.31669265 0.11657494 0.13535799
000180 ed fc c7 3e ed c0 06 3e 40 08 c7 3e d6 39 63 be
       0.39060155 0.13159533 0.38873482 -0.22190031
000190 cd fe 4f 3f f6 e7 0d 3e 2f f4 66 3d 9d 3d 2a 3f
       0.8124817 0.13858017 0.056385215 0.66500264
0001a0 f4 3d cd 3e 2a 6e b7 3b 24 01 1d 3f cf 92 ae bd
       0.4008633 0.0055978494 0.61329865 -0.08524095
0001b0 31 da e3 3e fe 9d 9e 3b 33 a6 0e 3e 0a 13 a8 b7
       0.44502404 0.0048406115 0.13930587 -2.0036026e-05
0001c0 0e 46 05 3c 37 3b 2a bd 82 48 68 3e cc 29 1d ba
       0.008134378 -0.041560378 0.2268391 -0.0005995303
0001d0 72 23 70 3d 99 f7 b8 bc 50 18 15 3f c8 e7 f2 3d
       0.058627553 -0.022579001 0.5824022 0.11860615
0001e0 03 cf 76 bd 86 27 eb 3b 04 17 a0 3e 26 2e d5 3b
       -0.060256016 0.0071763424 0.3126756 0.0065057455
0001f0 39 e8 9e 3e 64 54 b6 3d 3f 21 99 3e 33 cf e3 3e
       0.31036547 0.08902815 0.29908177 0.44494018
000200 ce af 88 3e c9 57 77 3e a8 1f df 3d 6c 98 07 3f
       0.26696628 0.24154581 0.1089471 0.5296695
000210 19 c8 df 3d 4b b4 a5 3e 45 2d af 3d ee ef f5 3d
       0.109268375 0.32364115 0.08553556 0.120086536
000220 69 53 b5 bb 3f a5 cf 3b e0 26 66 3d ab 48 34 bb
       -0.005533625 0.0063368375 0.056189418 -0.0027509134
000230 4e 2e c0 3e de 68 ee 3d 1e 56 bb 3d fe 31 23 3e
       0.37535328 0.116410956 0.09147285 0.1593704
000240 4d f1 91 3e 41 81 89 3e 7b 5b c9 3d a3 8f e3 3e
       0.2850441 0.26856425 0.09831902 0.44445524
000250 c8 02 0a ba fb 5f 22 3f b4 95 1e bc d3 a5 4a 3e
       -0.00052646967 0.63427705 -0.009679247 0.1978982
000260 80 01 49 3e 00 99 e6 3d 7c e5 8f 3e e6 76 85 3d
       0.19629478 0.11259651 0.2810477 0.06516819
000270 94 01 a8 3e a2 d5 80 3d 9d 66 df 3d a1 fd 18 3e
       0.32813704 0.06290747 0.10908244 0.14940502
000280 bd b2 a4 3e 09 9b df 3d dc d8 8c 3e 37 74 63 be
       0.32167616 0.109182425 0.275092 -0.22212301
000290 a3 87 c4 3d 14 c2 16 3e 03 50 0d be 5b 45 8a 3e
       0.09596183 0.14722472 -0.13800053 0.2700604
0002a0 5b d8 95 3e b8 73 4b 3b b8 b0 50 3e 76 df 11 be
       0.2926663 0.0031044316 0.20379913 -0.142454
0002b0 71 d9 dc 3e 2e 17 2a bc a4 e3 59 3e b4 da 1f bc
       0.43134645 -0.010381503 0.21278244 -0.009756733
0002c0 24 31 d8 bb 5f 92 a0 bd d9 60 7f 3e 4c 67 6b bb
       -0.006597655 -0.07840418 0.24939288 -0.0035919724
0002d0 f9 42 e2 3e 77 49 51 3e e9 44 88 3e f3 2a d9 3d
       0.4419172 0.20438181 0.26615074 0.10603895
0002e0 b5 3f 09 3f 5d d1 91 3b b5 b4 dd 3e 37 d6 e0 3a
       0.53612834 0.004450007 0.4330193 0.0017153685
0002f0 0b 18 d2 3e e0 7f f5 3e 23 d5 b1 3e 69 ff 32 3e
       0.41033968 0.47949123 0.34732923 0.17480244
000300 5f 9c 50 3e 71 a2 1f 3e 23 ac e0 3d e4 91 93 3d
       0.20372151 0.1558931 0.109703325 0.07205561
000310 b3 fb 03 3e a1 40 b3 3e 7a b0 ab be 8a aa c9 3d
       0.12888984 0.35010245 -0.33533078 0.09846981
000320 2b 65 89 3b 9f 7b 00 3c 46 1b 26 3e b9 fd 17 bc
       0.0041929684 0.007841974 0.16221341 -0.009276801
000330 d2 05 93 3e c9 8d ab 3e dc 31 00 3e 75 17 10 3f
       0.28715378 0.3350661 0.1251902 0.5628579
000340 62 05 90 3e 47 cc ec 3d 89 4b e1 3d 61 95 70 3d
       0.28129107 0.115624 0.11000735 0.05873621
000350 c0 86 a1 3a a6 ac da 3e 1d 02 1c 3c bf b5 93 3e
       0.0012323484 0.42709845 0.009521988 0.288496
000360 ae 63 b8 3e 9b 66 91 bc f7 94 84 3e fa fb eb 3e
       0.3601355 -0.017749121 0.258949 0.4609068
000370 11 49 07 3f 15 4b 5f 3e f4 91 e6 3d 0a 10 10 3e
       0.52845865 0.21805985 0.11258307 0.14068618
000380 8f 17 90 3e 42 ff ff 3d c6 32 93 3e fe 71 87 be
       0.28142974 0.124998584 0.28749675 -0.26454157
000390 8a 9a 00 bf 28 55 1b 3e 43 04 2c 3d 83 14 83 3d
       -0.5023581 0.15169203 0.04199625 0.06400397
0003a0 31 85 9f 3e d9 1d 05 3c 12 f1 c8 3d 12 b1 3a 3f
       0.31156304 0.008124792 0.098116055 0.7292644
0003b0 3e da db 3e 4b 97 c5 3b 22 1b 81 3e 64 9c 7e bb
       0.42939943 0.0060299984 0.25216013 -0.003885054
0003c0 5a db 42 3a 26 cf dd 3e 35 f1 9f 3e 7d 1b 91 3b
       0.00074331986 0.43322104 0.31238714 0.0044283257
0003d0 a9 2d 8a 3e fc 97 3d 3e ab 65 6c 3e dc 19 e5 3d
       0.2698796 0.18515009 0.23085658 0.11186573
0003e0 1d bd cb bb 3a a5 18 bc bc 75 3b 3e 4e 1f 9e ba
       -0.0062176124 -0.009316737 0.18306631 -0.0012063773
0003f0 7c 7d 06 3f f4 fa 3c 3e 8b b6 5f 3e 7b 3a 04 3f
       0.52535224 0.18455106 0.21846978 0.51651734

layer3.bias f4 [4]
000000 4e 73 88 3c 9d 23 b7 3c 4c 49 84 3d a9 ca 3f 3d
       0.016656544 0.022355849 0.06459293 0.04682413
