state_dic_policy_net/test_v6.pth (torch, 54871 bytes, 6 tensors)

layer1.weight f4 [128, 36]
00000000: 8ce5 dfbc 5d17 973c e22b 723d dd13 453d
00000010: 73d2 203d 6fc3 153d 5f9d 87bd be78 82bd
00000020: 5fae 86bd 38c5 c1bd e65d 9dbd 2868 503d
00000030: a1fe 5ebd dbf9 f13d 4473 383e 0fc4 8d3e
00000040: e58a 243e c8b2 413d 93af 2c3d ee43 febd
00000050: 378f ecbe 463c 99be 791d d0bd b462 36bd
00000060: 55ff a4bc 269c 093e d97c 503e 00c5 0a3e
00000070: b519 0b3e 9789 463d 4cb8 4abd 80d0 8d3d
00000080: 4aee 7a3c 885a a5bd 7110 91bd 00c5 363d
00000090: d6fe d43d 77c9 87bc 6d5a 523d 8530 0d3e
000000a0: 8530 afbb 6487 0f3e ead5 46bc 945c 11bf
000000b0: 7a4d ddbe 9e94 a1be 2cc5 ac3d 7f7e a93d
000000c0: 2e8a fc3d 4ba5 cc3d 6d86 ffbe d0b9 10bf
000000d0: b208 913e 5d41 be3c dd6f 7d3d ea12 4b3e
000000e0: 06ea 553e 9044 933e 5ed3 653e c9a5 ce3d
000000f0: abe9 86bc 0fac 523e a4a2 913e 9960 9b3e
00000100: 621b 843e ef97 d63b 770c 9f3b da95 6fbc
00000110: e867 84bc 614e 973c f786 423c 875c f13c
00000120: adf9 84bc 78df 6e3d 044d 78bd 2679 adbd
00000130: f1f0 99bd ee1a 963b c320 b9bc aef4 39bf
00000140: 7048 79bd 0e7d 80bd 421b 64bd 0ba2 b5bd
00000150: e6ab c4bd 05f4 11be dc8d 8c3c 8add c2bd
00000160: e4fd 973e 1cb9 58bd d624 abbd 1715 05bf
00000170: 5b80 213d 66ee 54bd c7f8 9ebd 301d d7bd
00000180: 6acc 283d 36a3 19bf 397b 8cbd 5367 2abd
00000190: 18ca bc3d 4b13 c7bd f11d c4bd 64ea 3abd
000001a0: 33e3 2bbd a04c abbd 03ca 85bb f821 9cbb
000001b0: 3cfe c43d 5d0f 143d 307d b83c ceeb ddbc
000001c0: f58a 8c3d 07d9 a63d d424 063b b1d8 9dbd
000001d0: 31ba 30bc 8ed5 00be bb91 e13d a466 c33d
000001e0: db63 c03d 0247 8bbd f48f db3d 4b7e 39be
000001f0: c70b e73d ad57 963d b36f 11bd 616a d4bd
00000200: edfd 05bf 4c5f eb3d e1fd b0bc 5a02 c13c
00000210: c0d9 e93c a8e8 d6be 942d 993e b2bb 603e
00000220: 81aa 5bbd 69d7 7dbd 3a82 8e3c 1585 78bc
00000230: 5eb5 5cbd 344c c63d 867e c63d 170a 563c
00000240: d7cd bc3d 0a77 c3bc 6740 953d 508e 84bd
00000250: 7329 48bd 0e68 8a3c 64dc 393c 522d a8be
00000260: f2a9 4e3d 6ac8 03be 2d32 c7bd b877 303c
00000270: 77ab cebc 4df2 c13d aaa3 9a3e 43d3 533e
00000280: 4fc5 423d 5327 1d3c b426 a23d 902a 2d3d
00000290: 60a5 993e ef69 b63e eaf4 e33c cce4 01bd
000002a0: f497 b8bc 2222 213e 3774 0cbd 37fb e1bd
000002b0: a2b3 53be 7f35 65bd f325 543c 5789 4dbc
000002c0: ec67 513d 702d 2b3d 83c7 48bc 82b2 1d3d
000002d0: fa31 bb3c a2f8 9e3c fd46 c4bd 1d31 9dbd
000002e0: b678 ddbd c22c d8bd 6809 1e3d a3db 7c3e
000002f0: e46f 0cbe 7e7d d93d cf0d ac3d 8dbd 1e3d
00000300: 2c14 b1bc 1c52 58be ae1a 0d3e efd8 883d
00000310: db75 cb3c 0f28 e9bd 4501 123d d91c 11bf
00000320: f871 293d 5486 223e 5e19 2d3d 0efd a2bb
00000330: d2cf 293d fb7b c2bd 2f01 2bbf a344 ac3e
00000340: 206d cebd 79a4 22bd f2ef 36bc 6fa8 a9bc
00000350: ac45 4abd af1e bfbd c275 e5bd 70ee 043d
00000360: 6240 893d 5dca ebbc 629c 90bd e876 40bd
00000370: 7ed4 823d 4412 65bd f0b9 7fbd a4f8 fb3e
00000380: 3342 963e ba09 263e a39d 353e 9e55 6abc
00000390: 5abd 813d 0d5b a2be 71e4 e1bd e46f d43d
000003a0: 74d1 febe f877 ae3d fa49 8d3d 5a38 813d
000003b0: 5db9 6b3d 1192 95bd 6a34 3ebe f2d3 2f3c
000003c0: 3206 f1bc ed49 a53c d46e 973c 8087 9a3c
000003d0: 7a49 903c 23bf 28bb ee73 943d 25b2 a2bc
000003e0: c19a 36bd 1798 f73c 572d 84bb 7d78 ad3c
000003f0: 6411 463d 485a 9c3c 686f 8b3d 96f1 52bd
-0.027331136 0.018443758 0.05912388 0.048114646 0.0392632 0.036563333 -0.06621813 -0.06370686
-0.065762274 -0.094614446 -0.07683925 0.05088058 -0.05444205 0.11815234 0.1801272 0.27688643
0.16068609 0.04728964 0.042159628 -0.124153 -0.46203014 -0.29928797 -0.101618715 -0.044527724
-0.020141283 0.13438472 0.20360126 0.13551712 0.13584025 0.04847106 -0.049492165 0.06924534
0.015315602 -0.08073908 -0.07083214 0.044621468 0.104001686 -0.016575558 0.051355768 0.1378804
-0.00534636 0.14016491 -0.012135962 -0.5678189 -0.43223172 -0.31558698 0.08436045 0.0827608
0.12331043 0.09992465 -0.49907246 -0.5653353 0.28326946 0.023224527 0.06187426 0.19831434
0.20890054 0.28763247 0.22443911 0.10090215 -0.016468843 0.20573448 0.28444397 0.30347136
0.2580214 0.0065488736 0.004853781 -0.01462313 -0.016162828 0.018469991 0.011872998 0.029463066
-0.016232336 0.058318585 -0.060620323 -0.08470373 -0.07516659 0.004580847 -0.02259863 -0.72638977
-0.060860097 -0.06273852 -0.055690058 -0.08868798 -0.096030995 -0.14253242 0.017157488 -0.095149115
0.2968589 -0.05291091 -0.08356635 -0.51985306 0.03942905 -0.051985167 -0.07762294 -0.10503614
0.04121057 -0.60014665 -0.0685944 -0.041602444 0.09218234 -0.09720477 -0.09576023 -0.04563369
-0.04196472 -0.083642244 -0.0040829196 -0.0047647916 0.09618804 0.036147464 0.022520632 -0.02708998
0.068624415 0.081468634 0.0020468729 -0.07707346 -0.010786579 -0.12581465 0.11014124 0.095410615
0.09394046 -0.06800653 0.10720816 -0.18114583 0.11281543 0.073409416 -0.035506915 -0.10371853
-0.52340585 0.11492786 -0.021605434 0.023560692 0.028546214 -0.41974378 0.29917586 0.219466
-0.053629402 -0.06197301 0.017396081 -0.015168448 -0.053883903 0.09682503 0.09692101 0.013063929
0.09218948 -0.023860473 0.072876744 -0.064724565 -0.048867654 0.01689532 0.011344049 -0.32847077
0.05045504 -0.1286942 -0.09726367 0.010770731 -0.025228245 0.09470043 0.3020299 0.20686059
0.04755145 0.009591895 0.07917538 0.04227692 0.30008984 0.35627696 0.027826745 -0.03171234
-0.022533394 0.15735677 -0.03429052 -0.110342436 -0.20673993 -0.05595922 0.012948501 -0.012544951
0.0511245 0.04179138 -0.012254599 0.038500316 0.02285098 0.019405667 -0.095838524 -0.07675383
-0.108140394 -0.10555412 0.03858319 0.2469316 -0.13714558 0.10619639 0.08401071 0.03875499
-0.021616064 -0.21125072 0.13779709 0.06682002 0.024836471 -0.11384594 0.035645742 -0.56684643
0.041368455 0.15871555 0.04226052 -0.004974014 0.04145796 -0.09496304 -0.6679868 0.33646116
-0.10079408 -0.039707635 -0.011165606 -0.020710198 -0.04938285 -0.09332024 -0.11204101 0.032453954
0.06701733 -0.028783018 -0.07061078 -0.046988398 0.06388186 -0.055925623 -0.062433183 0.49213135
0.2934738 0.16214648 0.17735915 -0.014302639 0.06334944 -0.3171009 -0.110299 0.10372904
-0.49769175 0.08518976 0.068988755 0.06309576 0.057549823 -0.073032506 -0.18574682 0.010731684
-0.0294219 0.020176852 0.018485464 0.01886344 0.017613161 -0.0025748692 0.07248674 -0.019860337
-0.04458118 0.03022389 -0.0040337252 0.021175617 0.04835643 0.019086018 0.068083584 -0.051499926

layer1.bias f4 [128]
00000000: 724d 37bd 6212 8eb9 f5f4 63bd 3fee c5bc
00000010: 5fad 293d 25de 22bd 1173 b2bc 3b6a 9b3d
00000020: 374a a5bd f58a ffbc b55f 953c 1bd9 523c
00000030: c19e 20bc cab3 e13a 7f2e 3e3b d65e bcbd
00000040: ac62 3a39 257e 9ebc 9789 153d 73a6 0f3d
00000050: aa27 303d ab94 d83c 1e66 843d 9934 33bd
00000060: 086c 9ebd a871 a43d 8711 55bd 172e b9bb
00000070: f469 94bd 65ac 1a3d ffa1 84bd c807 453b
00000080: 1070 1c3b 8d94 de3a 5ef2 a8bc 4ed5 96bd
00000090: f79c cdbd 3fa3 8b3d 872d f93c fae3 703d
000000a0: d795 02be 8f21 19bd ae88 4c3d 3e66 e23d
000000b0: 456f 903d 95a3 5b3d 3c7b 97ba 0462 84bd
000000c0: 50e6 f2bc 30fa b63c ff86 8dbc 1910 afbd
000000d0: 29a0 903d 0fd7 4cbd 4dab 37bd 3654 02bd
000000e0: 2420 123d 6207 663d 2bbc a63d e8c7 953a
000000f0: b263 803d 6206 c4bc 1a9c 0dbd b309 b8bd
00000100: 4ba6 bc3c 3deb 2a3d f1c2 86bd ea93 28be
00000110: 216c a5bd c72f 443b dfd4 c8bc 0317 f53c
00000120: 3ab9 b8bd 87f4 a2bd a499 9a39 2475 36bd
00000130: d880 ccbb d1a1 8e3d 18ee ec3c eab3 153d
00000140: ce66 483d 96f4 67bc d5c5 8bba b905 6dbd
00000150: c7fd 9e3d 262b 22bd b662 d43a 8cea bdbc
00000160: 1c2e ae3d 40fd 6e3c 31b9 d2bc 880c 143d
00000170: 9cac 86bb 828b c1bb 5be9 da3b 5353 1f3d
00000180: 4d79 9ebd f84a d3bc 1f46 01bd 8d27 8c3c
00000190: f590 083c 0fcb 2cbd 680e 94bd df46 73bc
000001a0: 0c32 303d 7a6b fbbc 09ac 38bc 5387 34bb
000001b0: dcaa d23c e5d3 73bd d19c 493d f54e b63d
000001c0: c144 2ebd 6c81 643d eccf 8e3d 73bb 283c
000001d0: 5cd0 92bd 7c53 403d 9f47 25bd 6027 6bbc
000001e0: 9b37 803b a3e7 2d3c 0484 9b3d a4cf 44bd
000001f0: 0c81 30bd 19e5 2ebd 6165 5b3d eec4 a53c
-0.044751592 -0.00027098047 -0.05565353 -0.024161456 0.041425105 -0.039762635 -0.021783384 0.07588621
-0.08070796 -0.03119419 0.018234113 0.012869145 -0.009803475 0.0017219719 0.0029019413 -0.09197776
0.000177751 -0.01934726 0.03650817 0.035070848 0.043006577 0.026438078 0.0646479 -0.043751333
-0.07735449 0.08029491 -0.05201867 -0.0056512463 -0.072467715 0.037762064 -0.06476211 0.0030064452
0.0023870505 0.0016981527 -0.020623382 -0.073649034 -0.10039704 0.06818246 0.030417217 0.058811165
-0.12752472 -0.03738552 0.049935035 0.110546574 0.07052473 0.0536228 -0.0011557112 -0.064640075
-0.029650837 0.022336096 -0.017276285 -0.08547992 0.07061798 -0.050009783 -0.0448411 -0.03181859
0.035675183 0.056159385 0.08141359 0.0011427375 0.06269015 -0.023928825 -0.0345727 -0.08986225
0.023028513 0.041728247 -0.06580151 -0.16462675 -0.080772646 0.0029935704 -0.024515567 0.0299182
-0.09019704 -0.07956796 0.0002948764 -0.044545308 -0.0062409453 0.06964458 0.028922126 0.036548533
0.048926167 -0.014157435 -0.0010663817 -0.057866786 0.07763248 -0.03959193 0.0016203735 -0.02318313
0.085048884 0.014586747 -0.025723072 0.036144763 -0.004109932 -0.005906523 0.00668065 0.038897824
-0.0773798 -0.025792584 -0.031561013 0.017108703 0.008335342 -0.04218584 -0.0722931 -0.01484844
0.04301648 -0.030690897 -0.011271485 -0.002754648 0.025716238 -0.05952825 0.049221817 0.089017786
-0.042546038 0.05578749 0.06973252 0.010298598 -0.07168648 0.046954617 -0.040351506 -0.014352649
0.0039128787 0.0106143085 0.07593539 -0.048049584 -0.04309182 -0.042698953 0.05356348 0.020235505

layer2.weight f4 [64, 128]
00000000: 5689 d7bd d116 843d 91ff 9e3c 6be1 073e
00000010: e615 d2bc ca8a 293d 738c b63d 9c23 123e
00000020: 85ec d13d 9b4d 343c f4ac f33d 5cf9 283c
00000030: 59f5 863d 71de de3d 9684 013e 119b 023e
00000040: f638 5d3e 0796 c73d 3a71 073e 3560 103e
00000050: bd42 c9bd b578 2e3e a03b 70bd 7516 8cbe
00000060: 8f30 a3bd 826e 163e f25c d0bc 46ce ba3c
00000070: d37c 97bd c52f 83be 44ab 77bc 7df9 843b
00000080: fcdf 9c3d 0c8e 863d 7ccc 0c3c 7a6b 0e3e
00000090: 6a20 073d 0f99 823e 4767 37be a710 663d
000000a0: 5ca3 a1bd d17c 0ebe 5a3b dd3d 06af 2e3e
000000b0: 7fd6 2f3d 6788 4bbb cfec abbe fd53 bb3c
000000c0: f728 aebe f74c 1e3e 986e 413d a0e2 c2bd
000000d0: 358f 883e 9f64 a7bd b179 91bd c35a b73b
000000e0: 6aec 9abe f981 3d3d adef 3a3e d893 afbd
000000f0: 4ad0 9b3c 5705 09bc df41 12bd a85e d83e
00000100: 61d8 823e 866c d9bd 1748 6d3e 7832 adbd
00000110: 1916 b8bc 0585 65bc bd0e 493e a32b f1bd
00000120: 7ed6 313d a006 f23c fc42 c73d 6c24 4bbc
00000130: c7b0 cc3c 7fd1 223e d20a 503e 57c7 24be
00000140: 1bbc 15be 98eb 133e 6767 be3c 4698 da3d
00000150: 070c 7a3d 5ca0 0d3d fd09 493e 09da 20be
00000160: 81bf 9cbe c802 a13d cae1 843d 7a8e 57bd
00000170: bedf be3d c585 873c 8bd0 883d 1bb5 023e
00000180: ee2a ff3d b965 fd3e 1b66 9e3c 115e ecbd
00000190: 3eb8 f9bc 542d a93d d56c 89be c794 80bd
000001a0: f934 073e 6093 363d 2b4c 6fbe fc63 25bd
000001b0: 58e5 243d e688 f73c dd0b 7ebd a575 19be
000001c0: 028c 8e3e b1ee 0d3f af95 093e ed42 723d
000001d0: 8952 6ebe 4141 cc3d f6c2 d93c 3ef1 7abe
000001e0: 1269 27be 66c1 15be ef29 243e e74d adbd
000001f0: 266a 90bd e605 1abd 3db2 b9bd e3cf 20be
00000200: dbf5 443e b4c4 9d3d 4ca4 06bd e641 3abd
00000210: b7c7 0a3e 98d3 b2be 91a3 0bbe 52a6 62bb
00000220: ca01 3b3e e996 383e da1c f63d a9a6 663d
00000230: 1166 5e3e 6134 0fbc c775 b6be 302b 033d
00000240: 7c97 96bd 306f 78be 745c 053e 9c16 f43c
00000250: 1960 3a3e 6b46 ffbd e387 3cbe d7a6 b63e
00000260: ac66 9e3e 1ded 533d 6d44 bcbb 1bfd 3dbe
00000270: 978b de3d de8b 593d 5eeb 723e e541 093b
00000280: 8e9b a5be 4719 99bd 6525 08be d33e 883d
00000290: 938b a13d c397 573c 8564 f1bd f2f7 533d
000002a0: a1b5 e3bd 62dd 40bd 9ed3 62bc e5b9 113e
000002b0: 6a05 8bbe fb7d ba3d 9cb3 5dbe 8d8f 74be
000002c0: d34b e7be 66ee 5b3e 726f c6bd b024 a53d
000002d0: 56b8 c0bd a3a3 a53d a480 563d 6332 27be
000002e0: 0564 eabd 233d a43d f0f3 823e f1a2 5abe
000002f0: c01a abbe a02d 38be a885 853e 183d 923e
00000300: 90a0 a43c cea7 84be 38df 9a3e 294e 42be
00000310: b046 363e e96a 4d3e c1bc a03e 49d0 abbd
00000320: 31ab 0bbc 618b a9bd 4637 6a3e d2cc 80be
00000330: 19fb 5bbd 9a33 e6bb 30e9 6a3c 2236 21be
00000340: f1e6 5cbd de7d cabd 1316 7ebc 19d4 a7bd
00000350: 6b27 c5bd df41 733e 1b7a d0bc 2f67 113e
00000360: cbdf 663d 5e9a d8bd 144f 4d3e 9e4c 65bb
00000370: 8f82 543d 2b5d 5b3e f6ba 693e 87d6 a6bc
00000380: 74f7 ef3d 699f 95bc ff83 d7bd dd10 77bd
00000390: 0786 26be a65f 7e3e f687 62be 1537 3d3d
000003a0: ba41 533d 1a4b 9cbd 9dea 103e 6c11 e1bd
000003b0: c441 e63c 7988 263e cd63 71bc e255 e6be
000003c0: 31d8 d23d 76d8 c53e 2998 4dbd 8c81 523e
000003d0: 61cb d3bc 16b7 1f3d 8aed 9abd 7b6d 253d
000003e0: d905 87bd 4273 28be ddcd a63e 81c8 3dbe
000003f0: 21e5 833e ac49 043e 2aa6 ef3d e7d8 0fbe
-0.105242416 0.064496644 0.019408973 0.13269584 -0.025645208 0.041392125 0.08913507 0.14271396
0.10250191 0.011004831 0.118982226 0.010313358 0.06589765 0.10882271 0.12648234 0.12754466
0.2160376 0.09745412 0.13226786 0.140992 -0.098271824 0.17038234 -0.058650613 -0.27360883
-0.07968246 0.14690593 -0.025434945 0.022803437 -0.07396855 -0.25622383 -0.0151165165 0.0040580616
0.07659909 0.06570062 0.008593675 0.13908187 0.032989897 0.255074 -0.17910491 0.056168225
-0.078924865 -0.13914801 0.10802336 0.17058954 0.04292917 -0.0031056644 -0.33579108 0.022867197
-0.3401563 0.15459047 0.04722461 -0.095158815 0.26671758 -0.08173489 -0.07103289 0.0055955364
-0.30258495 0.04626653 0.18255492 -0.08573121 0.019020218 -0.0083630895 -0.03570735 0.42259717
0.2555571 -0.10616402 0.23172031 -0.08456892 -0.022471474 -0.014008765 0.19634528 -0.11775901
0.043417446 0.029544175 0.09729573 -0.01239882 0.024986638 0.15900229 0.20316628 -0.16091667
-0.14622538 0.1444534 0.023242665 0.10673575 0.061046626 0.03457676 0.19632716 -0.15708174
-0.30614856 0.078618586 0.06488378 -0.05262611 0.09320019 0.016543278 0.066804014 0.12764399
0.1245936 0.4949167 0.019335797 -0.11541379 -0.030483361 0.08260599 -0.26840845 -0.06278377
0.13203801 0.04457414 -0.233689 -0.040378556 0.04025778 0.030216645 -0.062023032 -0.14986284
0.27841192 0.5544234 0.13436006 0.059145857 -0.23273672 0.09973384 0.026582222 -0.24506089
-0.16348675 -0.14624557 0.16031621 -0.08462124 -0.07051496 -0.03760328 -0.090671994 -0.15704302
0.19234411 0.07703534 -0.03287153 -0.045473002 0.13552748 -0.34927058 -0.13636614 -0.0034583998
0.18262401 0.18026318 0.12017222 0.056311283 0.21718623 -0.008740515 -0.35636732 0.03202361
-0.07353112 -0.24261165 0.1302355 0.029795937 0.18200721 -0.12464603 -0.18411212 0.35674164
0.30937707 0.0517398 -0.0057454617 -0.18553583 0.108664684 0.053111903 0.23722598 0.0020943817
-0.3234524 -0.074755244 -0.13295515 0.06652608 0.0788795 0.013158741 -0.11786751 0.05175013
-0.11118627 -0.047086127 -0.013844399 0.1423107 -0.27152568 0.0910606 -0.21650547 -0.23882885
-0.45175037 0.2147766 -0.09689225 0.08063638 -0.09410159 0.08087852 0.052368775 -0.16327815
-0.114448585 0.080194734 0.25576735 -0.2135122 -0.33418846 -0.17986155 0.26078534 0.28562236
0.020096093 -0.25909275 0.30248427 -0.18975128 0.17800403 0.20060314 0.31394008 -0.083893366
-0.008524702 -0.082785375 0.22872648 -0.25156265 -0.053706262 -0.0070251944 0.014337823 -0.15743306
-0.05393118 -0.098872885 -0.015508193 -0.08194751 -0.09626659 0.23755597 -0.02544885 0.14199518
0.05636577 -0.10576318 0.20049697 -0.0034988294 0.051882323 0.2142226 0.22825226 -0.020365966
0.1171712 -0.01826449 -0.10523223 -0.060318816 -0.16262065 0.24841174 -0.22122177 0.04619511
0.051576354 -0.07631512 0.14151998 -0.10989651 0.028107531 0.16262998 -0.014733267 -0.44987398
0.102951415 0.3864171 -0.05019394 0.2055723 -0.025853815 0.038992964 -0.07564838 0.04038761
-0.06592912 -0.16450217 0.32578936 -0.18533517 0.2576075 0.12918729 0.11701615 -0.14047585

layer2.bias f4 [64]
00000000: b522 69bd cc57 223d dca5 81bc b68c 0d3c
00000010: 20fa 043d 7b39 86bd faa3 82bd 1576 9ebc
00000020: 93e1 6ab9 8cef 39bc e734 553c 83cb 0fbd
00000030: a836 073e 4f74 143e 27ef 123c d97c 103d
00000040: b036 c8bc a908 93bc 202a 9fbc 3901 d33c
00000050: adc0 be3d 360c cdbc 323f e63d c950 0c3d
00000060: 4c02 033c 9f1b 213a 2e15 b43c 22bb ebbc
00000070: 6a64 b43b 3c58 763c a867 a63c 7557 2e3d
00000080: 1c37 3a3b 4008 513c 23ff 3c3d 67ae bb3c
00000090: d70e 2b3e 0b46 223d e1bd 423d 5b99 5239
000000a0: 498c ca3d 1551 fa3c c2f3 d8bb 6445 123d
000000b0: 2486 39bd b373 b9bc 9d11 013e a48f eabc
000000c0: a2b7 03bc 0da6 593e 1d93 b33c 80d1 9cbc
000000d0: 5141 e03b ef17 1abd c67a bf3b 6b74 6c3c
000000e0: c737 4abc 5547 bb3d 3044 833c f96e 32bc
000000f0: 7e35 38bd 091c 063e 105f 503c fbba 183d
-0.056917865 0.03963451 -0.015826158 0.008639505 0.0324651 -0.06553932 -0.06378932 -0.019343415
-0.00022400012 -0.011348616 0.013013101 -0.035106193 0.13204443 0.14497493 0.008968151 0.035275314
-0.02444014 -0.017948465 -0.019429266 0.025757419 0.09314094 -0.025030237 0.11242522 0.03425673
0.007996153 0.00061457785 0.021982756 -0.028775755 0.0055051344 0.015035685 0.020313099 0.042563874
0.0028414195 0.012758315 0.046141755 0.02291031 0.1670488 0.03961758 0.047544364 0.0002008429
0.098900385 0.030556241 -0.006620855 0.035710707 -0.045293942 -0.022638177 0.12604375 -0.028632946
-0.008039387 0.2125475 0.021920735 -0.019142866 0.006843724 -0.03762048 0.005843493 0.014432053
-0.0123424 0.09144465 0.016023725 -0.010890716 -0.04497289 0.13096632 0.012717977 0.037287693

layer3.weight f4 [4, 64]
00000000: ef93 3ebe 5f86 4dbf 37ef bd3b c559 d33e
00000010: 20fa 98be d74f 24bf 958c 1bbe 2299 123e
00000020: 7c5c 743f 2e66 123c 988e 00bf 286b 5fbe
00000030: a490 b93e 303b 283f 9e54 09be 533a 5f3e
00000040: 248d ef3e dcb4 e23e bb41 18bf 127e 24bd
00000050: 6433 843f b9f0 afbc 5e90 013f 307b 233d
00000060: 58c2 f03e cf8e 243d c284 733d 0f5a e73c
00000070: 7f97 24be 9209 c43e 010f aebe 43b0 35be
00000080: 6e4a 4d3e 08a5 bdbe c740 0bbf 281c 3abf
00000090: ca7e f13e 1ed3 d63e bea4 103f cbba 4e3d
000000a0: 9efe 6bbe 0837 e3be 5b96 033f 6aba 483f
000000b0: e2ac 5ebf c4cc 633f 4142 c63e eef1 943e
000000c0: 589e ddbe ea98 d83d baed a23e ae59 10bf
000000d0: 3901 073e 3718 b73c 20d4 34bf f7c8 ef3d
000000e0: 901b 8ebe b7a7 2b39 f88c 7ebe 1637 cfbd
000000f0: f238 24be 4ada d63e 4f31 423f d127 7dbe
00000100: ced4 77be d0c3 2d3e b5a3 2abf d772 edbe
00000110: e609 51bd 7729 20bf c23e 6fbf 7db8 b5be
00000120: c368 263f d5da 0abf 07b5 1bbd d840 a33d
00000130: d3d9 ae3e c282 fe3e f248 fdbd a7d9 0cbf
00000140: f31d 333e 5b91 d83e 79da dabe a0b1 f43e
00000150: 1153 a33e 5b3b 51bf 5b3e ae3e 13c8 8bbf
00000160: 91b0 983d bfd9 f1bd 543b 573e 8260 903b
00000170: 2b74 4ebe ac62 d03e f63d 1e3f e3f5 8abe
00000180: 9ac9 173c a81e 3bbe bc94 e6be a99b f5be
00000190: 7ff3 94bb dbab b93e 4e97 f7bd 36a0 103d
000001a0: 97b0 cd3e 9e3d 1fbf 7b41 2c3f b1ab 703f
000001b0: 885f b0be 540e 03be 0a9c 093f f175 a23e
000001c0: b8aa 23be 898c b73e f372 413f f9eb fabd
000001d0: 33ad 993f 9470 fabc 98b1 fe3e 5208 4f3f
000001e0: 979c d6be 5283 063f 1666 6fbe 1cea f9bd
000001f0: 5456 4dbf 5319 103f 48a0 433d d480 853d
00000200: 57a1 09bc 643c 723e 87f5 5dbe 46f5 b9be
00000210: ade3 56be 523e 1dbf 4b3b 643c fb51 7d3f
00000220: c0a1 da3e da0b 28bf 43f8 b4bd 0f06 35be
00000230: 67e3 603f 311a 1c3f e205 373e e043 72be
00000240: 936a 36be 5aab 703d 4820 51bf b7a0 5c3f
00000250: bba1 aa3e 9f3a 4a3e 354a 2b3f 2b9f 4fbf
00000260: cd21 8f3e efea 6bbe 936f cd3e c5d0 89bc
00000270: 24fe 41be b599 cd3e 3c87 b7be 7402 75be
00000280: 6ace d43e 0609 9ebd c8f8 e2be 06d6 34be
00000290: 58ae 003f 5a72 56bf 8ece 84be b729 453c
000002a0: fc68 f93e 6934 25bf 48ed 1ebf 8b84 0abf
000002b0: 24ca 24bd 1c97 0b3f a2c3 9c3e a3e1 86bd
000002c0: b8d9 20be 1026 023f 93ef a4bc 7090 ed3d
000002d0: 6782 843f 21b2 13bc eac3 cfbe fcf2 803e
000002e0: 2db8 14bf 4863 e0be 00c7 b0be c300 11bf
000002f0: 4b95 9cbe 1dea 45be c493 93be b30c 073a
00000300: 0563 d8be 2086 4fbc 274e 303f 99fa 803e
00000310: f71f efbc a1be 04bf 3c95 0dbe c135 563f
00000320: 4fdf cb3e 1ddf 233e b692 903e e5e7 75be
00000330: d954 153e 1a18 b03e a420 3abf 6d53 01be
00000340: 76ce 793e d024 2cbf b0a9 58bf 65f5 e63e
00000350: c630 d23e 5e9d 62be 5b05 72be 0d67 30bd
00000360: 8148 793f 2afd 69be 12cb 5f3f 6cbd 47bc
00000370: a033 eabe 1f12 2bbf 9a7e c33e 7f4c d7be
00000380: 6511 633f 28ec 193d 6486 d3be a20a 84be
00000390: bdb3 d23e 0106 0dbe abf5 523f 77c2 0cbd
000003a0: dbe3 d23d e6fd 99bd 7666 04bd 0897 e43e
000003b0: 7455 dbbe 01cf bdbc 2b95 e63e d9b2 bdbe
000003c0: 5bf7 51be fea0 073f 1009 cdbd 4424 cf3e
000003d0: 4fd7 b33e 0144 a03c 8d20 cd3e 786c cbbd
000003e0: ca67 c3be 9926 a43e 18b9 c5be 7822 d8be
000003f0: 70d3 61be 1c1d e23e 872a 1f3e 5c8c 7fbe
-0.1861112 -0.8028316 0.005796339 0.41279426 -0.2987833 -0.64184326 -0.15190347 0.14316228
0.9545362 0.008935494 -0.5021758 -0.2181822 0.36243165 0.6571531 -0.13411185 0.21799593
0.4678737 0.4427861 -0.59475297 -0.040159293 1.0328183 -0.02147709 0.5061091 0.039912403
0.47023273 0.040175255 0.05945278 0.028241185 -0.16073416 0.38288552 -0.33995822 -0.1774302
0.20047924 -0.3703997 -0.5439572 -0.72699213 0.47167045 0.41957945 0.56501377 0.05047111
-0.23046347 -0.44377923 0.514013 0.78409445 -0.8698255 0.8898432 0.38722423 0.29090828
-0.4328487 0.10576041 0.31821996 -0.5638684 0.1318406 0.022350414 -0.7063618 0.11708253
-0.27755404 0.0001637031 -0.24858463 -0.10117929 -0.16037348 0.41963416 0.7585649 -0.2472222
-0.24202272 0.16969228 -0.6665605 -0.46376678 -0.05103483 -0.6256327 -0.93455136 -0.35492316
0.65003604 -0.5424016 -0.038014438 0.07971352 0.34150562 0.49709135 -0.12367429 -0.5501961
0.17491893 0.42298397 -0.42744806 0.47791767 0.31899312 -0.81731194 0.34031948 -1.0920433
0.07455552 -0.1180911 0.21018726 0.004406036 -0.20161502 0.4070028 0.61813295 -0.27140722
0.009264374 -0.18273413 -0.4503535 -0.47970322 -0.0045456286 0.36263928 -0.12089406 0.03530904
0.4017379 -0.62203395 0.67287415 0.9401198 -0.34447885 -0.12798434 0.5375372 0.31730607
-0.15983093 0.35849407 0.75566024 -0.122520395 1.2005981 -0.03057126 0.49744868 0.8087207
-0.41916344 0.5254413 -0.23378786 -0.12202856 -0.8020985 0.5628864 0.047760278 0.06518713
-0.008400283 0.2365585 -0.21675692 -0.3631994 -0.20985289 -0.6142322 0.013930152 0.9895322
0.4270153 -0.65643084 -0.08836415 -0.17678092 0.8784699 0.60977465 0.17873338 -0.23658705
-0.17814092 0.058757164 -0.8168988 0.8618273 0.33326516 0.19748925 0.66910106 -0.81102246
0.27955475 -0.23038839 0.40124187 -0.016823182 -0.18944603 0.40156332 -0.35845363 -0.23926717
0.4156373 -0.07716565 -0.4433043 -0.17659768 0.5026603 -0.83768237 -0.2593884 0.012033871
0.4871291 -0.64533097 -0.6208081 -0.54108495 -0.04023184 0.5452745 0.30618006 -0.065860055
-0.15708053 0.5083933 -0.02013377 0.11599815 1.0352296 -0.009014637 -0.40579158 0.25185382
-0.5809353 -0.43825746 -0.34526825 -0.5664179 -0.30582651 -0.19327588 -0.28823674 0.00051517336
-0.42263046 -0.012666255 0.6886925 0.2519119 -0.029190047 -0.51853377 -0.1382646 0.8367577
0.39818808 0.1600308 0.28236932 -0.24014242 0.14583148 0.34393388 -0.72706056 -0.1262948
0.24395165 -0.6724367 -0.8463392 0.45109096 0.41052836 -0.22130343 -0.23634855 -0.043067027
0.9737626 -0.2285048 0.87419236 -0.012191158 -0.45742512 -0.66824526 0.38182527 -0.4205055
0.88698417 0.03757873 -0.4131347 -0.25789362 0.41152754 -0.13771822 0.8240611 -0.034365144
0.10297366 -0.075191304 -0.032324277 0.44646478 -0.42838633 -0.023169996 0.4503568 -0.37050512
-0.20504515 0.5298003 -0.10011494 0.40457356 0.35125205 0.019563677 0.40063897 -0.09932798
-0.38165122 0.32060698 -0.38617778 -0.42213798 -0.22053313 0.44162834 0.15543567 -0.24955887

layer3.bias f4 [4]
00000000: 53b7 833d 2a8d 2f3d a92b ad3d a73a 7abc
0.06431451 0.042859234 0.08455593 -0.015272773
