state_dic_policy_net/test_v4.pth (torch, 54871 bytes, 6 tensors)

layer1.weight f4 [128, 36]
0	0xbcff4681	-0.031161549
1	0xbc84e2ae	-0.01622137
2	0xbd8b1cc2	-0.067925945
3	0x3e074cfb	0.1321296
4	0x3cbe2ee6	0.023215722
5	0xbd91d333	-0.07120361
6	0xbcf86a41	-0.030324103
7	0x3e04e60c	0.12978381
8	0x3e03b35c	0.12861389
9	0xbf144fb4	-0.5793412
10	0xbe6dab7b	-0.23209946
11	0xbdbd44ee	-0.09241663
12	0x3e087cd5	0.1332887
13	0xbda8de0b	-0.08245476
14	0xbd6fbfaa	-0.058532394
15	0xbe103959	-0.14084376
16	0x3e905272	0.281879
17	0xbd13bfc4	-0.036071554
18	0x3debdb52	0.115164414
19	0x3dc4d7da	0.09611483
20	0x3e055635	0.13021167
21	0x3db774c7	0.089578204
22	0xbe84dc96	-0.25949544
23	0x3d42d773	0.04756875
24	0x3dfdef8f	0.12399208
25	0x3e0174b1	0.1264217
26	0xbe4cffca	-0.20019451
27	0xbdc84ad6	-0.09779899
28	0x3edcf594	0.4315611
29	0x3d9afa58	0.075672805
30	0x3da3b6f7	0.07993882
31	0x3d969e48	0.073544085
32	0x3d2c0636	0.04199811
33	0x3dd8e88b	0.10591229
34	0x3e06cc70	0.13163924
35	0xbdcb81e1	-0.09936882
36	0x3dd77c3d	0.105217434
37	0xbcc5b118	-0.024132296
38	0xbe078111	-0.13232829
39	0xbd85355e	-0.065043196
40	0x3ae0f7e3	0.001716372
41	0xbdb24793	-0.08705058
42	0xbcac3381	-0.021020653
43	0x3df7c2a7	0.12097674
44	0xbe076f95	-0.13226159
45	0xbe7ee384	-0.24891478
46	0x3e76c2e2	0.2409778
47	0x3d471ebb	0.04861329
48	0xbba4e95b	-0.005032701
49	0x3d6284b8	0.05530235
50	0x3e00297d	0.12515827
51	0xbe95bb2c	-0.29244363
52	0x3e60d43f	0.21955965
53	0x3d58232f	0.05276793
54	0xbda856ff	-0.08219718
55	0x3df789b8	0.12086815
56	0xbeeda024	-0.4641124
57	0xbcccb250	-0.02498737
58	0x3e2a5616	0.16634402
59	0x3d577c1c	0.052608594
60	0xbdc32fff	-0.09530639
61	0xbcc2c246	-0.023774277
62	0xbedd07bd	-0.43169966
63	0x3e0d9f7b	0.13830368
64	0xbc5c77b2	-0.013456272
65	0x3db95e38	0.09051174
66	0xbdd408e9	-0.10353262
67	0x3dc1a28c	0.094548315
68	0x3d9c6865	0.07637099
69	0xbccbcfee	-0.024879422
70	0x3dc5125e	0.09622644
71	0xbd6b51f2	-0.057451196
72	0x3dc2af89	0.09506137
73	0x3b95cc01	0.0045714383
74	0x3c8cc99d	0.01718598
75	0x3bf77249	0.0075514656
76	0x3ce2214e	0.027603772
77	0x3dc8a230	0.0979656
78	0xbd961636	-0.07328455
79	0xbcedc0c6	-0.029022586
80	0xbd488c9f	-0.04896223
81	0x3dc13f11	0.09435857
82	0xbb30257a	-0.0026877807
83	0xbd150058	-0.03637728
84	0x3d6826e1	0.056677703
85	0x3ab6be14	0.0013942146
86	0x3d8ac87b	0.0677652
87	0xbdfd09ec	-0.12355408
88	0xbdba0397	-0.09082716
89	0x3d78b828	0.0607225
90	0x3d498927	0.049203064
91	0x3d436878	0.04770705
92	0x3dd30dd0	0.10305369
93	0x3d166ad1	0.03672296
94	0xbdd303a6	-0.1030343
95	0x3dd8a40a	0.10578163
96	0xbd5b1a69	-0.053491984
97	0xbde6e11d	-0.11273406
98	0x3d2e346c	0.042530462
99	0x3d0dbbbb	0.03460286
100	0xbc99dcd1	-0.018782051
101	0x3c81f0ce	0.015861895
102	0xbd16c979	-0.036813233
103	0x3c93d3c3	0.018045312
104	0x3dd79b17	0.10527628
105	0x3e0c1991	0.13681628
106	0x3d782160	0.060578704
107	0x3dac77f7	0.08421319
108	0x3d93d52a	0.07218392
109	0xbe03dc34	-0.1287697
110	0xbd30d74f	-0.043174084
111	0xbdf820e6	-0.1211565
112	0xbdb54655	-0.088513054
113	0x3c7f6203	0.015587333
114	0xbd096f60	-0.03355348
115	0x3de9819f	0.114016764
116	0x3e702d0d	0.23454686
117	0xbe58b5f1	-0.21163155
118	0x3d9d204a	0.07672174
119	0xbdbf9ca9	-0.093560524
120	0x3d6ad71b	0.057334047
121	0x3eebec46	0.460787
122	0xbdf298cc	-0.1184555
123	0xbe361f20	-0.17785311
124	0x3d1fdb82	0.0390277
125	0x3d3bc8d0	0.045845807
126	0xbb079575	-0.0020688449
127	0x3e58c249	0.21167864
128	0x3aef8d5b	0.001827638
129	0x3d644135	0.05572625
130	0xbd5d4cb7	-0.05402824
131	0x3ba854eb	0.005137076
132	0x3dd5c6c8	0.10438305
133	0xbe547a65	-0.20749815
134	0xbe4aed1c	-0.19817013
135	0xbd829f42	-0.06378032
136	0xbd825d24	-0.063654214
137	0xbc55bcb2	-0.013045477
138	0xb9f58784	-0.00046831009
139	0x3d74398e	0.0596252
140	0xbe0131a7	-0.12616597
141	0xbd160176	-0.036622487
142	0x3d9c0c97	0.07619589
143	0xbdfc37f8	-0.12315363
144	0x3d10a7ea	0.035316385
145	0x3dc63156	0.09677379
146	0xbce0f842	-0.027462129
147	0xbd917db7	-0.07104056
148	0xbc235541	-0.009969057
149	0xbd9bc090	-0.07605088
150	0xbde872b1	-0.11350001
151	0x3e14bd30	0.14525294
152	0xbec0a485	-0.37625518
153	0xbd6afaae	-0.057367973
154	0xbe9ed407	-0.3102114
155	0xbceb3e94	-0.028716363
156	0x3caa59ce	0.020794775
157	0x3e5a8fd3	0.21343927
158	0xbeb07284	-0.34462368
159	0x3d2b87b4	0.041877463
160	0x3e49bd56	0.19701132
161	0x3dfb8372	0.122809306
162	0xbddfdca6	-0.10930757
163	0xbe612b05	-0.21989067
164	0x3e5826fa	0.21108618
165	0xbe5bb1f4	-0.21454602
166	0xbe2f98dc	-0.17148155
167	0x3d95bcd2	0.07311405
168	0xbd28b971	-0.041192476
169	0xbc35df42	-0.011100592
170	0xbbf0a268	-0.007343579
171	0xbbd72eff	-0.0065668817
172	0xbc25c3a4	-0.010117445
173	0xbdfeb7eb	-0.12437423
174	0x3d641e3c	0.055692896
175	0x3d973443	0.07383015
176	0x3d3d93d5	0.04628356
177	0xbcbc1df8	-0.022963509
178	0x3d25f804	0.04051973
179	0xbdccfa63	-0.10008695
180	0xbd01666c	-0.031591818
181	0x3d38feeb	0.045164984
182	0xbcad815b	-0.021179846
183	0xbb4823dc	-0.0030538952
184	0xbd88514b	-0.066561304
185	0x3dbdafb5	0.09262029
186	0x3df717e9	0.120651074
187	0x3eb66f63	0.35631856
188	0x3e87897b	0.26472077
189	0x3e368aff	0.1782646
190	0x3d9361d6	0.07196395
191	0xbd328167	-0.04358044
192	0x3dd528fb	0.10408207
193	0xbe1266a3	-0.14296965
194	0xbd31452c	-0.043278858
195	0xbdf0aa34	-0.11751214
196	0xbeb05dea	-0.3444665
197	0x3cbe76d9	0.02325003
198	0x3d741dd8	0.059598774
199	0xbec62678	-0.38701224
200	0xbe70aaea	-0.23502699
201	0xbdf8785f	-0.12132334
202	0x3e1aece4	0.15129429
203	0x3dc9fc01	0.09862519
204	0xbd225e9d	-0.03964101
205	0x3dcf2fb7	0.10116523
206	0x3d932b40	0.07185984
207	0x3dd8d4ab	0.10587438
208	0x3e2d4438	0.16920555
209	0x3d9ca0e0	0.07647872
210	0x3dbe9e90	0.09307587
211	0x3dd02acb	0.10164412
212	0xbc133c1c	-0.008986499
213	0xbdb50c04	-0.088401824
214	0xbd4f2c2e	-0.050579242
215	0xbdea9091	-0.11453355
216	0xbc3c6bd4	-0.011500318
217	0xbe0f6b47	-0.14005767
218	0xbbba03d1	-0.0056767245
219	0x3dc506a1	0.09620405
220	0x3d2e7573	0.042592477
221	0xbdadc936	-0.084856436
222	0xbce74edc	-0.028235845
223	0x3e36a094	0.17834693
224	0xbecf89c2	-0.40534788
225	0x3b89cfc3	0.0042056753
226	0x3aa1a85c	0.00123335
227	0x3bd0f480	0.006376803
228	0xbe09530f	-0.1341059
229	0x3db036bd	0.086041905
230	0x3bd99e7f	0.0066412087
231	0x3d6ab541	0.057301763
232	0x3dd47afb	0.10375019
233	0x3dd505c4	0.1040149
234	0xbdea6d3d	-0.11446617
235	0x3ea12c7c	0.3147925
236	0xbe411b32	-0.1885803
237	0xbe8e3db5	-0.27781454
238	0x3d5605e8	0.052251726
239	0xbd332002	-0.043731697
240	0xbe16b9bd	-0.14719291
241	0x3e9b7f0e	0.30370373
242	0xbe9260f4	-0.28589594
243	0xbbc78e18	-0.006089937
244	0xbd93acb6	-0.07210676
245	0x3d29dc39	0.041469786
246	0xbe01bfdc	-0.12670845
247	0x3d6941d1	0.056947533
248	0x3dd0b1a0	0.10190129
249	0xbe0b712b	-0.13617389
250	0xbc3c22fc	-0.01148295
251	0xbac11ae9	-0.0014732751
252	0xbd230f4a	-0.039809503
253	0xba51d4ee	-0.0008004446
254	0x3d26fd0d	0.04076867
255	0x3d446d19	0.047955606

layer1.bias f4 [128]
0	0xbddc46e5	-0.107557096
1	0x3d4a1615	0.049337465
2	0xbdb5d50f	-0.08878528
3	0x3b4a0f5f	0.0030831916
4	0xbdd0b122	-0.101900354
5	0xbdd8ae1d	-0.105800845
6	0xbdc20c7c	-0.094750375
7	0x3d4e5946	0.050378107
8	0x3d8c8a3b	0.06862303
9	0x3d7b18a1	0.061302785
10	0x3c637042	0.013881745
11	0x3dc6ee6a	0.097134426
12	0xbb57289f	-0.0032830609
13	0x3e09f54b	0.13472478
14	0x3d676269	0.056490336
15	0x3d744dc8	0.05964449
16	0x3d32c4e3	0.043644797
17	0xbcea64a2	-0.028612439
18	0xbe148b6e	-0.14506313
19	0xbd26f646	-0.04076221
20	0x3d82a684	0.063794166
21	0xbbaa774f	-0.005202211
22	0xbd807695	-0.06272618
23	0x3d16e6a9	0.03684107
24	0xbdc8cd97	-0.09804838
25	0x3d958513	0.073007725
26	0xbce578a3	-0.028011626
27	0x3b92f2b6	0.0044845
28	0x3c41a1ac	0.011818331
29	0xba9dccf5	-0.0012039231
30	0xbdcfc5cd	-0.101451494
31	0x3bdc405e	0.0067215404
32	0x3d442d00	0.047894478
33	0x3e2335a2	0.15938428
34	0x3deea322	0.11652209
35	0x3da01986	0.07817368
36	0xbd73d0f3	-0.05952544
37	0xbb9b7df2	-0.0047452385
38	0x3dc4f018	0.09616107
39	0x3d11553f	0.035481688
40	0x3d0c6b0f	0.034281787
41	0x3d8cae7f	0.0686922
42	0x3d08d133	0.033402633
43	0xbd8e753b	-0.06955954
44	0xbc0b2ca2	-0.008494528
45	0x3d3a104d	0.045425702
46	0xbcfdece2	-0.030996744
47	0xbcd889b1	-0.026432844
48	0x3cbe6eb6	0.02324615
49	0x3ce0b5d9	0.027430462
50	0x3dcd92c3	0.10037758
51	0xbd3771f9	-0.044786427
52	0x3e1649d6	0.14676604
53	0x3abdd543	0.0014483113
54	0xbdad91e5	-0.08475093
55	0xbde8f2f9	-0.11374468
56	0x3dea25b4	0.114329726
57	0x3e0e42f9	0.13892736
58	0xbddba63f	-0.10725068
59	0x3dac520d	0.084140874
60	0x3d8f3093	0.06991687
61	0xbb212495	-0.0024588455
62	0xbe03cf63	-0.1287208
63	0x3b8108d5	0.0039378204
64	0xbdb55cfd	-0.08855627
65	0x3e129036	0.14312825
66	0x3d75ecd9	0.06004033
67	0xbdb81ac6	-0.08989482
68	0x3d85efd7	0.065398864
69	0x3bf549d8	0.0074856095
70	0xbd0ddd7b	-0.03463505
71	0xbdd05f50	-0.101744294
72	0xbdf59ed3	-0.11993184
73	0xbdf93b7d	-0.121695496
74	0x3d6f4903	0.05841924
75	0x3d56d5f6	0.052450143
76	0x3dafc4c4	0.08582452
77	0x3c81f4a9	0.015863733
78	0x3d7cb73d	0.061698187
79	0xbd9ac181	-0.07556439
80	0xbd0a9665	-0.033834834
81	0x3dc15f17	0.09441965
82	0xbdd8f33c	-0.10593268
83	0xbd289a90	-0.041163027
84	0x3dc3a5be	0.09553097
85	0x3cb11724	0.02161748
86	0x3de95ae4	0.11394289
87	0x3dadb55c	0.08481857
88	0x3bcef234	0.006315494
89	0xbd9426b5	-0.07233945
90	0x3c4eb4a6	0.012616312
91	0xbd95ce6c	-0.073147625
92	0xbdcb49c1	-0.09926177
93	0xbcc7e090	-0.024399072
94	0xbda8e189	-0.082461424
95	0x3d3735ae	0.044728927
96	0x3db802e9	0.0898493
97	0x3d4b08cb	0.049568933
98	0xbdd66e32	-0.10470237
99	0x3e2828a1	0.16421749
100	0xbc7b7e6d	-0.0153499665
101	0xbcdfdd5b	-0.02732723
102	0x3baf6fc4	0.0053538997
103	0xbdc76e54	-0.0973784
104	0xbdb4585e	-0.08805917
105	0x3cb6874c	0.022281311
106	0xbdd75b19	-0.105154224
107	0x3cef5188	0.029213682
108	0x3da9dcf2	0.08294095
109	0xbcb32468	-0.021867946
110	0x3d8fe33a	0.07025762
111	0xbd8df745	-0.069319285
112	0x3dbec04a	0.0931402
113	0xbbc0b4b7	-0.005880918
114	0xbd871304	-0.06595424
115	0x3dbd3899	0.09239311
116	0x3b196d2d	0.002341102
117	0x3d9a9341	0.07547618
118	0xbd3eb2fc	-0.04655741
119	0x3dfaf731	0.12254179
120	0xbdd2c6e9	-0.10291845
121	0x3deb1bdf	0.11479925
122	0xbca0166a	-0.019541938
123	0x3d8c8c23	0.068626665
124	0xbd9bb649	-0.076031275
125	0xbd22421f	-0.03961384
126	0xbcb0e593	-0.021593845
127	0xbd0e7b0a	-0.034785308

layer2.weight f4 [64, 128]
0	0xbe765552	-0.24055985
1	0xbdf90c73	-0.121605776
2	0xbd13c38d	-0.036075164
3	0xbe12ec56	-0.14347968
4	0x3d74df84	0.059783474
5	0xbe49dfb8	-0.19714248
6	0xbd588603	-0.05286218
7	0x3d4b7f86	0.049682163
8	0xbc8e25d0	-0.017352015
9	0x3d9e315f	0.077242605
10	0x3cbfc410	0.02340892
11	0xbdbc81ed	-0.09204469
12	0xbdadc1a2	-0.08484198
13	0xbe9e4364	-0.3091079
14	0x3e4ac486	0.1980153
15	0xbdd2b31e	-0.1028807
16	0x3dd7183a	0.10502668
17	0xbeeab218	-0.45839
18	0x3e0537ea	0.13009611
19	0x3dc41036	0.095734045
20	0xbd000fee	-0.03126519
21	0xbc40ca85	-0.011767034
22	0xbebfb962	-0.37446123
23	0x3d6c08f0	0.05762571
24	0xbdc01bed	-0.093803264
25	0xbe59c92e	-0.2126815
26	0x3d56a102	0.052399643
27	0x3df527a4	0.119704515
28	0x3bc39c12	0.0059695328
29	0x3d21cbcd	0.039501
30	0x3dd85131	0.10562361
31	0xbe867926	-0.26264304
32	0x3ea4576d	0.3209795
33	0x3e49ea9e	0.19718406
34	0x3e249747	0.16073333
35	0x3da60a70	0.081074595
36	0xbd729400	-0.059223175
37	0xbccef661	-0.025263967
38	0x3dfd4cb4	0.123681456
39	0xbef4a7bf	-0.4778423
40	0x3d609a28	0.054834515
41	0x3d0a6b84	0.03379394
42	0x3dbd9b19	0.09258098
43	0x3dd984dc	0.10621044
44	0xbe5bb74b	-0.2145664
45	0xbeb5bf85	-0.3549768
46	0x3e21097e	0.15726277
47	0xbd80c471	-0.06287468
48	0xbdaf8453	-0.08570161
49	0xbd89b527	-0.06724005
50	0x3e1641c7	0.1467353
51	0x3e2a37b3	0.1662281
52	0x3e4bbbe5	0.19895895
53	0x3dae296e	0.08503996
54	0x3c9027dd	0.017597133
55	0x3d993905	0.07481579
56	0x3e56a008	0.20959485
57	0x3bf0f366	0.007353234
58	0x3b04f850	0.0020289607
59	0xbead9f9e	-0.3391084
60	0x3d2c955f	0.04213464
61	0xbdf723c1	-0.120673664
62	0x3d021f97	0.031768408
63	0x3e5573f2	0.20845011
64	0xbd556375	-0.052096803
65	0x3dfdeebb	0.1239905
66	0xbe747cb2	-0.23875692
67	0x3ce08380	0.027406454
68	0xbd127773	-0.035758447
69	0x3d98b0cb	0.074555956
70	0xbdc22349	-0.09479386
71	0x3e861b0c	0.2619251
72	0x3ecb12d0	0.3966279
73	0x3c1f29ea	0.009714583
74	0xbe01e8a4	-0.12686402
75	0xbdab61e8	-0.083682835
76	0x3d8531e0	0.065036535
77	0xbcbca16c	-0.02302619
78	0x3d6be0ed	0.057587553
79	0xbd3b5088	-0.045731097
80	0xbc384688	-0.011247285
81	0x3d11054f	0.035405453
82	0xbcf2252f	-0.029558746
83	0xbcf283d8	-0.029603884
84	0xbe0f48f2	-0.1399267
85	0x3e158b6f	0.14603971
86	0xbe7df96a	-0.24802175
87	0xbdb82090	-0.08990586
88	0x3cdb0239	0.026734458
89	0xbe0d67a1	-0.13809063
90	0xba500aaf	-0.00079361623
91	0x3b50ef92	0.0031881076
92	0x3e28a61b	0.16469614
93	0x3dcadf5a	0.09905882
94	0x3e642a02	0.2228165
95	0x3d1f1b99	0.03884468
96	0x3cdf9523	0.027292794
97	0xbada03ab	-0.0016633173
98	0xbc305df6	-0.0107645895
99	0xbe2a2d53	-0.16618852
100	0xbeeca140	-0.46216774
101	0x3cc69873	0.024242615
102	0x3e3ec5dd	0.18630166
103	0x3d61c552	0.05511982
104	0xbc2d714b	-0.010586093
105	0xbd681498	-0.056660265
106	0xbe36adf3	-0.17839794
107	0x3d9ea82f	0.07746922
108	0xbc834c48	-0.016027585
109	0x3eac6d2d	0.33677045
110	0x3db65f6d	0.0890492
111	0xbdf70bd2	-0.120628014
112	0x3e12df9e	0.14343116
113	0x3e4d472d	0.20046683
114	0x3e068ff1	0.13140847
115	0x3cbeeee6	0.023307275
116	0xbe05549a	-0.13020554
117	0xbe40f293	-0.18842535
118	0xbe3c967f	-0.18416785
119	0x3e87190b	0.26386294
120	0x3e626f01	0.22112657
121	0x3d3a8252	0.04553444
122	0xbdbf4509	-0.09339339
123	0x3e3d7307	0.1850091
124	0xbed33a01	-0.4125519
125	0xbda147c4	-0.07875016
126	0xbcd8239b	-0.026384166
127	0xbe7e009c	-0.2480492
128	0x3df78733	0.12086334
129	0xbd2dd626	-0.042440556
130	0x3cc0289b	0.023456862
131	0xbe04066a	-0.12893072
132	0xbe34373e	-0.17599198
133	0x3e04c777	0.12966715
134	0xbc52ac8a	-0.012858519
135	0xbeb79876	-0.35858506
136	0xbe1e4736	-0.15456852
137	0xbe2d8091	-0.16943575
138	0xbd6b7ffe	-0.05749511
139	0xbe8d869f	-0.2764177
140	0x3e4b4fc0	0.19854641
141	0x3dd56e3d	0.10421417
142	0x3e31d0d4	0.17364818
143	0x3d83e13d	0.06439445
144	0xbd95b568	-0.07309991
145	0xbe2cbf17	-0.1686977
146	0x3d349cd9	0.044094894
147	0xbebe321a	-0.371476
148	0x3da09070	0.07840049
149	0x3d42846b	0.047489565
150	0x3e6e9cc4	0.23301989
151	0x3cb9ee1e	0.022696551
152	0xbcbf8371	-0.023378106
153	0xbe1f2ac9	-0.15543665
154	0xbe223b16	-0.15842852
155	0xbe0c6906	-0.13711938
156	0xbb75f7c4	-0.0037531713
157	0xbe05f957	-0.13083397
158	0xbe07d31b	-0.13264124
159	0x3e121160	0.1426444
160	0x3dcd44a4	0.10022858
161	0xbcb9d0ce	-0.022682574
162	0x3e2f77ee	0.17135593
163	0x3e1e3c98	0.15452802
164	0x3d5236ad	0.051321674
165	0x3e338dd0	0.17534566
166	0xbda23032	-0.07919349
167	0x3e4c4104	0.19946676
168	0xbdc3d410	-0.09561932
169	0xbe413ca2	-0.18870786
170	0x3e85e8c8	0.2615416
171	0x3dbbaee7	0.09164219
172	0x3ef5747a	0.47940427
173	0x3d1fe0f6	0.0390329
174	0x3e302736	0.17202458
175	0x3d87db35	0.06633607
176	0xbe823a3f	-0.25435063
177	0x3e4e6a34	0.20157701
178	0xbe2d4b45	-0.16923244
179	0x3edfe92b	0.4373258
180	0xbdfb1b94	-0.122611195
181	0x3db41455	0.087929405
182	0x3e1d28bf	0.15347575
183	0xbea86e41	-0.32896617
184	0x3da5347d	0.08066652
185	0x3e0a8a26	0.13529262
186	0xbebca317	-0.36843178
187	0x3d979baa	0.074027374
188	0x3e597965	0.21237715
189	0x3e8606d8	0.26177096
190	0x3e7143cb	0.23561017
191	0x3e251083	0.1611958
192	0x3e0421cc	0.12903517
193	0x3dcb53a9	0.09928066
194	0x3de322bc	0.110906094
195	0xbd9840b4	-0.07434216
196	0xbd24f0e8	-0.04026881
197	0xbe4dad45	-0.20085628
198	0x3e669bae	0.22520325
199	0xbd345550	-0.044026673
200	0x3e1e4760	0.15456915
201	0xbd2e3388	-0.042529613
202	0x3e8cf219	0.27528456
203	0xbde4f6a3	-0.11179855
204	0x3e9480fc	0.29004657
205	0x3c65da68	0.014029123
206	0x3da3a238	0.07989925
207	0xbdc74910	-0.097307324
208	0xbd556e2c	-0.05210702
209	0x3ca014ec	0.019541226
210	0x3c6dd7c7	0.014516777
211	0x3e461d96	0.19347224
212	0x3d3a9e20	0.045560956
213	0xbdd7dbb9	-0.10539956
214	0xbdc3cdfd	-0.095607735
215	0xbd862276	-0.06549542
216	0x3d64aa89	0.055826697
217	0x3e2f8c09	0.17143263
218	0xbc9fd77b	-0.019511929
219	0xbdb0c5da	-0.08631487
220	0x3ddd0c28	0.10793334
221	0xbe7a2dae	-0.24431488
222	0x3b69cab2	0.0035673794
223	0x3b69a28a	0.003564986
224	0x3dc80e24	0.09768322
225	0x3e958c8e	0.29208797
226	0xbda5e7e9	-0.08100874
227	0x3df1e578	0.11811346
228	0xbd87e24e	-0.06634961
229	0x3e58c110	0.21167397
230	0xbe6703dc	-0.22560066
231	0x3cfcfbec	0.030881844
232	0x3dad292c	0.084551185
233	0xbe42264a	-0.18959919
234	0xbe92859c	-0.2861756
235	0x3de16b55	0.110068
236	0x3d69609d	0.056976903
237	0xbf19584c	-0.59900355
238	0xbd88318c	-0.06650075
239	0x3de56fea	0.112029865
240	0xbda91a6c	-0.08256993
241	0xbf23f6a1	-0.640482
242	0xbe8af67b	-0.27141175
243	0x3d94e56f	0.072703235
244	0xbdc80391	-0.09766305
245	0x3e6c325c	0.23066086
246	0x3dbc6737	0.09199374
247	0x3c67dce7	0.014151788
248	0x3e0d868a	0.13820854
249	0xbe109364	-0.14118725
250	0x3e359596	0.17732844
251	0x3cd5129b	0.026009848
252	0x3e72daa6	0.2371622
253	0xbd8cca3f	-0.06874513
254	0x3e67d4c6	0.2263976
255	0x3e3bab12	0.18326977

layer2.bias f4 [64]
0	0x3d6de38c	0.058078334
1	0x3c6bed02	0.014399769
2	0xbc3930ba	-0.011303121
3	0x3d55c14a	0.052186288
4	0x3dd8bad3	0.10582509
5	0x392ce9c6	0.00016490286
6	0xbbada370	-0.0052990243
7	0xbd6ddc04	-0.05807115
8	0xbd14530f	-0.036212023
9	0x3d9e54d4	0.077310234
10	0xbcb15deb	-0.021651229
11	0x3d68561d	0.05672275
12	0xbd77640e	-0.060398154
13	0xbc4d96e8	-0.012548186
14	0x3d1232b9	0.035692904
15	0x3d6d767a	0.057974316
16	0x3d6f1972	0.058373876
17	0xbd1550ac	-0.036453888
18	0x3d0a3a83	0.033747207
19	0x3e3c6ad5	0.18400128
20	0x3d2113f5	0.039325673
21	0x3df4dc6f	0.11956107
22	0x3d4529c0	0.04813552
23	0x3d3c118e	0.04591518
24	0x3d8b5581	0.06803418
25	0x3d35c265	0.044374842
26	0xbbea7d20	-0.0071560293
27	0x3dcf9209	0.10135276
28	0xbd95dea8	-0.07317859
29	0x3c433599	0.011914634
30	0x3dcc42de	0.099736914
31	0xbcce5fe6	-0.025192212
32	0xbd0ffaac	-0.03515117
33	0x3cfc0dca	0.030768294
34	0x3cac89a2	0.021061722
35	0x3d183795	0.037162382
36	0xbd26fc6c	-0.040768072
37	0x3d460590	0.04834515
38	0x3d96e7af	0.07368409
39	0x3d47a2b3	0.048739146
40	0xba3b469a	-0.00071440043
41	0x3d9eab9f	0.07747578
42	0x3d97d4b8	0.0741362
43	0x3d95de96	0.073178455
44	0x3ba3757b	0.00498837
45	0xbdaa07d3	-0.083022736
46	0x3d955990	0.07292473
47	0x3cf71a9e	0.03016406
48	0xbbcb5527	-0.0062052193
49	0x3c4eb6b4	0.012616802
50	0x3cd020fa	0.02540635
51	0x3d437a1d	0.04772388
52	0x3d6c34b7	0.05766746
53	0x3d38c9fb	0.0451145
54	0xbd14a21e	-0.03628742
55	0x3d1b57f6	0.037925683
56	0x3d441dc4	0.04787995
57	0x3d5522d3	0.052035164
58	0x3cb49f29	0.02204855
59	0x3d80f4a2	0.0629666
60	0x3c32f04f	0.010921552
61	0xbd8fa4c8	-0.070138514
62	0x3d98736d	0.07443891
63	0xbcaf92bb	-0.021432271

layer3.weight f4 [4, 64]
0	0x3ece2a01	0.4026642
1	0x3e96dd6c	0.29465806
2	0x3da704ae	0.081551895
3	0xbe195cc1	-0.14976789
4	0x3eb21e56	0.3478877
5	0xbed67d54	-0.41892493
6	0xbd9e2667	-0.077221684
7	0x3ebdaa5c	0.37044036
8	0x3eda3251	0.42616513
9	0xbe62674e	-0.2210972
10	0x3e82823e	0.25489992
11	0x3c2d454d	0.010575605
12	0xbc2afbdd	-0.010436025
13	0x3d807835	0.06272928
14	0xbcc6a475	-0.024248341
15	0x3eedf1c6	0.4647352
16	0x3f33ddb1	0.7026015
17	0x3de03034	0.10946694
18	0x3ee192eb	0.44057402
19	0x3e88dfc7	0.2673323
20	0x3eb8358b	0.3597835
21	0x3d62cd7f	0.055371758
22	0xbe6ae649	-0.2293941
23	0xbe99cddb	-0.30039868
24	0x3bc233b4	0.0059265736
25	0xbf132ef1	-0.574935
26	0xbe9475ba	-0.28996068
27	0x3e50ff5a	0.20409909
28	0x3c7012eb	0.014652948
29	0x3e37b1d8	0.17938936
30	0x3dec7e7e	0.11547564
31	0x3f0e846c	0.5567081
32	0xbeb0a99a	-0.34504396
33	0x3d03bb8a	0.032161273
34	0xbebdae38	-0.3704698
35	0xbea2e013	-0.3181158
36	0xbc823df6	-0.015898686
37	0x3cc63a94	0.024197854
38	0x3e205c06	0.15660104
39	0xbe83c41f	-0.25735566
40	0x3e2833ed	0.16426058
41	0x3db21402	0.086952224
42	0x3e201cdf	0.15636013
43	0x3ed5b027	0.41735956
44	0xbe5b9ed6	-0.2144731
45	0xbe4f2b3e	-0.2023134
46	0x3e09255e	0.1339316
47	0x3d237984	0.03991081
48	0x3df28675	0.11842052
49	0xbe2c9c67	-0.16856538
50	0xbe62c1e1	-0.22144271
51	0x3e57d1f4	0.21076185
52	0x3d95ca8c	0.073140234
53	0x3f3be910	0.734025
54	0xbe9fbdac	-0.31199396
55	0x3f2d5c41	0.67718893
56	0xbd885e5d	-0.06658623
57	0x3dd3ef77	0.10348409
58	0x3d41162b	0.04714028
59	0x3d82ee93	0.06393161
60	0xbe004eae	-0.12530014
61	0xbd846c93	-0.064660214
62	0xbd6d4838	-0.0579302
63	0xbeccfb29	-0.4003537
64	0xbef4cd58	-0.47812915
65	0x3e3171fd	0.1732864
66	0xbb7b6fbe	-0.0038366164
67	0xbedbfffa	-0.42968732
68	0x3e25c827	0.16189633
69	0xbdd955ee	-0.10612093
70	0x3da06f9f	0.0783379
71	0x3ebd6c00	0.3699646
72	0xbea5e92c	-0.3240446
73	0xbe2ca747	-0.16860686
74	0x3ee9f642	0.45695692
75	0x3d0e8edb	0.034804206
76	0xbc57faf0	-0.013182387
77	0x3dbe6e80	0.0929842
78	0x3db7d5d2	0.0897633
79	0x3e9f9763	0.31170186
80	0xbbfbca17	-0.007684003
81	0xbe225a9d	-0.15854879
82	0xbed43c2c	-0.41452157
83	0x3ecef275	0.40419355
84	0x3ee8ccb5	0.4546868
85	0x3f1232ab	0.57108563
86	0x3e4c7ed0	0.1997025
87	0xbda2edd9	-0.07955522
88	0xbe52d9bd	-0.20590873
89	0xbdafb5cf	-0.08579599
90	0x3d8e3b7e	0.06944941
91	0x3eded6fd	0.43523398
92	0x3d621ffe	0.05520629
93	0x3e2059e7	0.15659295
94	0xbf3d3a68	-0.73917246
95	0xbec5600c	-0.3854984
96	0xbe077014	-0.13226348
97	0x3e885bb9	0.2663248
98	0xbebde86f	-0.37091395
99	0xbe82c5c7	-0.25541517
100	0x3d13d491	0.03609139
101	0x3f3655a5	0.71224433
102	0xbe49c202	-0.19702914
103	0xbeb9b7e4	-0.3627311
104	0xbf0c28bc	-0.54749656
105	0xbe17e520	-0.14833498
106	0x3e521fb0	0.205199
107	0xbea1236e	-0.31472343
108	0xbe54a947	-0.20767699
109	0xbe58a472	-0.21156481
110	0x3f19741b	0.5994279
111	0x3ccdcdc7	0.025122536
112	0xbe2d7d94	-0.16942436
113	0x3e3c72e5	0.18403204
114	0xbe249c18	-0.1607517
115	0xbd5c2db7	-0.053754535
116	0x3d94875c	0.0725238
117	0xbc9a9cbf	-0.01887357
118	0xbe44c69f	-0.19216393
119	0xbe6a7f72	-0.22900179
120	0xbe99bac3	-0.300253
121	0x3ec6af1b	0.3880547
122	0x3d95ea0d	0.07320032
123	0xbdf8afd5	-0.12142912
124	0xbf0b232b	-0.5435054
125	0xbe0bd363	-0.13654856
126	0xbf00ff77	-0.5038981
127	0xbdd21ea0	-0.102597475
128	0xbe85ff94	-0.26171553
129	0xbf27679f	-0.6539249
130	0x3c7e45ba	0.015519554
131	0xbeb23c01	-0.34811404
132	0xbf132bec	-0.57488894
133	0xbd26f42c	-0.040760204
134	0x3d9e24ec	0.07721886
135	0xbef9cd12	-0.4878927
136	0x3e878047	0.26465055
137	0xbdfb3312	-0.122656
138	0x3dbe79e6	0.09300594
139	0x3c65c8f4	0.014024962
140	0x3d7c485b	0.06159244
141	0xbe5b0a7d	-0.2139072
142	0xbcbf958b	-0.023386737
143	0xbf1e6e3f	-0.6188697
144	0xbf30d444	-0.6907389
145	0x3e633535	0.22188266
146	0xbf193519	-0.59846646
147	0x3e78017b	0.24219315
148	0xbe9aa404	-0.3020326
149	0x3e842b2a	0.25814182
150	0xbe06ab7e	-0.13151357
151	0xbdbfb482	-0.09360601
152	0x3e92e776	0.28692216
153	0xbed5a068	-0.41723943
154	0xbe0114f3	-0.12605648
155	0xbe742289	-0.23841299
156	0x3d068290	0.032839358
157	0xbf01ffc5	-0.507809
158	0x3e961b6c	0.29317796
159	0x3e4b4b65	0.1985298
160	0xbeda2a6d	-0.42610493
161	0x3d8a5f98	0.06756514
162	0xbef1dc64	-0.47238457
163	0xbe763dca	-0.24047008
164	0x3d713471	0.058887903
165	0x3eaca5de	0.33720297
166	0x3f0896ee	0.533553
167	0xbdc82c29	-0.09774048
168	0xbea43727	-0.32073328
169	0xbddc196c	-0.10747036
170	0x3e80457a	0.25053006
171	0xbea6e75a	-0.32598382
172	0xbd98a216	-0.074527904
173	0x3d50cbf5	0.05097576
174	0x3edeb198	0.43494868
175	0xbcadc882	-0.021213774
176	0xbeb8759a	-0.36027223
177	0x3e493e83	0.19652753
178	0x3c59a86e	0.013284786
179	0x3e57572f	0.21029352
180	0x3dbb7dab	0.09154829
181	0x3e400ab3	0.18754081
182	0x3f71c900	0.94447327
183	0xbe0cd489	-0.1375295
184	0x3ea128ec	0.31476533
185	0x3dcee2d1	0.101018555
186	0x3dbf486b	0.093399845
187	0x3e94a368	0.2903092
188	0xbe221b1d	-0.15830655
189	0xbe351786	-0.17684755
190	0x3da2d07e	0.07949923
191	0xbe15a0a3	-0.1461206
192	0x3ef2c1d5	0.47413507
193	0xbd88dec5	-0.06683115
194	0xbddd3887	-0.10801797
195	0x3dd0f1f5	0.102024
196	0x3efda008	0.49536157
197	0x3db63ad6	0.08897941
198	0x3d04f7b7	0.0324628
199	0xbe968968	-0.29401708
200	0xbd0b620c	-0.03402905
201	0xbe5dab91	-0.21647479
202	0xbf1f474e	-0.6221818
203	0x3db346ff	0.08753776
204	0x3d85ae83	0.06527426
205	0xbf03d8b1	-0.5150252
206	0x3c1024b9	0.008797818
207	0xbe85e077	-0.26147816
208	0xbdb3527a	-0.087559655
209	0xbe2de91a	-0.16983452
210	0x3e969adc	0.29415023
211	0x3ecff5f1	0.40617326
212	0x3eba3fd0	0.3637681
213	0x3e8e0432	0.27737576
214	0xbe7cde57	-0.24694191
215	0xbe6c4a06	-0.23075113
216	0x3de1d469	0.11026842
217	0xbdcf4c54	-0.1012198
218	0xbe2ab507	-0.16670619
219	0x3edc2e00	0.43003845
220	0x3d5810de	0.05275046
221	0x3eb03aae	0.3441977
222	0x3eb24e76	0.34825486
223	0xbeea623a	-0.45778066
224	0xbe554748	-0.20827973
225	0xbf05e96f	-0.52309316
226	0xbd6ed8c4	-0.058312193
227	0xbe7206ca	-0.23635402
228	0x3d064727	0.0327827
229	0xbed8d43b	-0.4234942
230	0x3ea115e2	0.31462008
231	0x3ddf897e	0.109148964
232	0xbdac56b3	-0.08414974
233	0xbea6877c	-0.3252524
234	0x3e892a7d	0.26790228
235	0x3f33cf72	0.7023841
236	0xbe203f59	-0.15649165
237	0xbd69ae27	-0.05705085
238	0x3c9de0bd	0.019272203
239	0x3cc84cd3	0.024450695
240	0xbe3ae745	-0.18252285
241	0xbcb35c75	-0.021894673
242	0xbeabb389	-0.33535412
243	0xbeabd711	-0.3356252
244	0xbca6b305	-0.020349035
245	0xbe4f4530	-0.20241237
246	0x3e74184a	0.2383739
247	0x3e445703	0.19173817
248	0x3f2b2ccf	0.6686525
249	0x3f3771a8	0.716578
250	0xbd6b51ef	-0.057451185
251	0xbdb382c9	-0.0876518
252	0xbebf0ff9	-0.37316874
253	0xbebf1501	-0.37320712
254	0x3f16ea84	0.5895159
255	0xbd896f64	-0.06710699

layer3.bias f4 [4]
0	0x3d495351	0.049151722
1	0x3dbe46a3	0.09290817
2	0xbd21b0bc	-0.039475188
3	0x3da39782	0.07987882
