state_dic_policy_net/test_v1.pth (torch, 83287 bytes, 6 tensors)

layer1.weight f4 [128, 25]
00000000: fc73 3dbe a07a 253c 561c 78be 57f0 1dbf
00000010: 58a6 0d3e 53ad 2ebd 355f 15bc f9ed 663d
00000020: 7eb7 9e3d 438a 3cbd 704b d33c 6099 92bc
00000030: 1679 3f3d 3dc8 083d 7339 ac3d 8fa1 c4bd
00000040: 4860 0fbe 1f78 c53d e35a 07be eb55 c1bd
00000050: c7d5 34be 3658 d93d eeed 3e3d 3b73 3a3d
00000060: 0934 1d3e 11e6 a5bd 9e55 283e c6dd 2c3e
00000070: 24fd 9abd 4c97 94bd b100 62be b528 103e
00000080: 9c95 043e 7850 2e3d e535 57bd e88c 973c
00000090: da42 b53d 1fd9 ddbd c471 c2bc deea 433c
000000a0: 89af bb3c 1237 69bd bc1c 8ebd 7c32 31bd
000000b0: aa52 15be 1820 1bbe e02c 743d 0a7e a4bd
000000c0: 37d5 debc 4aa2 eebd d5eb 0f3c 9c91 d83d
000000d0: c5fc bf3d 22b2 873c 405c 913c c293 0a3e
000000e0: aa88 bb3c 97a2 26bd 7bf1 093d c7cc 5d3c
000000f0: 80cb 2a3d 0b2c 143e 3021 043e 1ef9 633a
00000100: 392d 43be f083 833d 7a78 b23d db47 b1bd
00000110: d2f9 b7bd af08 b13d dad2 94be 6729 87be
00000120: f8ee 29be 35de 433e e48d a7bc b584 573d
00000130: a251 bc3c 2165 c83c c1ae 263d 42e0 db3c
00000140: b834 283e 84bc 0a3e 0819 cd3c 6ec1 05bc
00000150: 1ae1 5d3d 459f 083e f48c 1a3e 4dcd 513d
00000160: 297e 37be d4bc 803c 9f75 c8bd ec74 5abe
00000170: 8d00 323d 0640 4abe a883 053e 27cf c4ba
00000180: 32a0 d73d c23a 7c3d 4db1 19be 05ab b7be
00000190: 10e3 afbc e8f9 b9bd fe2a d13d c1b4 49bc
000001a0: 8088 d83d ed31 3dbc b3fd b9bd 2c18 ac3d
000001b0: bb18 043e 03c0 813e 8cfe 12bd 742e 2c3d
000001c0: 081e 673c b1a0 173e c076 15be 11de 433b
000001d0: 130b 9a3c 444d ac3d 5796 933c 4f52 983b
000001e0: 6962 8bbe 5f90 c5bb b20e e1bc f186 b1bd
000001f0: ab3e 8cbd ccf7 e93d c7a1 873d 2edf a53d
00000200: 91bf 923e 26bc 3abe 62aa 153e e1e1 663d
00000210: de61 f23c 3fc3 303e f386 81be ee6c a8be
00000220: f638 8ebd 1233 edbc 7548 38bd 48d5 b3bc
00000230: 0e6b 94bd c359 103d 4928 d53c e294 9abb
00000240: 3f72 163d f235 34bd 8efe 5cbe 01ff e4bc
00000250: 1add 80bd 4c00 3abe eefe ccbe 79b7 4dbe
00000260: 996f f1be 2041 3a3e ee85 573e 7733 363d
00000270: 7299 483d 3a5f 03be 28f6 323c 59e4 f0bb
00000280: a955 5f3d ed81 003d 6397 5dbc f0ce 023d
00000290: c584 163d ad4a 57be 5258 a6bd 89f9 c3bc
000002a0: 1881 2c3d 333d a7bb f1c9 7a3d fea8 8c3d
000002b0: 2804 5dbc de59 7e3d bbba 85bc 4f5f 293b
000002c0: 74cd 22be bc42 0bbd fda4 c9bd b91b f03b
000002d0: f1e8 063e b903 143e 2377 89be affc 53be
000002e0: fa8b 913c 3fc1 45bc bb3a 9c3d 1da8 993d
000002f0: 6404 aa3d 40c7 7ebe 33fa 713d 772d 00be
00000300: 8fdb ecbd f7d2 f33d 20d4 bdbe 3729 24bd
00000310: 6dab 17bc bd47 0b3d 6763 183d 7e67 293e
00000320: 6f4e 483d aafa 143d b068 e6bd 4d9d 4bbe
00000330: fd04 dcbe 178f ac3d 882f 6b3d ab31 de3c
00000340: 5c63 92bd 1947 edbd df46 c0be 55af 723d
00000350: 829d 6e3d c2d4 dfbd 226f 083d f0c0 a2be
00000360: 1475 793d c354 873d 0714 0bbe 712d 20bd
00000370: 03d6 babe f966 ad3c 4bca 6e3d 4b11 33be
00000380: aa2f cfbe 53fb 813e f59f 3c3e 4dea 11bb
00000390: 7c27 243e ff2a 9e3d 4d11 893e 579a 3c3e
000003a0: 7bfa e0bc 0996 19bd 75b3 2c3e 8c77 923e
000003b0: d41a 273e 8c64 ffbc 5960 0dbc 901f f03d
000003c0: 1494 833e ac81 ce3d ee10 763e 9a73 2f3e
000003d0: e5ab 653e 54aa 723e 1a05 0c3e e879 293e
000003e0: a24d a23d b658 3d3e e733 d0bd 1343 f53d
000003f0: 12db 533d 5de8 263e ef1b 183e 5700 063e
-0.18501276 0.010100037 -0.2422956 -0.61694854 0.13832986 -0.042645764 -0.009116937 0.056379292
0.07749842 -0.046030294 0.025792807 -0.0178954 0.046746336 0.033394087 0.08409395 -0.09601127
-0.14001572 0.09642052 -0.13218264 -0.09440216 -0.17659675 0.10612528 0.046613626 0.04552005
0.15351881 -0.08100522 0.1643891 0.16881475 -0.07567814 -0.0725542 -0.22070576 0.14078029
0.12947696 0.04255721 -0.052541632 0.018499807 0.088506415 -0.10832428 -0.023735888 0.011957852
0.02291085 -0.056937285 -0.069390744 -0.043261036 -0.14582315 -0.15148962 0.05961311 -0.080318525
-0.027201278 -0.11652048 0.008784254 0.10574648 0.09374384 0.016564433 0.017744184 0.13532928
0.022892315 -0.0406824 0.03367756 0.013537592 0.04169798 0.14469926 0.12903285 0.0008696484
-0.1906022 0.064216495 0.08714385 -0.086562835 -0.08983196 0.086442344 -0.29067117 -0.26398775
-0.16595066 0.19127734 -0.0204534 0.052616794 0.022988144 0.024462285 0.040694002 0.026840333
0.1642636 0.13548476 0.02503635 -0.008163793 0.05416975 0.13342007 0.15092832 0.05122118
-0.1791922 0.01571504 -0.097880594 -0.21333665 0.043457557 -0.19750986 0.13038504 -0.001501535
0.10528602 0.061579473 -0.15009041 -0.35872665 -0.021470577 -0.09080869 0.10213278 -0.0123111615
0.1057291 -0.011547548 -0.090815924 0.08403048 0.12900059 0.25341806 -0.035887286 0.04203649
0.014106281 0.14807393 -0.14596081 0.0029887 0.018804109 0.08413175 0.018016024 0.004648484
-0.27223518 -0.0060291733 -0.027472828 -0.08668316 -0.068478905 0.11424217 0.066226535 0.08099209
0.2866178 -0.18235835 0.14615777 0.05636776 0.029587682 0.1726198 -0.2529827 -0.32895607
-0.06944458 -0.028955016 -0.044990975 -0.021952286 -0.072469816 0.035241853 0.026020186 -0.0047174552
0.036730047 -0.04399676 -0.2158148 -0.027953627 -0.06292172 -0.18164176 -0.40038246 -0.2008952
-0.47155455 0.18188906 0.21047184 0.044482674 0.04897446 -0.12829295 0.010922946 -0.00735144
0.05452505 0.031373907 -0.013524863 0.031935632 0.036747713 -0.2102458 -0.081223145 -0.023922699
0.0421153 -0.005103731 0.061227743 0.0686817 -0.01348976 0.062097423 -0.016324392 0.0025844162
-0.15898687 -0.03399919 -0.09845922 0.0073275235 0.13174798 0.14454545 -0.26848707 -0.2070186
0.017766941 -0.012069999 0.076283894 0.07502768 0.08301619 -0.24880695 0.0590765 -0.12517343
-0.11565315 0.11905473 -0.370759 -0.040078368 -0.00925718 0.03400396 0.037204172 0.16543385
0.048902925 0.036371864 -0.11250436 -0.19884224 -0.42972556 0.0842573 0.057418376 0.027123293
-0.071478575 -0.115858264 -0.3755407 0.05924924 0.05825568 -0.10929252 0.03330911 -0.31787825
0.06090267 0.06607964 -0.13581859 -0.039105836 -0.36491403 0.021167265 0.05829839 -0.17487065
-0.40466052 0.25387058 0.18420394 -0.0022264898 0.16030687 0.077230446 0.26771012 0.18418251
-0.027463188 -0.0374966 0.16865332 0.28606832 0.16318828 -0.031175874 -0.008628928 0.1172477
0.25698912 0.10083327 0.24029896 0.17133942 0.22428854 0.23697788 0.13673821 0.1655041
0.079249635 0.18490872 -0.101661496 0.11975684 0.051722594 0.16299577 0.14854406 0.13086067

layer1.bias f4 [128]
00000000: 3c0b 083e d28a 123e 184c 853d 7b65 713d
00000010: d022 d9bd 4de9 b0bd 5596 cbbd 20e5 e6bd
00000020: 95db 253e 85cb 8b3c 2d29 033c 6c14 c93d
00000030: 746b 90bd 070a 45be 6a27 55bd 8978 ba3b
00000040: aa03 d5bd 5ec0 573d 9893 173e 54e3 0c3c
00000050: df94 c63d ac46 86bd 6b3f 33bd c283 0c3c
00000060: f1e4 fe3d 088a 273e d20a 17be a54d 133c
00000070: 79ca 073e 1597 08be f3dc 2ebd d923 0a3e
00000080: cfff 963d 8c38 763d f8e2 1c3e 61aa 80bc
00000090: 4ef6 933d d0d0 213e e0b3 2b3e 9dc3 433e
000000a0: 46e3 783d 4da1 cb3c 3a11 df3c 5e9f f5bd
000000b0: 4e9c 8c3d 0648 e53c ed57 173d ac2f 8d3c
000000c0: 3cbc a2bc 827c b6bd 58ad 0cbd b1e8 99bd
000000d0: 38ea 50bd 9be0 073e 86ce ba3d 7a66 6d3b
000000e0: a107 d3bd c81c 14bd eccf 373d 1764 dbbc
000000f0: 93bb 803b bf56 c6bd ee17 b13d bc88 d63d
00000100: 37fd af3d fc70 c0bc ff93 f6bd a9a4 3d3d
00000110: beca 383d f1bb 973d 73ab 933d b527 833d
00000120: 7510 833d 8ede 8fbc 614f 533e 3f17 553c
00000130: 90bd ed3d 7bb5 f9bd 40af 1a3d 6bf8 03bd
00000140: ee16 e6bd 725d 1f3d d709 d73c 27bf b73c
00000150: ee9a b9bd 3383 113d 8b29 da3c b776 3c3e
00000160: bb28 a1bd 476a 8cbd cfbe a9bd fbbd 0b3e
00000170: 68fa fb3d 22e0 dfbd 8adf b43d 3969 5fbd
00000180: 4d5b 023e 535f 2fbc aab5 293e 4f26 c0bd
00000190: 6d6c 143e 8886 a1bd 0aa4 a4bc debd 403e
000001a0: d845 1d3d c16f 0a3d 7ec3 08bd 9eeb 4d3c
000001b0: 302b ebbd 18fe cdbd a9f5 963d addb 4abc
000001c0: 5f56 bbbd b75b f5bc 2bbd 833d 3b33 593e
000001d0: 6ec1 b2bd a074 3c3e 6cbd 983d 9bb0 e43d
000001e0: 72bb 823d f32e 4dbc 0988 8cbd 1a74 df3d
000001f0: d13a 32bd 4499 cb3c 11bc 17be 6b2b 4d3e
0.13285536 0.14310768 0.06508654 0.05893467 -0.10602343 -0.086382486 -0.09940783 -0.11274171
0.16197045 0.01706482 0.008005423 0.09818348 -0.07051745 -0.19242106 -0.05203954 0.0056906384
-0.104010895 0.05267369 0.14802396 0.008599121 0.09696364 -0.06556448 -0.043761652 0.008576335
0.12446011 0.16361248 -0.14750221 0.00899068 0.13260831 -0.13338883 -0.042691182 0.13490237
0.0737301 0.06011252 0.15320957 -0.015706243 0.07224713 0.15802312 0.16767836 0.1911759
0.06076362 0.024857188 0.027229894 -0.119932875 0.0686575 0.027988445 0.036949087 0.017234646
-0.019865148 -0.08910467 -0.034345 -0.075150855 -0.05100462 0.13269274 0.091214225 0.003622441
-0.103041895 -0.03616026 0.044876024 -0.026781125 0.0039286106 -0.09684514 0.08647142 0.10475299
0.08593219 -0.023491375 -0.12039947 0.04629961 0.045115225 0.07408894 0.07210436 0.06404058
0.06399623 -0.017562177 0.2063575 0.013006031 0.11608422 -0.12192818 0.037764788 -0.03221933
-0.11234842 0.038907476 0.02624981 0.022430016 -0.090627536 0.035525512 0.026631137 0.18404661
-0.07869097 -0.06856208 -0.08288347 0.1364669 0.123036206 -0.10931422 0.08831699 -0.054543708
0.12730141 -0.010703879 0.16573206 -0.09382307 0.14494486 -0.07886988 -0.020097751 0.18822429
0.038396686 0.033797983 -0.03338956 0.012568383 -0.11482847 -0.1005823 0.07371075 -0.012381476
-0.09147333 -0.02995096 0.06432565 0.21210949 -0.087283 0.18403864 0.07458004 0.11166497
0.063834086 -0.012523401 -0.06861884 0.109108165 -0.043513123 0.024853356 -0.14817835 0.20036094

layer2.weight f4 [128, 128]
00000000: 5832 a6bc 0b89 853d 28d1 85bd 592d c6bd
00000010: acbf 79bd 46f1 a0bd 5320 9cbc 301c 2cbe
00000020: 2cba 4dbe b282 d53d 8e5d 12bb 2c68 e13c
00000030: 64cb 76bd c966 c93d 2730 8dbd 77df 79bd
00000040: 5ce5 4abe 63a1 c1bc aeb6 17be 096e 67bd
00000050: 98dd 5ebd e975 cebd 56cc 3d3b 9bc7 e33c
00000060: 4503 03be 06ca bd3d fb4b fabd 5285 8cbd
00000070: 0070 c13d 969c 0e3d 8519 d5bd 4e33 0a3e
00000080: d615 bfbd 34cb 503d d736 2bbe 1ee6 f63d
00000090: 9da5 1cbe eeae 4ebd 15fa 03bd ee0b 853d
000000a0: 338c 2b3b a851 98bd 7137 693d 1070 33bd
000000b0: 9eee c43a 4869 9e3c 5839 8ebc 14f3 9fbc
000000c0: 27d1 6a3d e68b f8bd 438f acbd be5b 54bd
000000d0: 6a6a 57bd fe83 0b3d 76bb 1a3d b79e b43d
000000e0: 1e3d 5abc d4ed ddbd 34a9 0b3c 80d0 b23d
000000f0: 57a3 093d 4e24 0d3e 3fe7 873d eeac d83d
00000100: 7647 6c3c 0730 ce3c cc70 e33d 199d 173c
00000110: 132d 36be 2559 823c 1bd1 e53c 4b68 28b9
00000120: bee2 e23c 9963 25be 19ca aabd b001 f53d
00000130: 30e8 e0bd f8ae 153d b89d 9d3d 41c6 8a3d
00000140: 2419 cdbd 3c30 983d b8b9 fcbd ed3d c8bc
00000150: 68cf 93bd 437b 943d 0e93 33be aae8 1f3d
00000160: 6711 45bd 8f51 3bbd 0ccf 3fbd 9738 ba3d
00000170: d886 9b3d 5077 2ebd dd35 113d 0d5b d73c
00000180: 5be7 bcbd ef1b f6bd c35a d8bd aa90 5b3d
00000190: 264e 153d d50b 6b3d 1717 0abd 8c56 723d
000001a0: 90b5 fabb 266a 7f3d f03b bbbd 39e1 e7bb
000001b0: 5fdd d1bd ef21 c6bc f766 e63c 4080 b13d
000001c0: 827c f23a 3259 25bd 1380 e23c 5545 cabd
000001d0: d994 28be bd55 b83d 0a74 d0bd 5f97 073c
000001e0: 477f 903b dad4 343e 5867 8d3d e29d 04be
000001f0: 23e9 5b3d 227b 46bd bb46 23bd a11b d33d
00000200: 68ce 8c3c 6e78 7a3d b066 24bc 8281 55bd
00000210: 5a28 203d 4f39 1bbc c75a 6d3a e3da 713d
00000220: 0b29 ec3d e8c4 3a3e bf9b a53d 46c5 b13d
00000230: 84ff cebc 428a 8d3c 667e 5b3d b3d8 c43a
00000240: 5323 8c3b 1e10 0f3d 0382 45bb ee03 0abd
00000250: d845 d9bc ece0 cfbb 6081 593d e91c 563d
00000260: e221 943a 6550 403e 5bbb bf3c 2717 9f3d
00000270: a457 373d 94fb babc 9b0e 2e3d 032d b53c
00000280: 871e d53c e5a3 953c b0b8 093b aafd c63a
00000290: aefb aabb 2272 be3c 641d 7d3e 0f7a ccbb
000002a0: 2e1b 3a3c 1d9e 013b 721b 433d 2e07 743d
000002b0: 1e87 3a3d 4f5c 623c daa2 203c 9670 123d
000002c0: c920 d23d 1714 fc3c 4dad e7bc 39f0 863d
000002d0: a31e 603d 4ed3 2fbd 7176 1dbd e4c1 203c
000002e0: 1113 95bd 6f04 d03b e6af 713c 1ce7 f33c
000002f0: 35fc 2b3d 3940 80bc f610 f33d 03d2 9f3b
00000300: 5ca5 b9bc 1d40 143d 3b85 46bd 7676 a13d
00000310: 588c 83bd f96c 863d 71ec 89bb cb08 653c
00000320: a6c7 c8bc 3715 f33c d35a 593c d865 2b3d
00000330: 10a6 df3c 7eaa 083d 2452 4bbd 575a bf3c
00000340: 2314 b7bc a9b0 bd3c 83fe 303c 5263 473a
00000350: 7259 5c3c 55f5 4d3c fb90 8a3d 2e89 7f3c
00000360: a613 cf3c ac30 3b3c 0575 563c 49a0 fdbc
00000370: d719 cabc f102 473c 4531 30bc 664e 20bc
00000380: d438 393d f9eb 203c 47f8 303d 8ac4 643d
00000390: 40f5 223d 39c6 833b 14f1 ab3b e51b a03c
000003a0: c5f7 7d3d 2bd4 323d 86ca 083d 3ccc 713d
000003b0: fabb 2c3d 86c2 bcbb 827a ad3d 08b8 413a
000003c0: 319e 1cbc e438 1a3b 8e8c 713d 45fb 9e3c
000003d0: 074e dc3c b45a 273c 768f 693c 65ad 7b3d
000003e0: 4ed1 113d bfa0 bebc 30df 493d e6a0 20bd
000003f0: 5bb8 863b fab0 63bc eb1b ddbc 8f52 c8bc
-0.020287678 0.065202795 -0.06534034 -0.09676618 -0.06097381 -0.07858519 -0.019058382 -0.16807628
-0.2009055 0.10425319 -0.0022333595 0.027515493 -0.060252562 0.09834058 -0.0689395 -0.06100413
-0.19814056 -0.023636525 -0.1481578 -0.056501422 -0.054410547 -0.10081083 0.0028960905 0.02780514
-0.12794216 0.092670485 -0.122215234 -0.06861366 0.094451904 0.0348173 -0.10405258 0.13496134
-0.09330337 0.05097504 -0.16720138 0.1205561 -0.15297551 -0.050459795 -0.03222092 0.06496416
0.0026176095 -0.0743745 0.05693764 -0.043808043 0.0015024727 0.019337311 -0.017361328 -0.019525088
0.05732837 -0.121360585 -0.084257625 -0.051845305 -0.05259172 0.034061424 0.037776433 0.08819335
-0.013320236 -0.10836378 0.008524228 0.087311745 0.03360304 0.1378338 0.066359036 0.10579859
0.0144213345 0.025169386 0.11105499 0.009253764 -0.17790632 0.015911648 0.02805381 -0.0001606058
0.02769601 -0.16151275 -0.08339328 0.119632125 -0.10981786 0.036543816 0.07696098 0.06776095
-0.10014561 0.07431075 -0.123401105 -0.024443591 -0.07217294 0.07250073 -0.17536566 0.039040245
-0.0481123 -0.045732077 -0.046828315 0.09092825 0.07594079 -0.042594254 0.03545176 0.026288534
-0.09223815 -0.12017047 -0.105641864 0.05360476 0.03645148 0.05738433 -0.033713426 0.05916457
-0.0076510385 0.06235709 -0.091422915 -0.007076409 -0.10247301 -0.024186103 0.02812527 0.0866704
0.0018500241 -0.040368266 0.027648961 -0.09876505 -0.16463031 0.09000728 -0.10178383 0.008275836
0.004409704 0.17659321 0.06904477 -0.12950853 0.053689133 -0.048457272 -0.039862376 0.10308004
0.017188266 0.061150007 -0.010034248 -0.05212546 0.039100982 -0.009474113 0.00090543594 0.059046637
0.11531266 0.18239176 0.08086347 0.08680205 -0.025268324 0.01727784 0.05358734 0.0015018195
0.004276672 0.03492748 -0.0030137307 -0.033695154 -0.026522562 -0.0063439514 0.053101897 0.052273665
0.0011301602 0.18780668 0.023404768 0.07768088 0.044761315 -0.02282504 0.042494398 0.02211619
0.026015533 0.018266628 0.0021014623 0.0015181799 -0.005217991 0.023247782 0.24718243 -0.0062401365
0.011359019 0.001977808 0.047633596 0.05957716 0.045539014 0.013815953 0.009804452 0.0357519
0.102601595 0.030771298 -0.028280878 0.065887876 0.054716717 -0.042926125 -0.038443033 0.009811852
-0.07279027 0.006348185 0.01475141 0.029773287 0.04198857 -0.015655624 0.118684694 0.0048773303
-0.022661857 0.036193956 -0.048466902 0.07883923 -0.06423253 0.06563754 -0.004209094 0.013979147
-0.024509262 0.029673202 0.013266283 0.041845173 0.027300864 0.03336572 -0.049638882 0.023358507
-0.02234847 0.023155527 0.010802868 0.00076060474 0.01344906 0.012570699 0.06765934 0.015596671
0.025277924 0.0114251785 0.013089423 -0.030960219 -0.024670525 0.012146697 -0.010753934 -0.009784317
0.04522021 0.009821885 0.043205526 0.055851497 0.03978467 0.0040214327 0.0052472446 0.019544551
0.06200387 0.04365937 0.033396266 0.059032664 0.042171456 -0.0057604937 0.08470632 0.00073897885
-0.0095592 0.0023532445 0.058971934 0.019406924 0.026892675 0.010214496 0.014255395 0.06144466
0.0356 -0.02327001 0.049285114 -0.039215945 0.0041113324 -0.013897175 -0.026990851 -0.02445343

layer2.bias f4 [128]
00000000: fc46 6bbc 2c51 723d fd46 113e 23de babd
00000010: b180 c7bc ae5a 0a3e deab 7ebc d55b 9e3c
00000020: fb44 173e 9271 603b bd48 b63d eadf 5ebd
00000030: 3564 5d3c 056a 06bd f6b9 0d3d 69f7 133e
00000040: 12d9 cc3d 97b8 a53d 0723 fc3c 8abd c13d
00000050: e14e 353d da9e b1bb 5302 d43c c58c 603b
00000060: face 193c 5f15 e63b 81ff 30bd 6a73 8e3d
00000070: d0d0 dd3c f29e 003e 426a 943d 832e 84bd
00000080: 09cd 7c3d 22a7 823d 4579 313e ee11 193e
00000090: 2074 043e 3720 863d 7763 c13c ffc7 a23d
000000a0: 050c 193c c612 213d a1e0 b23d 02fb d43c
000000b0: c3ab e3bd 5da1 733a 73cb 0e3e 7189 0dbd
000000c0: 53ca b23d e0b0 db3d f08b 63bd db52 3cbd
000000d0: f458 6c3d 9868 ad3c e3e9 233e 09d9 d3bc
000000e0: cb96 483c bd1f b5bc 4ace 633c 02b0 77bc
000000f0: 6845 933d dcba 65bd 1b31 503d ed0e 283c
00000100: 2d19 1a3e 38fb 153e cda7 16bc 0276 a53c
00000110: 0598 b1bd 34c3 97bc a417 0abd d6fa 4bbc
00000120: fc47 b03d e9fe 783d fb27 66bd 338d 4c3b
00000130: a99e 14bc f5b6 a43d 8cfa 04bd 446e 13be
00000140: 4e0a 9d3d 2b06 5dbd d32b f73c 2707 123e
00000150: 1660 073e 70ff 003d c64c b7bd 4a96 0d3d
00000160: 774c fa3d 7489 653d 906e 333c f0ce 883d
00000170: a7a4 d63d 2ade ab3c 96c8 1e3d 8993 143d
00000180: 60ba 46bb 595d a93d deb7 9f3d f238 2b3e
00000190: b06d 1f3e 492e 193e 35d5 ac3d 1fca 883e
000001a0: 17a4 083e d7a3 b0bd a16f 59bd b655 733d
000001b0: 0f83 a43d 7f81 923d 68e0 043e 3c9d a23c
000001c0: ff2d 8b3c ed8f 563d 6545 97bd 8518 403d
000001d0: f6af 8e3d 14a5 b13d 4dc5 fc3b 42be a73d
000001e0: 07ba ff3c 9b63 763d 1797 9a3d df0c 75bd
000001f0: b631 1e3d 4515 583d 0d4c 17bb 25c6 1d3e
-0.014360186 0.059159443 0.14187236 -0.091244005 -0.024353357 0.13511154 -0.015543906 0.019330898
0.14772408 0.003424738 0.089005925 -0.05441276 0.013512661 -0.03281595 0.034601174 0.14449848
0.100023404 0.08091848 0.030778421 0.0945998 0.044264678 -0.005420548 0.025880015 0.0034263593
0.009387726 0.0070215906 -0.043212418 0.06955607 0.027077109 0.12560633 0.072468296 -0.06454184
0.061718974 0.06379534 0.17331417 0.14948246 0.12934923 0.06549113 0.023606999 0.079483025
0.009341245 0.039324544 0.08734251 0.025998596 -0.11116745 0.00092937594 0.13944797 -0.034554902
0.087299965 0.107270956 -0.055553377 -0.045977455 0.05770202 0.021168038 0.1600719 -0.025860326
0.012242983 -0.02210986 0.013904164 -0.015117647 0.071909726 -0.056086406 0.05082808 0.010257465
0.15048666 0.14646614 -0.00919528 0.020197872 -0.086715735 -0.018525697 -0.03371395 -0.012449941
0.0860748 0.060789976 -0.056190472 0.003121209 -0.009071031 0.08042709 -0.032465503 -0.14397532
0.07667981 -0.05396096 0.030172264 0.14260541 0.13220248 0.031493604 -0.0895019 0.034567155
0.12221616 0.05603929 0.010951653 0.06680095 0.10480624 0.02097996 0.038765512 0.036273513
-0.003032349 0.08269758 0.07798742 0.16720942 0.15569186 0.14959063 0.084391035 0.26716706
0.13343845 -0.08625 -0.053084973 0.059407912 0.0803281 0.07153606 0.12976229 0.019850366
0.016989706 0.052383352 -0.07386283 0.046898384 0.06967156 0.08674064 0.00771395 0.08190586
0.031216634 0.060153585 0.07548349 -0.059826728 0.038621627 0.05275466 -0.0023086101 0.15407617

layer3.weight f4 [4, 128]
00000000: 7bc1 d63d 35cd bf3d c952 8d3d d79d 1ebe
00000010: baff 223e a473 c53d 9b14 c53d 2f2e ba3c
00000020: 8283 e23d 4446 4e3e 7db2 c43d 9242 bebe
00000030: 9736 893d 014f f23d f8ac 063d 0ff6 af3d
00000040: 19f5 9d3d dc06 8f3d fe95 af3d 1f23 453e
00000050: 980b 8c3e 9871 b4bd 2e5c 353b 33a7 083e
00000060: ffdf 943e 32df 913d dd30 df3d 1457 c73c
00000070: 4349 0e3d 7205 3b3d f401 2c3d ecd5 d6bd
00000080: b064 703e 5502 c83d d03b a23e edfa ea3d
00000090: 8918 913d 2605 a33d 3ec0 d03d 5f72 e43d
000000a0: 3e5b 433e b558 163e bbf7 b03e 8c6b 15bd
000000b0: d03a 23be ef46 4f3e 97f0 0b3e 0102 e7bc
000000c0: 3e2d 833d 7f3d ee3d 14fa 243d 3e1c df3d
000000d0: 3c6b cb3d 2b8b cc3d 7a2d d63d 13a2 683e
000000e0: 1036 4d3e 32f9 293e 0d6d 673d d0c3 c73e
000000f0: 9b59 443d 956c b2be 6c06 f83d 3fc2 663e
00000100: f34a 2b3d a0a7 b43d b8ee 6a3e ed12 233e
00000110: 96b6 61be 66fa 233e 714c a93e e707 223d
00000120: 6cc7 b13d 5b22 bf3d fe40 15bd a138 323d
00000130: 29f5 bb3c a190 313d 2907 b53e d22a 56be
00000140: cbd2 f13d e1fe 62bd 996b babb 7d97 6a3e
00000150: efdf 963d 50e3 2f3d c7c2 52bd f2d3 993d
00000160: 950e 903d 3bdd 623d b6bf 153e f349 ca3c
00000170: 6ac8 c43d 3f7b d03d ed84 9c3d 88fd 8b3d
00000180: 72b9 1fbe d954 943d 38b3 9c3d 7300 e13d
00000190: 9711 f63d 62c9 e23d fe00 b33d 1b19 9e3e
000001a0: 7d18 c43d c758 f0bd faea 30bc d411 803d
000001b0: 2be0 e33d 9dc0 873d b3b6 ee3d e356 b13c
000001c0: b2ca 913e 1a26 853d 161d a63e 6b05 8f3d
000001d0: d92b db3d 8240 403d 2f0d 613e 22bc 6c3d
000001e0: 70d5 db3d 2888 9a3d c397 8a3d 81e3 4cbe
000001f0: feba bc3d 7266 093e 8f90 af3d 3738 913d
00000200: 8609 c33c f098 323d 41d3 a93d 7427 543d
00000210: 8943 3c3c 8ce4 143d fcde 193d bf8b 993d
00000220: 0365 6e3d c558 a93e 0e87 8b3d aa36 e63d
00000230: efb6 a03c c50f 9e3e 80bd 683d dd5c a43d
00000240: cf84 cd3d 8bfd ba3d 43d9 a13d c9a1 8f3e
00000250: d6e6 573e b91d bd3d 8567 d93d aa66 d03d
00000260: 0dc9 703e 9c7f afbe 0d6b ebbc 1856 c53d
00000270: 2fd3 c73d 9af6 813d afd5 973d 9f03 80be
00000280: 941c a3bc 2d4d 393e 770c 543e 11eb 753d
00000290: c358 a43d 62a9 ef3d f753 a4bd ca75 cc3d
000002a0: 4da2 f03d 1547 ea3d 5658 b43d 8bb4 9b3d
000002b0: 8a4d e7bd 1569 71be 54fb 8e3d bdde 073e
000002c0: 8b70 ed3d d19e ef3d cc63 3abe 0363 37bd
000002d0: 9b83 e13d fa45 133e 4bef 753d c69c 713e
000002e0: 3afa eb3d 648f 543e 1684 543d c148 2f3e
000002f0: 922d d43d 5eb5 413d 8a9c 1b3d c6bf 163d
00000300: 899f c13d 8239 003e ac63 27be dfc2 a3bc
00000310: 0371 41be 2c29 6b3e b2d4 85be e549 373d
00000320: cffc c13d 864b a43d ac13 5fbe 5591 be3c
00000330: 9a58 1a3d 9b54 e23d 7615 13be 5946 fe3c
00000340: d417 d23d 6970 27be 2e70 893d 8f32 a53e
00000350: 2eac fa3d c721 eb3d a9b3 21be 240a f03d
00000360: 66a9 d83d 96c1 463d 5d02 a03e d7d4 203e
00000370: 676e b83d e12a 6c3e 7077 823d a075 123d
00000380: 920e 3dbe ead7 7a3d 293c d43d abc9 823d
00000390: efd1 0f3d b0b8 473d e658 db3d d1a9 8f3e
000003a0: f28d de3d 7624 1dbe cb1a 293e 4fea 5a3e
000003b0: 2502 a43d 680f bb3d b6fe 463d 4f37 9c3e
000003c0: db14 303d a846 2b3e e816 433e 0372 bb3d
000003d0: 5b09 883d 3656 6e3d be35 5c3e c88d ba3d
000003e0: cf02 b33d 25f5 1b3d 9da8 ed3d 015d 2ebe
000003f0: b9e0 d43d 41f9 223e 5309 833d d86e c73d
0.10486122 0.09365312 0.06900556 -0.15489899 0.15917864 0.09641197 0.09623071 0.0227271
0.110602394 0.20143992 0.096043564 -0.37160164 0.06699865 0.11831475 0.0328798 0.08591854
0.07712764 0.0698373 0.085735306 0.19251679 0.27352595 -0.08810729 0.0027673352 0.13345031
0.29077145 0.07122649 0.10897992 0.024333514 0.034737837 0.04565949 0.04199405 -0.10490021
0.23475909 0.0976607 0.31686258 0.114736415 0.07084758 0.07959966 0.10192917 0.11154627
0.19077775 0.14682277 0.34564003 -0.036479518 -0.15940404 0.20241903 0.13665996 -0.028199198
0.06405114 0.11632823 0.040277556 0.10894059 0.09932563 0.09987482 0.10457893 0.22718076
0.20040154 0.16598967 0.056500483 0.3901658 0.047937017 -0.34848467 0.121106 0.22535037
0.041819524 0.088210344 0.22942626 0.15925188 -0.22042307 0.16013488 0.33066133 0.039558318
0.08680615 0.09332725 -0.036438935 0.043511037 0.02294405 0.04335082 0.35357025 -0.20914772
0.11807784 -0.055418853 -0.005689096 0.2290935 0.07366931 0.04294139 -0.051455285 0.075111285
0.07034031 0.055386763 0.14623913 0.024693465 0.096085384 0.10179757 0.07642541 0.068354666
-0.15598086 0.07242746 0.07651371 0.10986414 0.12015074 0.11073567 0.087404236 0.3087853
0.09574983 -0.11735683 -0.01079821 0.062534004 0.11126741 0.06628535 0.11655941 0.021647876
0.28474957 0.06501408 0.32444066 0.06983455 0.10701723 0.04693652 0.21977685 0.057796605
0.10734069 0.07545501 0.067672275 -0.20008661 0.092153534 0.13417986 0.08572494 0.070908
0.023808252 0.043602884 0.082922466 0.051795438 0.011490711 0.03635077 0.03756617 0.074973576
0.0582018 0.33075538 0.06812869 0.11240895 0.01961848 0.30871406 0.056821346 0.08025525
0.10035097 0.09130391 0.079027675 0.2805312 0.2108415 0.09234185 0.10615448 0.101758316
0.23514195 -0.34277046 -0.02873757 0.09635562 0.09757077 0.06345864 0.07413804 -0.25002763
-0.019911088 0.18095846 0.2070788 0.06003863 0.080247425 0.11702229 -0.080238275 0.09983404
0.117497064 0.11439339 0.08805911 0.07602795 -0.11294086 -0.23575242 0.06981531 0.13268562
0.115937315 0.11700214 -0.18202132 -0.04477216 0.1101143 0.14382163 0.06004266 0.2359496
0.11522336 0.20757824 0.05188378 0.17117597 0.10360254 0.047292106 0.037991084 0.036803983
0.09454257 0.12521937 -0.16346616 -0.019990383 -0.18890767 0.22964925 -0.26138836 0.044748206
0.094720475 0.080222175 -0.21784848 0.02326266 0.037682153 0.110512935 -0.14363655 0.031039404
0.10258451 -0.16351475 0.0671085 0.32265136 0.12239872 0.11481052 -0.15791191 0.11720684
0.10579185 0.04852446 0.31251803 0.15706192 0.090054326 0.23063232 0.06370437 0.035756707
-0.1846259 0.061241068 0.10363037 0.06386121 0.035112318 0.048760116 0.107103154 0.28059247
0.10866918 -0.1534594 0.16514127 0.21378444 0.080082215 0.09133798 0.048582755 0.30510947
0.04298864 0.16726172 0.19051707 0.091526054 0.066424094 0.058187686 0.21504876 0.09109074
0.0874077 0.038075585 0.11604426 -0.17027666 0.10394425 0.15915395 0.06398263 0.09737939

layer3.bias f4 [4]
00000000: d11b d33d 680e df3c a9d3 443d 4737 923d
0.1030804 0.02722855 0.048053417 0.071394496
