state_dic_policy_net/test_v10.pth (torch, 61855 bytes, 6 tensors)

layer1.weight f4 [128, 49]
0	0xbc894b15	-0.016759435
1	0xbc898968	-0.016789153
2	0xbc89e048	-0.016830578
3	0xbc8930c0	-0.016746879
4	0xbc8a897b	-0.016911259
5	0xbc8a6c7f	-0.016897438
6	0xbc8a38ce	-0.01687279
7	0xbc89d41d	-0.016824776
8	0xbacd1ffc	-0.0015649791
9	0xbcbcb6ec	-0.023036443
10	0xbc3e5005	-0.011615758
11	0xbe239ecd	-0.15978546
12	0x3d825bf5	0.06365196
13	0xbc8aa838	-0.016925916
14	0xbc89a3b9	-0.016801702
15	0xbd35e048	-0.044403344
16	0xbba3094e	-0.0049754744
17	0x3bbf161d	0.0058314935
18	0x3e35814f	0.17725109
19	0xbf3a2dc7	-0.727261
20	0xbc898d17	-0.01679091
21	0xbc89a7dc	-0.016803674
22	0xbd968251	-0.07349075
23	0xbd7c07da	-0.061530925
24	0xbcb6057f	-0.022219418
25	0x3d9001d6	0.070316
26	0x3e0924fe	0.13393018
27	0xbc898d8d	-0.01679113
28	0xbc8aacfb	-0.016928187
29	0xbd312f21	-0.043257836
30	0xbd1da9a3	-0.038491856
31	0xbcd2b622	-0.025721613
32	0xbc707ca6	-0.014678156
33	0x3ca36e67	0.019950105
34	0xbc8a68fa	-0.01689576
35	0xbc8aaf47	-0.016929282
36	0xbd473fc7	-0.048644807
37	0xbd58bc2c	-0.05291383
38	0xbd666cf7	-0.05625626
39	0x3c2a7193	0.010403055
40	0x3d0fe59c	0.035131082
41	0xbc8a1162	-0.016853992
42	0xbc8aab02	-0.016927246
43	0xbc8ab7c7	-0.016933335
44	0xbc8a2f32	-0.016868208
45	0xbc8960e9	-0.016769843
46	0xbc89d0a3	-0.016823119
47	0xbc8a5732	-0.016887281
48	0xbc8a3c1a	-0.016874362
49	0x3b189eab	0.0023287933
50	0x3b11c217	0.002224093
51	0x3b11e4ce	0.0022261622
52	0x3b0ff758	0.0021967497
53	0x3b139591	0.0022519568
54	0x3b14b95d	0.0022693493
55	0x3b17bfdc	0.0023155129
56	0x3b12e51d	0.0022414394
57	0x3e2f3ff3	0.17114238
58	0xbe23cb39	-0.15995492
59	0xbc25930a	-0.010105858
60	0x3da00396	0.07813184
61	0xbddbf00e	-0.10739146
62	0x3b0ec64c	0.0021785675
63	0x3b133fba	0.0022468404
64	0x3d90fd57	0.07079571
65	0x3c61c038	0.013778739
66	0x3dbeb097	0.093110256
67	0x3d1693e8	0.03676215
68	0xbd89cd72	-0.06728639
69	0x3b0c9274	0.0021449598
70	0x3b106345	0.0022031826
71	0xbd0bcac7	-0.03412893
72	0x3ce96431	0.028490158
73	0xbd5ef939	-0.054436896
74	0x3e008e5f	0.1255431
75	0xbd47f8de	-0.048821323
76	0x3b11051e	0.0022128294
77	0x3b127751	0.002234895
78	0x3d9c0e78	0.07619947
79	0x3d8e6632	0.06953086
80	0xbd40665d	-0.04697262
81	0xbdab52e7	-0.08365422
82	0xbd852e12	-0.06502928
83	0x3b12028e	0.0022279355
84	0x3b14ad23	0.0022686205
85	0x3d8582a2	0.06519057
86	0x3d8da602	0.06916429
87	0x3d621664	0.055197135
88	0x3defe314	0.117132336
89	0x3db6067d	0.08887956
90	0x3b14dd2a	0.0022714832
91	0x3b14fc1f	0.0022733284
92	0x3b1630ff	0.0022917388
93	0x3b176c51	0.0023105333
94	0x3b10514e	0.0022021118
95	0x3b11c283	0.0022241182
96	0x3b0f8b9c	0.0021903282
97	0x3b15acd4	0.002283861
98	0x3c15b083	0.009136322
99	0x3c1452cf	0.009052946
100	0x3c15b563	0.009137484
101	0x3c158328	0.009125508
102	0x3c143034	0.009044696
103	0x3c15b34f	0.009136989
104	0x3c150bbd	0.009097037
105	0x3c15254d	0.0091031315
106	0x3d4a24d5	0.049351532
107	0x3dcc9cbe	0.09990834
108	0x3d282913	0.041054796
109	0x3d0b4c5c	0.03400837
110	0x3d322a4f	0.04349738
111	0x3c143854	0.009046633
112	0x3c13c075	0.009018053
113	0x3c0d8701	0.0086381445
114	0x3d1e858f	0.03870159
115	0xbe26d706	-0.16292962
116	0xbcd0b332	-0.025476072
117	0x3d039008	0.03211978
118	0x3c141dc9	0.009040304
119	0x3c14e527	0.009087837
120	0x3ccf2a71	0.025288792
121	0x3c4dcddf	0.0125612905
122	0xbe952297	-0.29127952
123	0xbccef131	-0.025261493
124	0x3cde4f25	0.027137348
125	0x3c148fc1	0.009067477
126	0x3c1434da	0.009045804
127	0x3c52dfc4	0.012870733
128	0x3ceb64e7	0.028734637
129	0x3c83e1b7	0.01609884
130	0x3d2f508f	0.042801436
131	0x3d7daf88	0.061934978
132	0x3c147de1	0.009063215
133	0x3c14a3b9	0.009072238
134	0x3c0c4db9	0.008563452
135	0x3d21c35e	0.039492957
136	0x3c6486da	0.013948167
137	0xbc487758	-0.012235485
138	0xbb346fd8	-0.0027532484
139	0x3c14f237	0.009090952
140	0x3c1569c2	0.009119453
141	0x3c14b0fb	0.009075399
142	0x3c154047	0.009109563
143	0x3c150057	0.009094319
144	0x3c16477f	0.009172319
145	0x3c13c59e	0.009019284
146	0x3c163011	0.009166733
147	0x3ae0c85d	0.0017149557
148	0x3adebed3	0.0016994126
149	0x3aee8e9d	0.0018200461
150	0x3aebf658	0.0018002493
151	0x3adef8b3	0.0017011374
152	0x3ae85a5f	0.0017727128
153	0x3adc8675	0.0016824739
154	0x3ad9238b	0.0016566379
155	0x3d58125f	0.052751895
156	0x3da63bcb	0.08116873
157	0x3cfa53a6	0.030557465
158	0xbcf91939	-0.030407535
159	0x3d59fb01	0.05321789
160	0x3ae174ac	0.0017200909
161	0x3ade8b19	0.001697871
162	0x3c402004	0.011726383
163	0xbcab1db5	-0.020888189
164	0x3ce93dc9	0.028471844
165	0xbdeaf8f7	-0.114732675
166	0xbccbf8df	-0.024898944
167	0x3ad61b07	0.0016334959
168	0x3aec1f43	0.0018014688
169	0xbd9ca849	-0.07649285
170	0xbc983d57	-0.018583937
171	0x3c0c91c4	0.008579675
172	0x3ca9dd1a	0.020735312
173	0x3c3f1fc8	0.011665292
174	0x3add0433	0.0016862213
175	0x3ae5dea8	0.001753767
176	0x3d90a64c	0.070629686
177	0xbc9d135d	-0.019174272
178	0xbc42f836	-0.011899998
179	0xbc245d67	-0.0100320345
180	0x3d3165f7	0.043310132
181	0x3aebfe79	0.0018004916
182	0x3adfb6cf	0.0017068031
183	0x3e02e5c6	0.12782964
184	0xbe340d06	-0.17583093
185	0xbd4a9cb1	-0.04946584
186	0xbe3f22ad	-0.18665572
187	0x3e673bd6	0.2258142
188	0x3ad9df69	0.0016622368
189	0x3ae15127	0.0017190323
190	0x3ae4caac	0.001745542
191	0x3adc76e9	0.0016820106
192	0x3adbc927	0.0016768322
193	0x3aeeb861	0.0018212908
194	0x3ae0042b	0.0017091086
195	0x3ae4f4b7	0.001746795
196	0xbce4900f	-0.027900724
197	0xbce4c100	-0.02792406
198	0xbce5f6bc	-0.028071754
199	0xbce4925a	-0.027901817
200	0xbce5aff1	-0.028037997
201	0xbce4b990	-0.027920514
202	0xbce5d560	-0.028055847
203	0xbce53f68	-0.027984336
204	0xbcce0703	-0.025149828
205	0xbd2ebfda	-0.042663433
206	0x3c96f03e	0.018425103
207	0x3d1a9573	0.037740182
208	0x3c7bdd46	0.01537258
209	0xbce4f4c5	-0.027948746
210	0xbce4d03e	-0.027931329
211	0xbd21796b	-0.039422434
212	0x3c0fcc08	0.008776672
213	0xbccbeb32	-0.024892423
214	0xbc8eb9ae	-0.017422523
215	0x3c42007a	0.011840934
216	0xbce56b1b	-0.028005173
217	0xbce4aa5a	-0.027913261
218	0xbb7b2cd9	-0.0038326292
219	0xbe0db85d	-0.1383986
220	0xbe3d67f8	-0.18496692
221	0xbe98ae1e	-0.2982034
222	0x3d4e3b0a	0.050349273
223	0xbce4c124	-0.027924128
224	0xbce54194	-0.027985372
225	0xbd05336d	-0.032519747
226	0xbc2bf48f	-0.010495319
227	0xbcb72760	-0.022357643
228	0xbe1d1f76	-0.15344033
229	0xbe7349b2	-0.23758581
230	0xbce60841	-0.028080108
231	0xbce556c0	-0.027995467
232	0xbd71f1c5	-0.05906846
233	0x39499d05	0.00019227348
234	0xbcee7d69	-0.029112535
235	0xbd336346	-0.043795846
236	0xbdf7feac	-0.12109122
237	0xbce5d927	-0.028057648
238	0xbce486fe	-0.0278964
239	0xbce538d9	-0.027981209
240	0xbce5850b	-0.028017541
241	0xbce54ff2	-0.027992222
242	0xbce5b001	-0.028038027
243	0xbce5dcb4	-0.028059341
244	0xbce5ed80	-0.02806735
245	0x3c236d5b	0.009974803
246	0x3c25a882	0.010110976
247	0x3c24ff69	0.01007066
248	0x3c263103	0.010143521
249	0x3c247c85	0.010039453
250	0x3c25de88	0.010123856
251	0x3c237735	0.009977152
252	0x3c25f089	0.010128149
253	0xbcbb9aab	-0.0229009
254	0xbe017bc2	-0.12644866
255	0xbe8c7f92	-0.27441078

layer1.bias f4 [128]
0	0x3c8933da	0.016748358
1	0xbb10403b	-0.002201094
2	0xbc169549	-0.009190866
3	0xbad9b8ed	-0.0016610898
4	0x3ce5f69f	0.0280717
5	0xbc25da33	-0.0101228235
6	0xbc451c2c	-0.0120306425
7	0x3ba708d2	0.005097487
8	0xbb9e88aa	-0.004838069
9	0xbb28a766	-0.0025734543
10	0xbc10a5be	-0.0088285785
11	0xbc3ad168	-0.011402465
12	0xbc149da8	-0.009070791
13	0x3c5ff7cc	0.013669919
14	0xbc5c35ec	-0.01344059
15	0xbc14f1b9	-0.009090834
16	0xbc037438	-0.008023314
17	0xbc265319	-0.010151648
18	0xbc7c18be	-0.015386758
19	0xbb84c229	-0.004051466
20	0x3cb046eb	0.021518191
21	0xbca07771	-0.019588204
22	0xbbca4b58	-0.0061735325
23	0x3d38f2c1	0.045153383
24	0xbc75d393	-0.0150040565
25	0xbb88c29b	-0.0041735894
26	0xbc201f56	-0.009773096
27	0xbc0e329f	-0.008679061
28	0xbbde4649	-0.006783281
29	0xbc33af86	-0.010967141
30	0xbb28cafe	-0.0025755758
31	0xbc71f92f	-0.014768883
32	0xbc5de1a6	-0.013542568
33	0xbc9a7c83	-0.0188582
34	0xbb8cc84c	-0.004296338
35	0xbca65e16	-0.020308536
36	0xbc28f2ba	-0.010311777
37	0xbc4e2091	-0.012581007
38	0xbc728915	-0.014803191
39	0x3b0f923b	0.0021907229
40	0xbb90d8d3	-0.0044203787
41	0xbca0eb15	-0.019643346
42	0xb9556d3d	-0.00020353957
43	0xbc182ba8	-0.009287752
44	0xbbaffa64	-0.005370425
45	0xbc112956	-0.008859953
46	0xbc47072c	-0.012147706
47	0xbc4bdfd8	-0.012443505
48	0xbc8a84dd	-0.016909057
49	0x3c1ea54a	0.009682963
50	0xbca21779	-0.019786583
51	0xbb38d99e	-0.0028205882
52	0xbc4fd75d	-0.012685624
53	0x3d4e1ea3	0.050322186
54	0x3ce34e39	0.02774726
55	0x3d14aea2	0.036299355
56	0xbc828319	-0.015931653
57	0xbc7de280	-0.015495896
58	0xbc4c0c09	-0.012454041
59	0xbc3cb66c	-0.011518102
60	0xb9ce4f68	-0.00039350544
61	0xbbfd3458	-0.007727187
62	0x39ba6ecf	0.00035559243
63	0xbc0d5c60	-0.008627981
64	0xb8a32759	-7.779775e-05
65	0x3ce0a4a0	0.02742225
66	0xbbcf8f74	-0.0063342396
67	0x38e6f596	0.000110129986
68	0xbcbbab11	-0.02290872
69	0xbc10a3b9	-0.008828097
70	0xbbadb2af	-0.0053008418
71	0xbca18ca2	-0.01972038
72	0x3b5e0e1f	0.0033882929
73	0xbccd4c33	-0.025060749
74	0xbbfd4ee8	-0.0077303536
75	0xbc24a8cd	-0.010050011
76	0x3cabca6a	0.020970542
77	0x3d24448c	0.040104434
78	0x3dd8544f	0.105629556
79	0x3d8b8c48	0.06813866
80	0x3d843982	0.06456281
81	0xbb6ddd34	-0.0036295177
82	0xba813193	-0.0009856693
83	0xbc8c03c3	-0.017091637
84	0xbc83fbe6	-0.016111325
85	0x3b882121	0.00415434
86	0xbbcc1983	-0.006228627
87	0x3cd326f2	0.025775407
88	0xbc10f18b	-0.008846651
89	0x3a240dc5	0.00062581553
90	0x3d0db484	0.03459598
91	0xbbb1228f	-0.005405731
92	0xbbb926a4	-0.0056503583
93	0x3a888d87	0.0010418155
94	0x3c4b168b	0.012395511
95	0x3cc8ea4a	0.02452578
96	0x3d05be12	0.03265197
97	0xbc6184f6	-0.0137646105
98	0xbc38f217	-0.0112881875
99	0xba0c6f78	-0.00053571863
100	0xbc21ce09	-0.009875783
101	0xbc698f1f	-0.014255314
102	0xbc0783bb	-0.008271153
103	0xbc05cb75	-0.008166184
104	0xbc2129e1	-0.009836645
105	0xbc85fa94	-0.016354837
106	0xbc400928	-0.011720933
107	0x3b90aa58	0.004414838
108	0x3d1743b1	0.03692979
109	0xbbf06a9d	-0.007336928
110	0xba4a8d25	-0.00077267207
111	0xbd08e8eb	-0.033425253
112	0xbc62a435	-0.013833095
113	0xbc9296f0	-0.017894238
114	0xbca71177	-0.02039407
115	0x3d47c10c	0.04876809
116	0xbc37a95d	-0.011209813
117	0xbc5ae543	-0.013360324
118	0xbc27e34e	-0.010247065
119	0x3d6ca6d7	0.0577763
120	0xbbc64999	-0.006051254
121	0xbc5e4e7f	-0.01356852
122	0xbc6708db	-0.014101232
123	0xbc6950ee	-0.014240487
124	0x3d945947	0.07243591
125	0xbaf83d4b	-0.0018939165
126	0xbc43a173	-0.011940348
127	0x3b360509	0.0027773997

layer2.weight f4 [64, 128]
0	0xbd4b6ba9	-0.04966322
1	0x3c1d20d1	0.009590344
2	0xbc4937d2	-0.012281375
3	0xbd2876d2	-0.04112894
4	0x3d2640b1	0.04058904
5	0xbe3d808f	-0.18506072
6	0xbe22a4b2	-0.15883139
7	0xbd142054	-0.036163643
8	0x3d8647ad	0.0655664
9	0xbd62536e	-0.055255346
10	0xbcb2a106	-0.021805298
11	0xbdb0a05b	-0.086243354
12	0xbd29c509	-0.041447673
13	0xbc0b99a1	-0.008520515
14	0xbe82ae93	-0.25523815
15	0xbcd269e7	-0.025685264
16	0xb97643a1	-0.00023485582
17	0x3e2f1e23	0.1710134
18	0x3cc50f82	0.024055246
19	0x3c808bde	0.015691694
20	0x3d6d13dd	0.05788027
21	0x3d691b11	0.05691058
22	0x3dae4b70	0.08510482
23	0x3cd218e5	0.025646636
24	0x3c18f2c7	0.009335226
25	0xbdf82a72	-0.12117471
26	0xbd0a71de	-0.0338
27	0x3d469f6b	0.048491877
28	0x3e0a5de8	0.13512385
29	0x3c8833aa	0.016626198
30	0x3d201b39	0.03908846
31	0xbdc3c754	-0.09559503
32	0x3e397f60	0.18114996
33	0x3cef6278	0.029221758
34	0xbca904b0	-0.020632118
35	0xbda5bfa5	-0.08093194
36	0x3d07e816	0.03318032
37	0xbe030d3b	-0.12798016
38	0x3d9ffc14	0.07811752
39	0x3cd519d6	0.026013296
40	0x3d0e140c	0.034687087
41	0xbe3b3f39	-0.18285836
42	0x3d2abcb8	0.041683882
43	0xbd901576	-0.07035343
44	0x3db0a678	0.086255014
45	0x3d6e8a68	0.058237463
46	0xbd8ffe5b	-0.07030936
47	0xbdaea6e9	-0.08527929
48	0xbdc32741	-0.095289715
49	0xbd170bdb	-0.03687654
50	0x3dddd643	0.10831883
51	0xbd3d452c	-0.046208546
52	0x3df07015	0.11740128
53	0x3d818e58	0.06325978
54	0xbcbad263	-0.022805398
55	0xbccdcd0c	-0.025122188
56	0xbdba1213	-0.09085479
57	0x3d5e3756	0.05425199
58	0xbc1753c3	-0.009236279
59	0xbd65414b	-0.05597047
60	0x3c58b1ea	0.013226012
61	0x3e432edd	0.19060846
62	0xbde88a01	-0.11354447
63	0xbd4199bc	-0.047265753
64	0xb7e36dbc	-2.7111608e-05
65	0x3d313aec	0.043269083
66	0xbd9f8f40	-0.07790995
67	0x3ba01335	0.004885102
68	0x3ddbb560	0.10727954
69	0x3d103f21	0.035216454
70	0xbc89b59d	-0.016810233
71	0xbd459693	-0.048239302
72	0xbd5bbf54	-0.05364926
73	0x3de3b636	0.11118738
74	0xbcdff326	-0.027337622
75	0x3cc60e95	0.024176875
76	0x3d9cb2d1	0.07651294
77	0xbb590cd0	-0.003311921
78	0x3ad1ee7f	0.0016016512
79	0xbbff81fb	-0.0077974773
80	0x3cde7108	0.027153507
81	0x3ca6a532	0.020342443
82	0x3b875561	0.004130051
83	0xbe439ba2	-0.19102338
84	0xbeb91ff0	-0.3615718
85	0xbd982923	-0.07429721
86	0x3dbe9d94	0.093073994
87	0xbb95994e	-0.0045653945
88	0x3d7133a2	0.05888713
89	0x3d972ee6	0.07381992
90	0x3d370303	0.044680607
91	0xbcd09cb0	-0.02546534
92	0x3cdea9f1	0.027180644
93	0xbccce4d6	-0.025011461
94	0xbd1d77b3	-0.038444232
95	0xbdd567f8	-0.10420221
96	0x3cbc2014	0.022964515
97	0x3d2e44b8	0.042546004
98	0xbe533fae	-0.2062976
99	0xbefefca1	-0.49802116
100	0xbce45f83	-0.027877575
101	0x3c9f1022	0.019416872
102	0xbd27c0b1	-0.04095525
103	0x3dbb2c64	0.09139326
104	0xbd2ec0b7	-0.042664256
105	0xbe189803	-0.14901738
106	0x3d881818	0.066452205
107	0xbdeb6c26	-0.11495237
108	0x3bcc2c9c	0.006230904
109	0xbc07290a	-0.008249531
110	0xbd11bc28	-0.03557983
111	0xbe038050	-0.12841916
112	0xbbbede23	-0.0058248206
113	0xbd7ae1d2	-0.061250515
114	0x3dc1fe6e	0.09472357
115	0xbc37ccf0	-0.0112182945
116	0x3d2c6a28	0.042093426
117	0xbc3f48e3	-0.011675092
118	0xb8bd2406	-9.018932e-05
119	0xbcf56175	-0.029953698
120	0xbd4f52f5	-0.050616223
121	0x3e47ee30	0.19524455
122	0xbd90ed2d	-0.07076488
123	0x3d88f91a	0.06688137
124	0xbd06410a	-0.03277687
125	0x3d7419f8	0.05959508
126	0x3e0685bc	0.13136953
127	0x3d646343	0.055758726
128	0xbda754a0	-0.08170438
129	0x3d6d7056	0.05796846
130	0x3cf075df	0.02935308
131	0xbe2831eb	-0.16425292
132	0x3d6b24a2	0.057407983
133	0x3d125959	0.03572974
134	0xbd11e6a1	-0.035620335
135	0x3d29e44f	0.041477498
136	0xbdd8ae43	-0.10580113
137	0xbd85d90a	-0.065355375
138	0xbd0c5b64	-0.034266844
139	0x3cc8c7de	0.024509367
140	0xbd9e0a92	-0.0771686
141	0xbc1379b5	-0.009001185
142	0x3de29e17	0.110653095
143	0x3e08a5ea	0.13344541
144	0x3bd8c08f	0.0066147516
145	0xbd9939dc	-0.07481739
146	0xbdbb4112	-0.091432706
147	0xbd6da618	-0.058019727
148	0xbd51844e	-0.051151566
149	0x3d8ee45d	0.069771506
150	0xbb94bf95	-0.00453944
151	0x3d247836	0.040153705
152	0xbb6a358f	-0.003573749
153	0xbdc4199e	-0.095751986
154	0xbdae9ce8	-0.08526021
155	0xbdeea367	-0.1165226
156	0x3ba9be13	0.0051801293
157	0x3d5f7663	0.05455626
158	0x3d1bf31e	0.03807365
159	0xbc1a8c94	-0.0094329305
160	0x3df94fc0	0.12173414
161	0x3cf68036	0.030090433
162	0xbd20c626	-0.03925147
163	0x3de7c635	0.11317102
164	0x3e870bb4	0.26376116
165	0xbe0cb2a8	-0.13740027
166	0x3dccac51	0.09993804
167	0x3d3c0e66	0.04591217
168	0x3d98fd7d	0.07470224
169	0xbd147a46	-0.03624942
170	0x3ccbb627	0.02486713
171	0x3d8f816b	0.070071064
172	0xbd91f28e	-0.07126342
173	0x3bc2ca1e	0.0059445044
174	0x3d371314	0.04469593
175	0xbcd2a905	-0.02571536
176	0xbe8668ec	-0.26251924
177	0xbbd26252	-0.006420412
178	0xbd9ebfcb	-0.07751425
179	0x3e825bb9	0.25460604
180	0xbdf8d857	-0.121506386
181	0x3b91f85c	0.0044546556
182	0x3d923bf8	0.071403444
183	0xbb9b461c	-0.0047385823
184	0x3d78ac1b	0.060711008
185	0xbd0f752c	-0.035023853
186	0xbeab15af	-0.3341498
187	0xbdcc010c	-0.09961137
188	0xbd5711a4	-0.052507058
189	0xbe64884f	-0.22317623
190	0x3de1034e	0.109869584
191	0xbd0c390a	-0.034234084
192	0x37491ca1	1.1987199e-05
193	0x3d1e247f	0.038609024
194	0xbda54f84	-0.08071807
195	0x3e0c716d	0.13715144
196	0xbc856a04	-0.016285904
197	0xbd024b81	-0.031810287
198	0x3def394c	0.116808504
199	0xbd54eb59	-0.051982258
200	0x3d14d157	0.036332455
201	0xbdd80802	-0.10548402
202	0x3ca18279	0.019715535
203	0x3c494950	0.0122855455
204	0xbde05bbf	-0.10954999
205	0xbc06648d	-0.008202684
206	0xbd6438a2	-0.05571807
207	0xbb484f20	-0.003056474
208	0xbc45e78c	-0.012079131
209	0xbd9bc8a0	-0.076066256
210	0xbdaf4092	-0.08557238
211	0xbcc68c52	-0.024236832
212	0xbdf14b74	-0.1178197
213	0xbd3e9e9d	-0.046537984
214	0x3defec35	0.11714975
215	0xbd276265	-0.04086532
216	0xbddc074c	-0.10743579
217	0x3b1dac5b	0.002405903
218	0xbda3a40a	-0.07990272
219	0x3d20c2a1	0.039248113
220	0xbcac2dcd	-0.021017933
221	0xbc6601c3	-0.014038506
222	0xbd8bd201	-0.068271644
223	0xbbbd907f	-0.0057850475
224	0x3d3f2415	0.04666527
225	0x3e5244dd	0.20534082
226	0x3e2b9d6f	0.16759275
227	0x3e32892c	0.1743514
228	0x3e4975ed	0.19673891
229	0x3dfc149f	0.12308621
230	0xbe2dc4eb	-0.1696965
231	0x3e074d2f	0.13213037
232	0x3c9e2484	0.019304521
233	0x3d7e3d89	0.062070403
234	0xbcb7d29e	-0.022439297
235	0xbd1f7e1a	-0.03893862
236	0xbd755288	-0.05989316
237	0x3e072cac	0.13200635
238	0xbd2652bd	-0.04060625
239	0x3d1e7c06	0.038692497
240	0xbdb1c1d0	-0.08679545
241	0x3d00643b	0.031345587
242	0xbc82e60b	-0.015978834
243	0x3b5e2e49	0.00339021
244	0x3d775844	0.06038691
245	0xbe116be0	-0.14201307
246	0x3a93ed60	0.0011285953
247	0xba0dc0b2	-0.0005407437
248	0xbe9559b4	-0.2917
249	0xbd56ffd8	-0.052490085
250	0xbca6de52	-0.020369682
251	0xbd0eba5a	-0.034845687
252	0xbc8d0624	-0.017214842
253	0x3e61e775	0.2206095
254	0xbe12cd0d	-0.14336033
255	0x3d83b752	0.0643145

layer2.bias f4 [64]
0	0x3c50b42d	0.01273827
1	0x3d0a8538	0.033818454
2	0x3cd93b89	0.026517646
3	0x3c872817	0.016498609
4	0x3df61d2f	0.12017285
5	0x3c6facbb	0.0146285845
6	0x3a311aaa	0.00067559874
7	0x3df0e255	0.117619194
8	0x3d06eb2b	0.032939117
9	0x3b6bafb2	0.0035962877
10	0x3b7f2f10	0.0038937964
11	0x3cba8735	0.02276955
12	0x3d709c83	0.05874301
13	0x3c03d3aa	0.00804607
14	0x3e1a8f9e	0.15093848
15	0x3bd5d276	0.006525333
16	0x3e0f480f	0.13992332
17	0x3db89ef2	0.090146914
18	0x3cd6da8e	0.026227262
19	0x3dd4b2b9	0.10385651
20	0x3cd5635c	0.026048355
21	0x3b67faf9	0.0035397394
22	0x3bbe3e36	0.005805756
23	0x3c8f6606	0.017504703
24	0x3cad3bed	0.021146739
25	0x3c23b36a	0.009991506
26	0x3c9dfc10	0.019285232
27	0x3ce0a1e1	0.02742094
28	0x3ca1a8ef	0.019733874
29	0x3c579813	0.013158816
30	0x3d4248db	0.04743276
31	0x3cf4a2a0	0.029862702
32	0xbd04304a	-0.032272615
33	0x3d28ba99	0.04119358
34	0x3d0a7454	0.033802345
35	0x3c86cd28	0.016455248
36	0x3cb97e5b	0.022643259
37	0x3e03e6b0	0.12880969
38	0x3c3d93d2	0.011570888
39	0x3bc65243	0.006052287
40	0x3cc9fa6b	0.024655541
41	0x3bd71a16	0.006564389
42	0x3d0c0821	0.03418744
43	0x3c17ddd1	0.009269194
44	0x3d6c12b8	0.05763504
45	0x3d0a609c	0.03378354
46	0x3cea38e7	0.028591586
47	0x3cd60c5d	0.026128942
48	0x3c59b903	0.013288739
49	0x3baa94fc	0.0052057486
50	0x3d22a4e4	0.039708033
51	0x3ba950db	0.0051671094
52	0x3e05ec42	0.13078406
53	0x3ca1af11	0.019736798
54	0xbb395fb5	-0.0028285806
55	0x3d1b38b5	0.037895877
56	0x3d3bfd28	0.045895725
57	0x3d667217	0.05626115
58	0x3cf689a1	0.030094923
59	0x3ca3e9c8	0.020008937
60	0x3d070b00	0.032969475
61	0x3d37eb1b	0.04490195
62	0x3c5a3d81	0.013320328
63	0x3cadbf99	0.021209525

layer3.weight f4 [4, 64]
0	0x3ed8d57f	0.42350385
1	0xbe9dad7e	-0.30796427
2	0x3d4c590f	0.04988962
3	0xbe23c20d	-0.15991993
4	0x3e642316	0.22279009
5	0x3efb74b6	0.4911248
6	0x3f002c41	0.50067526
7	0x3ead6aba	0.33870488
8	0x3ea73451	0.32657102
9	0xbdb96391	-0.09052194
10	0x3dcdf903	0.10057261
11	0x3e59db98	0.21275175
12	0xbe8b8e34	-0.2725693
13	0x3e76bab8	0.24094665
14	0x3eb5bf63	0.3549758
15	0xbde19be5	-0.11016063
16	0x3ea1a9c4	0.31574833
17	0x3eb0cd61	0.34531692
18	0xbc1eedc2	-0.009700241
19	0x3eb04d50	0.34433985
20	0x3eaffd37	0.34372875
21	0x3eaaa58b	0.33329424
22	0x3e7167e8	0.23574793
23	0x3ec23665	0.37932125
24	0x3e999e2b	0.30003485
25	0xbd34afa3	-0.044112813
26	0x3f02d722	0.51109517
27	0x3e9cc402	0.30618292
28	0x3e154c6a	0.14579931
29	0xbe05952b	-0.13045184
30	0x3e43f158	0.19135034
31	0x3ec232df	0.37929437
32	0x3e5f0693	0.21779852
33	0xbd383902	-0.044976242
34	0x3deee6d5	0.116651215
35	0x3debb380	0.11508846
36	0x3e95e677	0.29277393
37	0xbe92cf29	-0.28673676
38	0x3ef5fa6e	0.48042625
39	0xbcbc0e5f	-0.022956071
40	0x3e1fa92a	0.15591875
41	0x3e671091	0.22564913
42	0xbe94faa9	-0.2909749
43	0x3e495a5e	0.19663379
44	0x3f0e1459	0.554998
45	0xbee2b26e	-0.44276756
46	0x3d601a23	0.054712426
47	0x3eedee59	0.46470907
48	0x3eaeeb98	0.3416412
49	0x3ec85a9c	0.3913163
50	0x3e83892d	0.25690594
51	0xbdf0bdb2	-0.117549315
52	0x3e818aa4	0.25301087
53	0xbcf9dbde	-0.030500349
54	0xbf11944a	-0.56866896
55	0x3e39d2db	0.18146841
56	0x3e5490d4	0.20758373
57	0x3f09f278	0.538856
58	0x3db7c156	0.08972423
59	0x3c3eaffe	0.0116386395
60	0xbd94a5b8	-0.07258171
61	0x3e779288	0.24176991
62	0x3e99f83e	0.30072206
63	0x3edbecef	0.42954203
64	0x3d250321	0.040286187
65	0x3efcf982	0.4940911
66	0x3dbeea73	0.093220614
67	0x3d10927a	0.03529594
68	0x3e72a828	0.23696959
69	0x3d8be3ef	0.06830584
70	0x3dd89122	0.10574557
71	0x3eae0664	0.3398925
72	0x3f164b06	0.58708227
73	0xbefe0279	-0.4961126
74	0xbe2761c0	-0.16345882
75	0x3e3088f9	0.17239751
76	0xbe99f90b	-0.30072817
77	0xbec892eb	-0.3917459
78	0x3ea1228e	0.31471676
79	0xbe21d35d	-0.15803285
80	0x3ebd7930	0.3700652
81	0x3e9c2371	0.3049579
82	0x3eeb07bb	0.45904335
83	0x3eb5f1ea	0.35536128
84	0x3e4422ac	0.19153851
85	0x3ea18db1	0.31553414
86	0x3e8afa88	0.27144265
87	0x3e7f29ed	0.24918337
88	0x3e539406	0.20661935
89	0xbd69e1c2	-0.057100065
90	0x3eb837bb	0.3598002
91	0x3eaa41d7	0.33253357
92	0x3e9307b3	0.28716812
93	0x3e0fda1b	0.14048044
94	0x3eaaaf0c	0.33336675
95	0x3e4b2a6e	0.19840404
96	0xbee32122	-0.44361216
97	0xbdcc74e1	-0.099832304
98	0x3f0008bf	0.50013345
99	0x3e7fd8eb	0.24985091
100	0xbf001f33	-0.50047606
101	0xbe7ab86f	-0.24484418
102	0x3db2f62b	0.08738359
103	0x3ec5d10e	0.3863606
104	0x3ec57c25	0.38571277
105	0x3ed67b0b	0.4189075
106	0x3ec0bce0	0.376441
107	0x3eb504e4	0.35355294
108	0x3e9b858d	0.3037533
109	0x3d4b239e	0.049594514
110	0x3e02bf5e	0.12768313
111	0x3eba5fd0	0.36401224
112	0x3e40ec65	0.18840177
113	0x3e5a794c	0.21335334
114	0x3e61ff7c	0.22070116
115	0x3ef9e446	0.4880697
116	0x3e7db100	0.24774551
117	0x3f0ca883	0.5494463
118	0xbd277e64	-0.04089202
119	0x3dc6e25f	0.097111456
120	0xbed774e0	-0.42081356
121	0x3ea4f236	0.32216042
122	0x3e8b573f	0.27215
123	0x3ec37934	0.38178408
124	0x3e973fec	0.29540956
125	0x3e830f95	0.25597826
126	0xbddbbe08	-0.10729605
127	0x3e0cfdd8	0.13768709
128	0xbe8d1798	-0.27557063
129	0x3e3b4c15	0.18290742
130	0x3eb19582	0.34684378
131	0x3f2f749b	0.685373
132	0x3e697686	0.2279912
133	0x3ce1dbfc	0.027570717
134	0x3ec08e2e	0.37608474
135	0x3ea69b0c	0.32540166
136	0x3e904424	0.28176987
137	0x3e1dd926	0.15414867
138	0x3e48d8cc	0.19613951
139	0x3e383013	0.17987089
140	0xbe71f8bc	-0.23630041
141	0xbcfd6472	-0.030931685
142	0x3eb90880	0.36139297
143	0xbded0924	-0.11574009
144	0x3ec02f0a	0.37535888
145	0x3ebbba08	0.36665368
146	0x3eb2b129	0.34900787
147	0x3e9abc8b	0.30221972
148	0x3ded4540	0.11585474
149	0xbf26a8a4	-0.65101075
150	0x3eeae7bb	0.4587992
151	0xbd7e2e91	-0.062056128
152	0x3e66533a	0.22492686
153	0x3dd9a0a8	0.10626346
154	0x3e8540cb	0.26025996
155	0x3ec6e18c	0.38843954
156	0x3ec009b8	0.37507415
157	0x3eed9741	0.4640446
158	0x3ea6ca84	0.32576382
159	0xbb59fd27	-0.0033262463
160	0x3d7b4fe6	0.061355494
161	0xbe8ae132	-0.27124935
162	0x3ec1b704	0.37834942
163	0xbefd0eb1	-0.4942527
164	0x3db3b394	0.08774486
165	0xbe4fb123	-0.20282416
166	0xbe81db76	-0.25362748
167	0x3b55dd21	0.0032633024
168	0x3e654cfe	0.22392651
169	0xbe4404b9	-0.19142427
170	0x3e5755d4	0.21028835
171	0x3da9910c	0.082796186
172	0x3ef5711b	0.47937855
173	0x3e5216a0	0.20516443
174	0x3efb4623	0.49076948
175	0x3ebcc2a7	0.36867258
176	0xbe986eb2	-0.29771954
177	0x3e809334	0.25112307
178	0x3e527360	0.20551825
179	0x3d9e6767	0.07734566
180	0x3e846220	0.25856113
181	0x3eae881d	0.3408822
182	0x3ea594fe	0.32340235
183	0x3e97aad6	0.29622525
184	0x3dce2e98	0.10067481
185	0x3df094f3	0.1174716
186	0x3ed4da71	0.41572908
187	0x3e2f2d48	0.17107117
188	0xbf1d7fb9	-0.61523014
189	0x3e3c8d82	0.18413356
190	0x3e47e53f	0.19521044
191	0x3e806f34	0.2508484
192	0x3d7b938f	0.06142002
193	0x3df78201	0.12085343
194	0x3e793cb4	0.24339563
195	0x3df6b6b2	0.12046565
196	0x3e585b5f	0.21128605
197	0x3cc0b397	0.023523135
198	0xbc9539e0	-0.018216074
199	0x3eba776e	0.36419243
200	0x3e52ef9d	0.20599218
201	0x3eb93ac9	0.36177662
202	0x3f0d4f2b	0.55198926
203	0x3df3382f	0.118759505
204	0xbe50419f	-0.20337532
205	0x3f028021	0.5097676
206	0x3eaa6fc0	0.33288383
207	0x3f0ff98e	0.56240165
208	0x3eaadd19	0.3337181
209	0x3ec6d9a8	0.38837934
210	0x3c17d563	0.009267184
211	0x3ea7a79e	0.3274507
212	0x3db67f06	0.089109465
213	0x3dce0734	0.10059968
214	0x3eee3008	0.4652102
215	0x3e343d2e	0.17601463
216	0x3ead3468	0.33829045
217	0x3f0cdb03	0.55021685
218	0x3efbe98b	0.49201617
219	0x3e2e7b72	0.17039278
220	0x3eb693b5	0.35659567
221	0xbb1e60ee	-0.0024166661
222	0x3ebc99de	0.3683614
223	0x3ec88943	0.39167222
224	0xbcf1b4b3	-0.02950511
225	0xbe80a18d	-0.25123253
226	0x3e930d25	0.28720966
227	0x3e44296a	0.19156423
228	0x3ea21275	0.31654707
229	0xbe7213c7	-0.23640357
230	0xbe22f187	-0.15912448
231	0xbf0cebfc	-0.55047584
232	0x3e271f65	0.1632057
233	0xbd927faa	-0.07153256
234	0xbb377418	-0.0027992781
235	0xbd1b12dc	-0.037859783
236	0x3f2cab65	0.6744903
237	0x3e6360f3	0.22204952
238	0x3e62878e	0.22122023
239	0x3ea0bdc8	0.31394792
240	0x3e2e58a5	0.17026003
241	0x3dbba3d5	0.09162108
242	0x3eba4c84	0.36386502
243	0xbe8503dd	-0.2597951
244	0x3e69cd53	0.22832231
245	0xbe8825a0	-0.26591206
246	0x3ddad599	0.10685272
247	0x3e5b34f2	0.21406916
248	0xbea76b2d	-0.32698956
249	0xbd9adc5b	-0.07561561
250	0x3e4bb1d3	0.19892053
251	0xbef9c95d	-0.4878644
252	0x3ecdf743	0.40227708
253	0x3e87984d	0.26483384
254	0x3ecd1307	0.4005358
255	0xbc7cd79e	-0.0154322665

layer3.bias f4 [4]
0	0x3d7c5fad	0.06161468
1	0x3d450f88	0.048110515
2	0x3da2ee00	0.07955551
3	0x3d8755af	0.0660814
