state_dic_policy_net/test_v5.pth (torch, 54871 bytes, 6 tensors)

layer1.weight f4 [128, 36]
0.0078837285 -0.086802766 0.02114177 -0.061220147 0.021016965 -0.11980391 0.022971457 0.09930792
0.033716064 -0.01459535 -0.01640784 -0.10288854 -0.109089665 0.06838136 -0.06755762 -0.06479599
-0.2912182 -0.010940528 0.003474546 -0.12600233 -0.20080815 -0.19514723 0.12090109 -0.082060575
-0.10533362 -0.22114949 0.22373262 0.058556624 0.027244158 -0.054377187 -0.04977931 -0.11897856
0.022484658 -0.11791102 -0.06321739 0.023845622 -0.05605688 -0.06773018 -0.04860443 0.03191223
-0.025645096 0.08368879 -0.07087262 0.18379673 0.26695225 0.24074359 0.19029161 0.011824578
-0.06371685 -0.1341896 0.04760446 -0.27183393 0.2142851 0.01197915 0.091465026 0.05714248
-0.07873863 0.13511744 -0.24435407 0.03965646 -0.011196583 0.15267093 0.06035433 0.02136042
-0.16414255 -0.060109362 0.0014952652 0.04683557 0.06495191 0.047725454 0.040964905 0.029982965
-0.086228855 0.009659927 -0.06560166 0.05343766 0.068494044 -0.083631106 -0.077181526 -0.054493062
-0.0384997 -0.037366305 -0.40528777 0.036712255 -0.012714036 0.1716349 0.08976591 0.01680995
-0.0449009 0.073209114 -0.080018595 0.250577 0.18651548 0.17516014 -0.14380129 0.082511954
0.016334513 0.18228266 0.13765363 0.2612855 0.21522707 -0.0076145967 -0.017156174 0.058073338
0.045799877 0.028630674 -0.0019045474 -0.0030343647 0.015525668 -0.023466272 -0.052026667 0.026952257
-0.0581599 -0.067585774 -0.07451038 -0.665137 0.16414988 -0.07760032 -0.06910012 -0.06346634
-0.07803242 -0.08423859 0.23845051 -0.07163212 -0.03287373 -0.047952343 0.070214555 0.22123408
-0.4754544 -0.5576377 0.1076182 -0.02520337 -0.035745945 0.1693278 0.0571222 -0.13524958
0.13608293 -0.011647073 -0.022626493 0.0030684026 -0.05067829 0.016344178 -0.010318499 0.07947329
0.02169331 0.017918846 -0.08057221 0.04120197 -0.05927559 0.006286946 0.03259752 0.1313924
0.2777984 -0.26734996 0.051762253 0.014952024 -0.0054077976 0.04123292 0.12683219 0.25399476
0.11368114 0.058573894 -0.06361409 0.08856717 0.19971478 -0.056189086 0.09928813 -0.045646835
-0.07910839 0.14332908 0.172925 -0.09339628 0.02680586 0.043048926 0.024675712 -0.037273876
-0.03302399 0.055536885 0.051400375 0.015534685 0.073860094 0.044512257 -0.0051996475 0.06836368
-0.08774075 -0.036515556 -0.06846857 -0.08049421 0.106569216 0.14578462 0.14752303 -0.07073542
-0.08296952 -0.21964827 -0.59400386 -0.3381358 -0.17524244 -0.011300435 0.05242891 0.17529568
0.23370057 0.09489265 0.17906609 0.051507853 -0.047570318 -0.22117521 -0.2117484 -0.17704274
-0.11461331 -0.07735276 0.0751206 0.054924764 -0.074887134 -0.052366775 -0.07527483 -0.067972526
-0.001959995 0.01762618 -0.033898532 0.11236073 0.027079338 0.017457116 0.025918415 -0.092652604
0.13774814 0.13368511 0.09958409 0.09402629 -0.057578575 0.16869485 -0.006952513 0.1420859
0.02120927 0.10872532 0.08552336 -0.46076158 -0.1682172 0.16552602 0.109154746 0.037314203
-0.0238099 0.3253027 0.06790371 -0.38112178 0.12774804 0.022236073 0.026541868 0.03320684
0.0963494 0.051954757 0.09798606 -0.016285302 -0.0032536136 0.07668218 -0.06187083 0.0026989838
00000000: c12a 013c a6c5 b1bd 8131 ad3c fac1 7abd
00000010: c52b ac3c c15b f5bd a32e bc3c f361 cb3d
00000020: db19 0a3d 5621 6fbc bc69 86bc 3ab7 d2bd
00000030: 676a dfbd 870b 8c3d a65b 8abd c3b3 84bd
00000040: 8d1a 95be e63f 33bc 35b5 633b c106 01be
00000050: a7a0 4dbe add4 47be fe9a f73d 600f a8bd
00000060: 27b9 d7bd 0375 62be 2a1a 653e 12d9 6f3d
00000070: 242f df3c 9dba 5ebd 64e5 4bbd 08ab f3bd
00000080: bf31 b83c 557b f1bd 1e78 81bd e557 c33c
00000090: e69b 65bd 1fb6 8abd 7015 47bd 66b6 023d
000000a0: aa15 d2bc 0765 ab3d aa25 91bd 3635 3c3e
000000b0: f7ad 883e 7d85 763e cedb 423e e0bb 413c
000000c0: fb7d 82bd 0069 09be e5fc 423d d12d 8bbe
000000d0: 8e6d 5b3e 3244 443c 0452 bb3d 3c0e 6a3d
000000e0: b841 a1bd 3a5c 0a3e f437 7abe d06e 223d
000000f0: df71 37bc c555 1c3e 1a36 773d 0cfc ae3c
00000100: fc14 28be 3c35 76bd c6fc c33a a8d6 3f3d
00000110: 8205 853d c47b 433d d1ca 273d d69e f53c
00000120: c198 b0bd ac44 1e3c 2a5a 86bd 73e1 5a3d
00000130: 9b46 8c3d c946 abbd 5911 9ebd 1e34 5fbd
00000140: ddb1 1dbd 690d 19bd e181 cfbe 975f 163d
00000150: 884e 50bc 0fc1 2f3e 30d7 b73d 05b5 893c
00000160: 02ea 37bd a9ee 953d cae0 a3bd a14b 803e
00000170: eafd 3e3e 2e5d 333e a540 13be 07fc a83d
00000180: f5cf 853c 4ea8 3a3e 13f5 0c3e 37c7 853e
00000190: 7c64 5c3e de83 f9bb 1b8b 8cbc 4fde 6d3d
000001a0: a798 3b3d e08a ea3c 02a2 f9ba 31dc 46bb
000001b0: 5f5f 7e3c 573c c0bc ea19 55bd fbca dc3c
000001c0: 1339 6ebd 696a 8abd e698 98bd 6b46 2abf
000001d0: e816 283e ebec 9ebd 5d84 8dbd a4fa 81bd
000001e0: 76cf 9fbd 4885 acbd 5f2c 743e dcb3 92bd
000001f0: 9ba6 06bd ad69 44bd a6cc 8f3d 308b 623e
00000200: c26e f3be 58c1 0ebf ee66 dc3d 4c77 cebc
00000210: 576a 12bd 4464 2d3e f8f8 693d de7e 0abe
00000220: 5359 0b3e 5dd3 3ebc 325b b9bc 4117 493b
00000230: 0a94 4fbd 3ae4 853c ec0e 29bc e4c2 a23d
00000240: 2bb6 b13c 8bca 923c 0b03 a5bd 66c3 283d
00000250: f6ca 72bd ba02 ce3b fa84 053d bb8b 063e
00000260: 983b 8e3e 18e2 88be a804 543d 56f9 743c
00000270: e533 b1bb dae3 283d 4ce0 013e 9a0b 823e
00000280: a8d1 e83d 2eeb 6f3d 1b48 82bd b462 b53d
00000290: 0882 4c3e 8726 66bd 9357 cb3d 2df8 3abd
000002a0: 9403 a2bd dcc4 123e 4013 313e 8d46 bfbd
000002b0: f797 db3c 1254 303d b824 ca3c 7eac 18bd
000002c0: 2a44 07bd a57a 633d 3389 523d 3185 7e3c
000002d0: f643 973d 7c52 363d ce61 aabb 4202 8c3d
000002e0: 6cb1 b3bd 5691 15bd 4039 8cbd 26da a4bd
000002f0: f640 da3d 9048 153e 4710 173e bbdd 90bd
00000300: eceb a9bd 7aeb 60be a310 18bf 2320 adbe
00000310: c172 33be 7625 39bc b2bf 563d b680 333e
00000320: 344f 6f3e 1457 c23d 1a5d 373e e6f9 523d
00000330: 18d9 42bd c17b 62be 93d4 58be b14a 35be
00000340: 62ba eabd 206b 9ebd d4d8 993d caf8 603d
00000350: 6d5e 99bd 8b7e 56bd b129 9abd 2e35 8bbd
00000360: 4273 00bb c764 903c 30d9 0abd 621d e63d
00000370: 7dd5 dd3c 3a02 8f3c db52 d43c a6c0 bdbd
00000380: d90d 0d3e c0e4 083e bef2 cb3d db90 c03d
00000390: 83d7 6bbd 58be 2c3e e8d1 e3bb f77e 113e
000003a0: 10bf ad3c 61ab de3d df26 af3d f1e8 ebbe
000003b0: 2141 2cbe a77f 293e 868c df3d c7d6 183d
000003c0: fb0c c3bc 138e a63e 1a11 8b3d 6522 c3be
000003d0: 62d0 023e 6d28 b63c 556e d93c e503 083d
000003e0: d652 c53d 83ce 543d eaac c83d c168 85bc
000003f0: 943a 55bb 8c0b 9d3d 446c 7dbd 6fe1 303b

layer1.bias f4 [128]
-0.05736263 -0.03708502 0.07151143 0.01505471 -0.012397103 0.07585953 -0.024317952 -0.08162252
-0.060601424 0.026605576 0.10185316 0.094396256 -0.08714252 -0.093953274 0.05892124 0.057002693
-0.06425279 -0.04021783 0.051318854 -0.046128444 0.078757614 -0.07475791 0.029900497 0.066221364
0.057414282 -0.0058584954 0.016212704 -0.10075996 -0.0011975555 -0.113672845 -0.0054877857 -0.030387875
0.055217538 0.061481677 -0.08536464 -0.0010675099 -0.022279603 -0.07900998 -0.078943826 0.014917237
0.040373724 0.000813895 0.07250227 0.033609454 -0.055103756 -0.04295803 0.107648306 0.03204728
-0.07407954 -0.048032954 0.101474635 0.0066771656 -0.01722495 -0.006087468 -0.095949605 -0.06688778
0.008398253 0.022312684 -0.06873306 -0.07516977 0.055295344 0.023969492 -0.10037582 0.087386556
-0.0043722363 0.09083507 -0.0856125 -0.024185838 0.09971904 0.0022277527 0.04407802 0.0040671104
-0.026147675 -0.0761239 0.061543398 -0.10003796 -0.03632774 -0.09901034 -0.0064999308 0.051440846
0.029655078 0.035009127 0.040537477 0.101164095 0.07485888 0.014175956 0.06530379 0.027022678
-0.037970223 -0.01674026 -0.06695524 -0.09849821 -0.028778138 -0.007330175 -0.059866503 0.07613664
-0.07157251 0.060437173 -0.03800193 0.0018526862 -0.10180562 -0.035350595 0.004415278 0.048003566
-0.013724101 0.025847979 -0.009688605 -0.043341655 0.020936273 0.10187544 -0.07451238 0.020192897
-0.0590177 -0.054417588 0.017367385 0.030161731 -0.027771493 0.019988392 0.09078327 0.044136517
-0.0905578 -0.07813345 -0.049079195 -0.07425895 -0.020574873 -0.057575397 0.022715187 0.0041412087
00000000: 14f5 6abd 76e6 17bd 9674 923d 08a8 763c
00000010: 381d 4bbc 3e5c 9b3d 7136 c7bc b529 a7bd
00000020: 3339 78bd f0f3 d93c 6498 d03d d352 c13d
00000030: c777 b2bd 936a c0bd 6657 713d a87b 693d
00000040: f796 83bd 74bb 24bd b833 523d 2ef1 3cbd
00000050: ac4b a13d ad1a 99bd e3f1 f43c 119f 873d
00000060: 3d2b 6b3d 9ff8 bfbb 81d0 843c 3d5b cebd
00000070: 4bf7 9cba 4fcd e8bd e2d2 b3bb feef f8bc
00000080: c92b 623d 36d4 7b3d a8d3 aebd b0eb 8bba
00000090: b783 b6bc fccf a1bd 4dad a1bd 6d67 743c
000000a0: eb5e 253d 925b 553a 127c 943d 11aa 093d
000000b0: 7ab4 61bd c2f4 2fbd b776 dc3d 0244 033d
000000c0: 04b7 97bd 34be 44bd efd1 cf3d 20cc da3b
000000d0: 571b 8dbc 6279 c7bb 3a81 c4bd 76fc 88bd
000000e0: d398 093c 17c9 b63c ebc3 8cbd 9cf2 99bd
000000f0: 5f7d 623d ab5b c43c d791 cdbd b9f7 b23d
00000100: fa44 8fbb bd07 ba3d 9b55 afbd 6121 c6bc
00000110: 7f39 cc3d 7dff 113b 278b 343d 6545 853b
00000120: a633 d6bc d9e6 9bbd ee14 7c3d b4e0 ccbd
00000130: 65cc 14bd efc5 cabd 5ffd d4bb a3b3 523d
00000140: 35ef f23c bb65 0f3d a00a 263d 1f2f cf3d
00000150: 9d4f 993d 4542 683c febd 853d aa5e dd3c
00000160: aa86 1bbd df22 89bc d41f 89bd 6eb9 c9bd
00000170: 21c0 ebbc f731 f0bb 9436 75bd 87ed 9b3d
00000180: 9c94 92bd f88c 773d e9a7 1bbd d5d5 f23a
00000190: 777f d0bd c9cb 10bd 09ae 903b 639f 443d
000001a0: 0ddb 60bc 24bf d33c f4bc 1ebc 0587 31bd
000001b0: 8c82 ab3c 12a4 d03d f299 98bd 936b a53c
000001c0: 8bbc 71bd fae4 5ebd 0c46 8e3c bc15 f73c
000001d0: 0b81 e3bc b2be a33c 94ec b93d 7ec8 343d
000001e0: 5e76 b9bd 6e04 a0bd 4407 49bd 1415 98bd
000001f0: a38c a8bc 2ed4 6bbd 3315 ba3c fab2 873b

layer2.weight f4 [64, 128]
0.1330182 0.10167854 -0.26883364 0.0037951397 -0.020218026 0.12186504 0.13113734 0.19021338
-0.1623931 -0.063246086 0.17628135 -0.06918019 0.016634524 -0.03311196 0.17298396 -0.27607912
-0.21952695 0.13623494 0.20178862 -0.031570323 -0.047578175 0.07392944 -0.010589155 0.08158056
-0.027616158 0.28193256 0.004813094 -0.2520523 0.08381211 0.44552475 -0.14986503 -0.3057693
0.0061629787 -0.031101136 0.14504871 0.09671381 -0.062219456 0.2803562 -0.09216775 -0.08775711
-0.023535002 -0.042327702 0.1530777 0.09836255 0.06465232 0.1072701 0.06447939 -0.08047
-0.05351451 -0.10902907 0.06807533 -0.0069879307 -0.21820018 -0.17364995 0.06494178 0.17660694
0.09841076 0.5410124 0.022305068 -0.18619168 0.14719637 0.06603523 0.114118755 0.011283834
0.13223167 -0.02357407 -0.030634282 0.061394375 -0.38893545 0.066504754 0.28593704 -0.060535178
0.3328473 0.11047399 0.33862135 0.23522778 0.20492832 -0.1310205 -0.23761822 -0.15740858
-0.037413776 -0.03815361 -0.34982094 -0.07378948 0.14859091 0.16131306 -0.02943241 0.2454139
-0.19993408 -0.36561593 0.05221585 0.25473657 -0.13968119 -0.30440655 -0.18757819 0.34211645
0.225449 -0.07534958 -0.29759893 -0.02195108 0.07018009 0.029815022 0.5754606 0.18938671
-0.068985276 -0.15717867 -0.12756409 -0.33990425 -0.021012211 -0.16720428 0.16321073 -0.127508
-0.022550186 0.26140818 0.16112007 -0.22886398 0.122200914 -0.2475009 0.05998857 0.037104163
0.13325176 -0.09911667 0.09930015 -0.12819438 0.23557237 0.17438921 -0.2324596 0.13906531
-0.0407285 0.19391492 0.20393944 -0.06378726 0.21313465 -0.23853195 -0.1163778 0.23977624
0.410022 0.006230689 -0.08213137 0.18025449 -0.020073654 0.0017357903 -0.08185676 -0.2093651
0.0365828 -0.08894662 0.08809524 -0.0027955454 0.012008351 0.08941675 -0.21760313 -0.1455251
0.23345783 -0.30038953 0.23116429 0.17163572 0.041363623 0.045897968 -0.119657196 0.024375519
-0.050532013 0.16122033 -0.23599683 -0.008999444 0.19123219 0.031928465 0.2384634 -0.16613959
0.01756979 0.38027754 0.07423878 0.112349935 -0.25204378 -0.09398607 -0.25355482 -0.055182915
-0.046573322 0.1522585 -0.2035913 -0.0037553492 0.31311974 0.2191405 0.13539995 -0.033281032
-0.4987941 -0.0050002714 -0.016567847 -0.015108583 0.013522981 0.1002558 0.26977423 -0.2393505
0.09632432 -0.043110255 -0.0677484 -0.07667753 -0.23324725 0.15013987 -0.46458176 -0.32770672
-0.26154125 -0.015304081 -0.73083514 0.00041659724 -0.07403566 0.1038466 -0.046610747 -0.0021336619
-0.27708 -0.010856254 0.04839238 0.31017134 -0.5953756 -0.21246475 0.27936843 0.16167106
0.11628035 -0.006916218 0.061157085 -0.24188656 0.19371876 0.06073541 0.2498907 -0.2092135
0.090222605 0.11376953 -0.26598558 0.10222582 0.07750744 -0.19246015 -0.2534588 0.224997
0.04885561 0.062364187 0.07988505 0.26561075 -0.11103306 -0.07697763 0.04467045 -0.153967
0.06204442 0.060304523 -0.43311873 -0.039514933 0.0559718 -0.046950154 0.15714826 0.10889782
0.0067107254 0.2723226 -0.09197668 0.012058051 0.0096903015 -0.40085095 -0.1475292 0.13852109
00000000: ec35 083e d73c d03d 90a4 89be e1b7 783b
00000010: 46a0 a5bc 6194 f93d de48 063e 4cc7 423e
00000020: 604a 26be 2a87 81bd 1983 343e 58ae 8dbd
00000030: 2045 883c 68a0 07bd b522 313e 3e5a 8dbe
00000040: accb 60be 2c81 0b3e ada1 4e3e e24f 01bd
00000050: 55e1 42bd 5168 973d 237e 2dbc b513 a73d
00000060: 483b e2bc 7759 903e 29b7 9d3b 000d 81be
00000070: afa5 ab3d d21b e43e 3876 19be cb8d 9cbe
00000080: d0f2 c93b cfc7 febc a687 143e e411 c63d
00000090: d4d9 7ebd d98a 8f3e 72c2 bcbd 00ba b3bd
000000a0: 7acc c0bc d05f 2dbd 67c0 1c3e 4e72 c93d
000000b0: 7068 843d 6db0 db3d c50d 843d 75cd a4bd
000000c0: 0832 5bbd a24a dfbd 146b 8b3d 03fb e4bb
000000d0: de6f 5fbe 4bd1 31be 3200 853d 73d8 343e
000000e0: 958b c93d ca7f 0a3f 1eb9 b63c 08a9 3ebe
000000f0: a5ba 163e 7b3d 873d 18b7 e93d d5df 383c
00000100: bd67 073e 681e c1bc bff4 fabc ab78 7b3d
00000110: 8c22 c7be a533 883d 5766 923e bcf3 77bd
00000120: f66a aa3e 3040 e23d c75f ad3e 8ddf 703e
00000130: bbd8 513e 3d2a 06be 3152 73be b72f 21be
00000140: 303f 19bd f646 1cbd bb1b b3be f01e 97bd
00000150: 3728 183e 402f 253e 3d1c f1bc c84d 7b3e
00000160: 85bb 4cbe 0332 bbbe 4ae0 553d d56c 823e
00000170: 9608 0fbe 2ddb 9bbe 7f14 40be e329 af3e
00000180: 1adc 663e e150 9abd e35e 98be c0d2 b3bc
00000190: 94ba 8f3d a23e f43c 6351 133f 97ee 413e
000001a0: 2748 8dbd 72f3 20be 29a0 02be ee07 aebe
000001b0: cd21 acbc 9937 2bbe b720 273e 7591 02be
000001c0: 2bbb b8bc 4bd7 853e a9fc 243e 525b 6abe
000001d0: 7944 fa3d e070 7dbe 93b6 753d 89fa 173d
000001e0: 2673 083e aefd cabd e15d cb3d 6345 03be
000001f0: e239 713e 1693 323e e409 6ebe 2367 0e3e
00000200: edd2 26bd a291 463e 80d5 503e e5a2 82bd
00000210: f83f 5a3e b841 74be 7c57 eebd e787 753e
00000220: 67ee d13e cf2a cc3b 7e34 a8bd a294 383e
00000230: 8171 a4bc 7583 e33a 84a4 a7bd ce63 56be
00000240: d9d7 153d a529 b6bd 476b b43d 7835 37bb
00000250: adbe 443c 2120 b73d 5bd3 5ebe 8804 15be
00000260: 920f 6f3e a8cc 99be 55b6 6c3e 46c1 2f3e
00000270: e76c 293d 82ff 3b3d d50e f5bd 2baf c73c
00000280: a8fa 4ebd f116 253e 27a9 71be 6772 13bc
00000290: 5fd2 433e 6cc7 023d c02f 743e 7f20 2abe
000002a0: 85ee 8f3c bdb3 c23e 800a 983d b917 e63d
000002b0: e20b 81be c57b c0bd f0d1 81be 7b07 62bd
000002c0: abc3 3ebd a7e9 1b3e 3d7a 50be 4e1c 76bb
000002d0: 3b51 a03e 5e66 603e 49a6 0a3e b151 08bd
000002e0: f161 ffbe 51d9 a3bb 4bb9 87bc fd89 77bc
000002f0: 7e8f 5d3c ea52 cd3d d91f 8a3e 4c18 75be
00000300: af45 c53d 6194 30bd acbf 8abd 1c09 9dbd
00000310: 5ed8 6ebe 44be 193e a9dd edbe 2dc9 a7be
00000320: bce8 85be f8bd 7abc 0318 3bbf bc6a da39
00000330: 02a0 97bd 87ad d43d e9ea 3ebd e8d4 0bbb
00000340: 6edd 8dbe 6ede 31bc 1737 463d c7ce 9e3e
00000350: 896a 18bf 5c90 59be 6109 8f3e 198d 253e
00000360: 6424 ee3d 71a1 e2bb da7f 7a3d 1cb1 77be
00000370: 365e 463e b1c5 783d 59e3 7f3e 103c 56be
00000380: a1c6 b83d 0000 e93d 432f 88be c55b d13d
00000390: 38bc 9e3d 4614 45be 5ac5 81be 9d65 663e
000003a0: d21c 483d 9771 7f3d c69a a33d 22fe 873e
000003b0: 4d65 e3bd 73a6 9dbd 5df8 363d 86a9 1dbe
000003c0: 4a22 7e3d e001 773d bdc1 ddbe 69da 21bd
000003d0: b042 653d ce4e 40bd 79eb 203e d205 df3d
000003e0: a5e5 db3b de6d 8b3e 455e bcbd 228f 453c
000003f0: 12c4 1e3c 563c cdbe e511 17be 79d8 0d3e

layer2.bias f4 [64]
0.020014308 0.21077213 0.030391086 -0.0008002026 0.06828611 0.001473737 0.04406238 -0.04202434
0.012271131 -0.008860542 0.0133091565 0.06601621 0.013930874 0.13405326 -0.008113154 -0.00868506
0.07983181 -0.02119108 -0.0064112796 0.009065927 0.0698813 -0.03514103 0.014954897 0.050125845
0.039038315 -0.00044011365 -0.03330907 -0.015994797 -0.007747659 0.009618518 0.023767836 0.034744356
0.040483966 0.17304513 0.038450085 0.020035712 0.09019533 0.08866894 -0.009968633 0.03775855
-0.006332402 0.060600877 -0.02101988 0.038339894 0.061798662 -0.011490006 -0.01126912 0.022306895
0.0358254 0.06306967 -0.045078907 0.09237574 0.08191746 0.019390048 0.014221246 0.07432856
0.04675747 0.05585955 0.03888252 -0.04488066 0.16142382 0.056739755 -0.004876748 0.029385384
00000000: 0cf5 a33c a6d4 573e baf6 f83c b0c4 51ba
00000010: 97d9 8b3d 682a c13a c17a 343d b721 2cbd
00000020: db0c 493c cf2b 11bc a60e 5a3c 8233 873d
00000030: 523e 643c 4245 093e 09ed 04bc c84b 0ebc
00000040: dc7e a33d ea98 adbc b615 d2bb 4189 143c
00000050: ed1d 8f3d 0af0 0fbd 6205 753c c250 4d3d
00000060: a4e6 1f3d 0ebf e6b9 176f 08bd 8507 83bc
00000070: 13e0 fdbb fd96 1d3c c4b4 c23c 1950 0e3d
00000080: 84d2 253d be32 313e d67d 1d3d ef21 a43c
00000090: 54b8 b83d 1098 b53d 7a53 23bc b6a8 1a3d
000000a0: 0a80 cfbb a038 783d e231 acbc 4b0a 1d3d
000000b0: 9820 7d3d 9440 3cbc 1da2 38bc f3bc b63c
000000c0: a8bd 123d ac2a 813d a9a4 38bd 7e2f bd3d
000000d0: 57c4 a73d e1d7 9e3c 3b00 693c 9239 983d
000000e0: c384 3f3d fccc 643d 4743 1f3d c8d4 37bd
000000f0: 494c 253e f267 683d 21cd 9fbb 9eb9 f03c

layer3.weight f4 [4, 64]
0.27393287 0.50134856 0.8905348 -0.61667025 -0.22039786 0.12288973 -0.47858757 0.04374627
-0.12753788 -0.24661374 -0.5547921 -0.4749332 -0.28963956 0.47947735 0.06312388 0.57133913
1.0776747 -0.2553365 0.38254896 -0.23052324 -0.28959796 -0.2192727 0.025157543 -0.039746348
-0.7474806 0.20673472 0.09908247 -0.08841302 -0.2577469 -0.12033259 0.1745239 0.11230466
0.08725061 0.5093482 0.25962898 0.3377156 -0.06625358 -0.33009312 -0.57306904 0.039071213
-0.078225516 -0.04107754 0.20665051 -0.46817923 -0.04409553 -0.20967351 0.102497414 0.37303033
0.09504049 0.064937145 -0.43106925 0.17397834 -0.76197386 0.34486124 -0.27332845 -0.36925837
0.2818013 -0.061372567 -0.2734487 0.04369388 0.14205885 0.21575715 -0.40365776 0.04575442
0.26496547 0.13233858 0.22998244 -0.22183445 -0.42539254 -0.3370623 0.21674421 -0.023998763
0.09722347 0.29545024 -0.21295048 -0.20583624 0.06734105 0.27551475 0.0027825793 0.34054542
0.08994349 -0.47572947 0.54043305 -0.24324986 0.031008909 -0.37519786 0.0040245885 0.32685852
-0.1379083 -0.68123263 0.3299037 -0.70391464 -0.48655468 0.3522822 0.133498 -0.4463623
-0.40678135 0.08410348 -0.09010457 -0.6150648 -0.16014609 -0.03401997 -0.20540003 0.005236557
-0.3849437 -0.86266243 0.30914968 0.040876035 0.45888504 0.28574628 0.06353975 -0.9591257
-0.044556055 -0.03461389 -0.3963134 0.25659508 0.015373249 -0.21930422 0.18342802 0.14391133
0.8973657 -0.10752652 -0.4483093 0.019620182 0.92230415 0.67328686 -0.02900233 0.69289947
-0.6170608 0.8591547 -0.4335712 -0.014837659 -0.40989655 0.13942872 0.6466345 0.0059914254
-0.21370858 -0.20506614 0.025159456 0.07521668 -0.34389 0.09751063 -0.043145064 -0.2785781
-0.37178513 -0.29702634 -0.31174135 0.2726439 -0.4236025 0.10025177 -0.008025633 0.48806497
0.3826705 -0.06365952 -0.39869377 -0.39067328 -0.21859586 0.13499163 -0.44159225 -0.45116588
-0.11390893 0.2769918 0.02478863 0.39812237 -0.13092999 -0.19518258 0.18530543 0.011651082
-0.12634434 -0.0802974 1.4888625 -0.24279554 0.30003935 0.5324488 -0.58239543 -0.070465684
-0.59010875 0.6286852 -0.59915936 0.36853844 -0.031499058 0.14719923 -0.26785743 0.7463495
0.10706327 0.0107444795 -0.39708334 -0.018437456 0.2792746 0.016163258 -0.36245716 0.7169407
0.08713773 0.04795624 0.013879633 -0.23986363 0.0032551682 -0.51075417 0.09254744 -0.0033112664
-0.64230764 -0.53260636 -0.007716247 0.05452245 -0.07651892 0.39498436 0.032150242 0.045658085
0.1953728 -0.44042757 -0.515467 0.6168321 -0.37901115 0.12586372 -0.0031967277 0.67571837
0.18789436 0.30044225 -0.7918979 0.07075152 -0.16783656 -0.72072697 0.6252523 -0.44819865
-0.42229298 0.85752165 0.82534254 0.30004564 0.7717954 -0.4825827 -0.374466 0.009892935
-0.19206995 -0.01492229 -0.56180286 0.2611038 -0.21786873 0.108298 -0.2609929 0.44219133
-0.2663684 0.296384 -0.10442481 -0.4643968 -0.19825643 0.8152046 0.045945648 0.12418846
-0.3637668 -0.5626852 -0.06721058 -0.027761517 0.45905048 -0.33028552 -0.0041633807 -0.091814466
00000000: ee40 8c3e 6158 003f 17fa 633f 1ade 1dbf
00000010: faaf 61be 9cad fb3d 6e09 f5be 4a2f 333d
00000020: 4a99 02be 5088 7cbe db06 0ebf 722a f3be
00000030: a34b 94be 0e7e f53e 1847 813d 4843 123f
00000040: 3ff1 893f 77bb 82be 75dd c33e 490e 6cbe
00000050: 2f46 94be 0689 60be 3117 ce3c 11cd 22bd
00000060: e35a 3fbf 44b2 533e c0eb ca3d e311 b5bd
00000070: 67f7 83be ef70 f6bd 65b6 323e fcff e53d
00000080: 73b0 b23d a564 023f 17ee 843e 0fe9 ac3e
00000090: f5af 87bd f701 a9be a7b4 12bf 2309 203d
000000a0: b334 a0bd ec40 28bd 319c 533e 30b5 efbe
000000b0: 849d 34bd a7b4 56be 2aea d13d d5fd be3e
000000c0: 97a4 c23d c4fd 843d 1cb5 dcbe 6127 323e
000000d0: b810 43bf a791 b03e b5f1 8bbe 6f0f bdbe
000000e0: 4348 903e cd61 7bbd 7801 8cbe 5bf8 323d
000000f0: e077 113e 71ef 5c3e 3bac cebe fd68 3b3d
00000100: 8ea9 873e c483 073e 8480 6b3e 9228 63be
00000110: 0dcd d9be 6e93 acbe 32f2 5d3e 0e99 c4bc
00000120: 191d c73d 4145 973e b10f 5abe bcc6 52be
00000130: 1bea 893d 4510 8d3e ef5b 363b f85b ae3e
00000140: 4b34 b83d d092 f3be d259 0a3f 7e16 79be
00000150: 6506 fe3c ef19 c0be b2e0 833b 005a a73e
00000160: d537 0dbe 4365 2ebf 23e9 a83e c033 34bf
00000170: b21d f9be 555e b43e b3b3 083e 9989 e4be
00000180: a545 d0be 723e ac3d bf88 b8bd e374 1dbf
00000190: 56fd 23be 8658 0bbd 6354 52be 6d97 ab3b
000001a0: 5717 c5be 72d7 5cbf de48 9e3e a16d 273d
000001b0: fbf2 ea3e 564d 923e 2121 823d 4389 75bf
000001c0: 6980 36bd 4bc7 0dbd 97e9 cabe 6e60 833e
000001d0: 14e0 7b3c 4991 60be 8ed4 3b3e 7e5d 133e
000001e0: c2b9 653f dd36 dcbd cc88 e5be 81ba a03c
000001f0: 201c 6c3f 875c 2c3f 4b96 edbc dc61 313f
00000200: b2f7 1dbf 90f1 5b3f 0bfd ddbe a719 73bc
00000210: f6dd d1be 67c6 0e3e d789 253f b853 c43b
00000220: 6cd6 5abe dcfc 51be 341b ce3c 340b 9a3d
00000230: 5a12 b0be a7b3 c73d e1b8 30bd caa1 8ebe
00000240: 9f5a bebe d613 98be 909c 9fbe fb97 8b3e
00000250: 6de2 d8be cd50 cd3d f27d 03bc a7e3 f93e
00000260: 63ed c33e ec5f 82bd 9721 ccbe 5406 c8be
00000270: 98d7 5fbe 3f3b 0a3e 6118 e2be 37ff e6be
00000280: 1649 e9bd dfd1 8d3e 8611 cb3c b2d6 cb3e
00000290: 8312 06be f1dd 47be b5c0 3d3e 2ee4 3e3c
000002a0: 6960 01be f772 a4bd 0c93 be3f 659f 78be
000002b0: c29e 993e 914e 083f de17 15bf 5050 90bd
000002c0: 5e11 17bf 83f1 203f 8262 19bf 12b1 bc3e
000002d0: 2805 01bd 65bb 163e 9c24 89be c310 3f3f
000002e0: fd43 db3d 9d09 303c 824e cbbe 260a 97bc
000002f0: 15fd 8e3e cf68 843c fc93 b9be 6d89 373f
00000300: 4475 b23d c36d 443d 6667 633c d09e 75be
00000310: a954 553b c9c0 02bf 8389 bd3d d501 59bb
00000320: 466e 24bf e458 08bf 92d8 fcbb ef52 5f3d
00000330: f4b5 9cbd 643b ca3e f9af 033d f903 3b3d
00000340: cf0f 483e b97f e1be a5f5 03bf b5e8 1d3f
00000350: c00d c2be 6be2 003e 3180 51bb e1fb 2c3f
00000360: 6167 403e 91d3 993e d2b9 4abf 2ce6 903d
00000370: 59dd 2bbe 9081 38bf 8910 203f 4b7a e5be
00000380: c936 d8be 8a86 5b3f a649 533f 959f 993e
00000390: 6294 453f 1415 f7be 02ba bfbe fa15 223c
000003a0: fcad 44be 9f7c 74bc 50d2 0fbf 66af 853e
000003b0: fb18 5fbe 58cb dd3d dda0 85be e766 e23e
000003c0: 7061 88be a5bf 973e addc d5bd 6bc5 edbe
000003d0: bc03 4bbe 40b1 503f 8131 3c3d 8556 fe3d
000003e0: a43f babe 230c 10bf b3a5 89bd 1f6c e3bc
000003f0: aa08 eb3e 2f1b a9be f86c 88bb 3909 bcbd

layer3.bias f4 [4]
0.1541521 0.12068014 0.10820122 0.09847353
00000000: 0cda 1d3e 2627 f73d 9a98 dd3d 7dac c93d
