state_dic_target_net/test_v10_.pth (torch, 61863 bytes, 6 tensors)

layer1.weight f4 [128, 49]
0	0xbc942588	-0.018084303
1	0xbc946e4c	-0.018119
2	0xbc94d3ae	-0.018167343
3	0xbc9406bc	-0.018069617
4	0xbc9599fb	-0.0182619
5	0xbc95781a	-0.018245745
6	0xbc953b98	-0.018216893
7	0xbc94c566	-0.018160533
8	0x3b30b512	0.0026963395
9	0x3b1bb440	0.002375856
10	0x3c443c02	0.011977198
11	0xbe4f106e	-0.20221111
12	0x3d89e08f	0.06732284
13	0xbc95bd9d	-0.018278891
14	0xbc948cfa	-0.01813363
15	0xbd3a431d	-0.04547416
16	0xbcd01d43	-0.025404578
17	0x3bcd25a5	0.006260591
18	0x3e0e692c	0.13907307
19	0xbf401300	-0.7502899
20	0xbc947287	-0.018121017
21	0xbc9491d8	-0.01813595
22	0xbdaf5815	-0.08561722
23	0xbd964ae4	-0.07338503
24	0xbbc529d1	-0.006016948
25	0x3db9e645	0.090771236
26	0x3e065e13	0.13121824
27	0xbc947310	-0.018121272
28	0xbc95c332	-0.018281553
29	0xbd1cd8ea	-0.038292803
30	0xbc4991cb	-0.012302826
31	0x3a8b22e5	0.0010615258
32	0x3ccf510f	0.025307206
33	0x3cdb96dd	0.026805336
34	0xbc9573f1	-0.018243762
35	0xbc95c5e1	-0.018282833
36	0xbd378268	-0.0448021
37	0xbd190bdb	-0.037364822
38	0xbd2d39ff	-0.042291638
39	0x3cfb35aa	0.030665237
40	0x3d2d1b64	0.04226245
41	0xbc950d47	-0.018194808
42	0xbc95c0e4	-0.018280454
43	0xbc95cfbe	-0.018287536
44	0xbc95304a	-0.018211503
45	0xbc943f23	-0.018096512
46	0xbc94c144	-0.018158562
47	0xbc955f36	-0.018233877
48	0xbc953f72	-0.01821873
49	0x3ab81749	0.0014045025
50	0x3aa80fbf	0.0012822076
51	0x3aa86116	0.0012846317
52	0x3aa3df40	0.0012502447
53	0x3aac52a7	0.0013147191
54	0x3aaefda3	0.0013350736
55	0x3ab60edd	0.0013889928
56	0x3aaab717	0.0013024536
57	0x3e34242a	0.1759192
58	0xbe298f69	-0.16558613
59	0xbbe2efe9	-0.006925572
60	0x3d9d258b	0.076731764
61	0xbde282f4	-0.110601336
62	0x3aa11758	0.0012290282
63	0x3aab8a6c	0.0013087518
64	0x3d8dfb6a	0.06932719
65	0x3c9c2222	0.019059245
66	0x3ddc7be6	0.10765819
67	0x3c4cda89	0.012503275
68	0xbd8586fa	-0.06519885
69	0x3a9bf215	0.0011897708
70	0x3aa4dafc	0.001257747
71	0xbd1a19c6	-0.037622236
72	0x3c6528a2	0.013986738
73	0xbd841244	-0.064487964
74	0x3db3ef5f	0.08785891
75	0xbd7a027f	-0.061037537
76	0x3aa6569d	0.0012690608
77	0x3aa9b6d9	0.001294817
78	0x3d5bbf68	0.053649336
79	0x3d37301b	0.04472361
80	0xbd56f509	-0.052479777
81	0xbda3d7fe	-0.080001816
82	0xbd0a3e3c	-0.033750758
83	0x3aa8a65d	0.0012866963
84	0x3aaee0c4	0.0013342132
85	0x3d9e4fb0	0.07730043
86	0x3da86de6	0.082240865
87	0x3d6e4c14	0.058178023
88	0x3dff53d4	0.12467161
89	0x3dad46bd	0.08460758
90	0x3aaf513e	0.0013375652
91	0x3aaf9966	0.0013397157
92	0x3ab26a07	0.0013611921
93	0x3ab54bcd	0.0013831794
94	0x3aa4b123	0.0012564998
95	0x3aa810b9	0.0012822367
96	0x3aa2e40d	0.0012427584
97	0x3ab135b8	0.0013520038
98	0x3c098dee	0.008395655
99	0x3c07f492	0.008298056
100	0x3c09938f	0.008396997
101	0x3c0958b7	0.008382968
102	0x3c07cc5c	0.008288469
103	0x3c09912d	0.008396429
104	0x3c08cc91	0.008349554
105	0x3c08ea7b	0.008356686
106	0x3d390b52	0.04517681
107	0x3db72edb	0.08944484
108	0x3d27aff7	0.040939298
109	0x3d212f24	0.039351597
110	0x3d4f14c7	0.050556924
111	0x3c07d5d4	0.008290727
112	0x3c074a4b	0.008257459
113	0x3cba8f01	0.022773268
114	0x3d102358	0.035189956
115	0xbe2ddc02	-0.16978458
116	0xbc8e4283	-0.0173657
117	0x3bb8063f	0.005615979
118	0x3c07b6d9	0.00828334
119	0x3c089f90	0.008338824
120	0x3c82211d	0.01588493
121	0x3d0ba902	0.034096725
122	0xbea65763	-0.32488546
123	0xbc504468	-0.012711622
124	0x3d18cabb	0.037302714
125	0x3c083b9d	0.008314994
126	0x3c07d1c7	0.008289761
127	0x3c1fe919	0.009760165
128	0x3d1b8118	0.03796491
129	0x3cfd0160	0.030884445
130	0x3d04c908	0.03241828
131	0x3d41e8a7	0.047341015
132	0x3c0826de	0.008310048
133	0x3c0852f8	0.008320563
134	0x39aaaf7a	0.00032555667
135	0x3cca64ba	0.024706233
136	0x3c6a9e04	0.0143199
137	0xbc505cad	-0.012717408
138	0x3c6642ae	0.014053984
139	0x3c08aee0	0.008342475
140	0x3c093afc	0.008375879
141	0x3c08626d	0.008324248
142	0x3c090a52	0.008364277
143	0x3c08bf34	0.008346368
144	0x3c0a3df9	0.008437627
145	0x3c075057	0.008258901
146	0x3c0a22b4	0.008431125
147	0x3b280481	0.002563745
148	0x3b26d415	0.0025456
149	0x3b301095	0.0026865352
150	0x3b2e8c13	0.0026633784
151	0x3b26f60b	0.0025476243
152	0x3b2c70e5	0.0026312408
153	0x3b25882e	0.0025258171
154	0x3b238dae	0.0024956274
155	0x3d11b9d9	0.03557763
156	0x3daac128	0.08337623
157	0x3c99d1a1	0.018776717
158	0x3b591ddd	0.0033129372
159	0x3d3cb2e5	0.046069045
160	0x3b286942	0.0025697504
161	0x3b26b5e5	0.0025438007
162	0x3cf6e24f	0.03013721
163	0xbc674f21	-0.014117987
164	0x3c47aeed	0.012187702
165	0xbdae7bb4	-0.08519688
166	0x3b3e2700	0.0029014945
167	0x3b21c88b	0.0024686183
168	0x3b2ea3fa	0.002664803
169	0xbd970695	-0.07374302
170	0xbba0f5e8	-0.004912127
171	0x3b467f48	0.0030288268
172	0x3d208615	0.03919037
173	0x3cc83c86	0.024442922
174	0x3b25d1aa	0.0025301971
175	0x3b2afdce	0.002609122
176	0x3d286d59	0.041119907
177	0xbd1a824e	-0.037721924
178	0xbcd9da1c	-0.02659326
179	0x3a0c6b43	0.00053565594
180	0x3bc57ca9	0.0060268235
181	0x3b2e90cd	0.00266366
182	0x3b2764f9	0.0025542362
183	0x3e0b709f	0.1361718
184	0xbe282363	-0.16419749
185	0xbcfcac63	-0.03084392
186	0xbe77a9c1	-0.2418585
187	0x3e68d4e7	0.22737466
188	0x3b23fba8	0.0025021825
189	0x3b2854a6	0.002568522
190	0x3b2a5c49	0.0025994948
191	0x3b257f14	0.0025252746
192	0x3b2519b1	0.0025192315
193	0x3b3028d9	0.0026879816
194	0x3b279211	0.002556924
195	0x3b2a74cf	0.0026009565
196	0xbccebbb6	-0.025235992
197	0xbccef534	-0.025263406
198	0xbcd0616d	-0.025437081
199	0xbccebe6c	-0.025237285
200	0xbcd00e8f	-0.025397567
201	0xbcceec9a	-0.025259305
202	0xbcd03a5e	-0.025418457
203	0xbccf8a46	-0.025334489
204	0xbcc8f82a	-0.024532396
205	0xbd41c613	-0.04730804
206	0x3d14079d	0.036140073
207	0x3cbd57ff	0.023113249
208	0x3cf1c3dd	0.02951234
209	0xbccf3269	-0.025292592
210	0xbccf0734	-0.02527199
211	0xbd182274	-0.037142232
212	0xbaba17e8	-0.0014197798
213	0xbbe1dd57	-0.006892841
214	0xbbc1ac2c	-0.005910417
215	0x3c942395	0.018083373
216	0xbccfbd8b	-0.025358936
217	0xbccedace	-0.025250819
218	0xbc9214ea	-0.017832238
219	0xbdd31869	-0.1030739
220	0xbe37ba27	-0.17942105
221	0xbe9de972	-0.30842167
222	0x3d278ac0	0.040903807
223	0xbccef55c	-0.02526348
224	0xbccf8cc2	-0.025335673
225	0xbd4537ff	-0.048149105
226	0xbd4652e4	-0.048418894
227	0xbcf11511	-0.02942899
228	0xbe33df98	-0.17565763
229	0xbe8a8d25	-0.2706081
230	0xbcd075c3	-0.025446778
231	0xbccfa5ac	-0.025347553
232	0xbcd4e543	-0.025988227
233	0xbc33492a	-0.010942737
234	0xbc0e7738	-0.008695416
235	0xbd7b6d45	-0.061383504
236	0xbdd86426	-0.10565977
237	0xbcd03ec8	-0.025420561
238	0xbcceb13a	-0.025230993
239	0xbccf8297	-0.025330825
240	0xbccfdc4e	-0.025373604
241	0xbccf9da6	-0.025343727
242	0xbcd00ea1	-0.0253976
243	0xbcd042f2	-0.025422547
244	0xbcd056a9	-0.025431948
245	0x3c40a682	0.011758449
246	0x3c4341cb	0.011917542
247	0x3c427c61	0.011870475
248	0x3c43e134	0.011955548
249	0x3c41e362	0.011833997
250	0x3c4380fa	0.011932606
251	0x3c40b1d4	0.0117611475
252	0x3c4395fb	0.011937614
253	0xbd5fe4da	-0.05466161
254	0xbe10a266	-0.1412445
255	0xbe89e873	-0.26935157

layer1.bias f4 [128]
0	0x3c940a52	0.018071327
1	0xbaa4895a	-0.0012553141
2	0xbc0a9901	-0.008459331
3	0xbb23e517	-0.0025008374
4	0x3cd0614e	0.025437023
5	0xbc437bda	-0.011931384
6	0xbc6b7f6d	-0.014373642
7	0x3b7a318a	0.00381765
8	0xbb43248d	-0.0029776425
9	0xbb608960	-0.003426157
10	0xbc8788b6	-0.016544681
11	0xbc2173e6	-0.0098542925
12	0xbb932cc9	-0.004491423
13	0x3c3c4898	0.011491917
14	0xbc24b4fe	-0.0100529175
15	0xbc52d9d2	-0.012869315
16	0xbc0a7999	-0.008451843
17	0xbc37b51b	-0.0112126125
18	0xbc7b63da	-0.015343631
19	0xbbdbd878	-0.0067091547
20	0x3cab1d4d	0.020887995
21	0xbca526b3	-0.020160055
22	0xbbd16c5d	-0.0063910917
23	0x3d4969bc	0.0491731
24	0xbc646f32	-0.013942527
25	0xba6bf6f3	-0.0009001337
26	0xbc156ff4	-0.00912093
27	0xbc1df931	-0.009641931
28	0xbb245e5e	-0.0025080661
29	0xbc1fbc98	-0.009749554
30	0x3aa1d1fc	0.0012345905
31	0xbc87caa2	-0.016576115
32	0xbc82d29e	-0.01596957
33	0xbc92a970	-0.01790306
34	0xbb47668b	-0.003042611
35	0xbc83d4d3	-0.016092693
36	0xbb704fec	-0.003666873
37	0xbc72f199	-0.014828109
38	0xbc80e7ff	-0.015735624
39	0x3b1a3ed8	0.0023535993
40	0xbb405a61	-0.0029350745
41	0xbc96ab49	-0.018392222
42	0xbb1b263e	-0.0023673917
43	0xbc2646b8	-0.010148697
44	0xbbd7ddf2	-0.0065877372
45	0xbc2793f0	-0.010228142
46	0xbc6337be	-0.01386827
47	0xbc4a16b8	-0.012334518
48	0xbc14291d	-0.009043005
49	0x3c0a61c7	0.0084461635
50	0xbca7ef8f	-0.020499973
51	0xbb35f45f	-0.0027764065
52	0xbc7ca731	-0.015420721
53	0x3d52aa0f	0.05143171
54	0x3ce665e6	0.02812476
55	0x3d0f77dd	0.03502642
56	0xbc1cf198	-0.009579085
57	0xbc87cd49	-0.01657738
58	0xbbac7da9	-0.0052640033
59	0xbc4012fa	-0.011723274
60	0x3ac1900d	0.0014767662
61	0xbc0e44b1	-0.0086833695
62	0xbb78f9fc	-0.00379908
63	0xbc0d61dc	-0.0086292885
64	0xb8be9470	-9.087555e-05
65	0x3ce56143	0.02800048
66	0xbc07bf8d	-0.008285415
67	0xba3e86ec	-0.000726803
68	0xbcbb2c48	-0.022848263
69	0xbbaeacc8	-0.0053306557
70	0xbbacd591	-0.0052744825
71	0xbcbb1ec4	-0.022841819
72	0x3abc6693	0.0014373831
73	0xbce6011b	-0.028076699
74	0xbc05e11a	-0.008171344
75	0xbc2b86c7	-0.010469145
76	0x3cb55dc7	0.022139443
77	0x3d23620e	0.039888434
78	0x3ddb387d	0.10704134
79	0x3d89d304	0.06729701
80	0x3d831759	0.064009376
81	0xbb4af8e4	-0.0030971104
82	0x3bc243b7	0.0059284824
83	0xbc71aa1e	-0.014750032
84	0xbc53173a	-0.012883956
85	0x3c08aa1f	0.008341341
86	0xbc1e883e	-0.009676037
87	0x3cb9cc1a	0.022680331
88	0xbc13e563	-0.009026858
89	0xbad64310	-0.001634689
90	0x3d096295	0.03354128
91	0xbc039db5	-0.008033206
92	0xbbb9ec35	-0.00567391
93	0xba6a1611	-0.000892968
94	0x3c75d0f2	0.01500343
95	0x3cc784a8	0.024355248
96	0x3d0ceee0	0.034407496
97	0xbc7a4917	-0.015276215
98	0xbc1b67ac	-0.0094851665
99	0xba1376e1	-0.00056253193
100	0xbc246db8	-0.010035925
101	0xbc76a191	-0.015053169
102	0xbc01cfac	-0.007923048
103	0xbc24bdce	-0.010055019
104	0xbc34f52a	-0.01104478
105	0xbc84ceaa	-0.016211826
106	0xbc70e3a9	-0.014702716
107	0x3b208889	0.0024495444
108	0x3d1f3393	0.038867544
109	0xbbb445c4	-0.005501481
110	0xbbb2d5c3	-0.0054576113
111	0xbd12b6b3	-0.035818767
112	0xbc4a21bc	-0.012337144
113	0xbca84cdd	-0.020544464
114	0xbc96f261	-0.018426122
115	0x3d50a43c	0.050937876
116	0xbc4f1651	-0.012639598
117	0xbc5e8a7c	-0.013582822
118	0xbc238fab	-0.009982984
119	0x3d6d919e	0.0580002
120	0xbbdc1c18	-0.006717216
121	0xbc80938d	-0.015695358
122	0xbc1ea79a	-0.009683514
123	0xbc38083b	-0.011232431
124	0x3d92a3f4	0.07160178
125	0x3b2c28c4	0.0026269415
126	0xbc369bc3	-0.011145535
127	0x3b6a505d	0.0035753467

layer2.weight f4 [64, 128]
0	0xbd88dcdf	-0.06682753
1	0x3c9d1a0d	0.019177461
2	0xbc5b7277	-0.01339399
3	0x3ae2e57b	0.0017310822
4	0x3d3b7bef	0.04577249
5	0xbe3bc694	-0.1833747
6	0xbe28a276	-0.16468224
7	0xbcf30fea	-0.029670674
8	0x3d99f712	0.07517828
9	0xbda32887	-0.07966714
10	0x3c0300ac	0.007995766
11	0xbd727f9d	-0.059203733
12	0xbd2ee050	-0.04269439
13	0xbd281db9	-0.04104397
14	0xbe995e43	-0.29954728
15	0xbd4a4094	-0.049377993
16	0x3c157aa3	0.009123477
17	0x3e38ad59	0.18034877
18	0x3d213dfd	0.039365757
19	0x3b17b8f0	0.0023151003
20	0x3da16345	0.07880262
21	0xbbd12996	-0.0063831313
22	0x3d9c5671	0.07633675
23	0x3cd5d7bd	0.026103849
24	0x3c54a684	0.012979154
25	0xbe0200e6	-0.12695655
26	0xbd65c35a	-0.056094505
27	0x3c9ec679	0.019381749
28	0x3e1955bb	0.1497411
29	0x3d3c331d	0.045947183
30	0x3d51ab90	0.051189005
31	0xbdc7933d	-0.0974488
32	0x3e293f72	0.16528109
33	0x3d0e00ce	0.034668736
34	0xbc7fb894	-0.015607972
35	0xbdd463d4	-0.10370603
36	0x3cf50208	0.029908195
37	0xbe0ba26e	-0.13636181
38	0x3caa05a7	0.020754648
39	0xb9a0a38f	-0.0003063944
40	0x3d2fee1a	0.04295168
41	0xbe33c24f	-0.17554592
42	0x3d4be84c	0.049782082
43	0xbd8ff4da	-0.070291236
44	0x3db919d0	0.090381265
45	0x3d70ac7a	0.058758236
46	0xbd75ab5c	-0.059977874
47	0xbd9fdfe3	-0.07806375
48	0xbdbf7fe3	-0.09350564
49	0xbcde3c66	-0.02712841
50	0x3db640e9	0.088990994
51	0xbd7a3204	-0.061082855
52	0x3df17f95	0.117919125
53	0x3d4ddb51	0.050257985
54	0x3aafece4	0.0013422039
55	0xbcdfdec3	-0.0273279
56	0xbdccaa32	-0.099934
57	0x3d9b5913	0.07585349
58	0x3b3d4b98	0.0028884169
59	0xbce624b3	-0.028093671
60	0x3ca5f3e8	0.020257905
61	0x3e2ef245	0.17084606
62	0xbe0de409	-0.1385652
63	0xbce5396d	-0.027981484
64	0xb804d2f8	-3.1667732e-05
65	0x3d2f8993	0.04285581
66	0xbd799931	-0.06093711
67	0x3d098e9e	0.033583276
68	0x3df06c5b	0.11739417
69	0x3c22a551	0.00992711
70	0xbd5942a0	-0.053042054
71	0xbd9881f2	-0.0744666
72	0xbd79d8fe	-0.060997956
73	0x3de06c9c	0.109582156
74	0xbd18322d	-0.037157226
75	0x3cc13564	0.023585029
76	0x3d8d1773	0.06889238
77	0xbca0c947	-0.019627227
78	0xbbb81b41	-0.0056184833
79	0x3bb196d5	0.005419592
80	0x3d506517	0.050877657
81	0x3c6daa12	0.01450588
82	0x3d02e2b5	0.031954486
83	0xbe57da4e	-0.2107937
84	0xbebccc50	-0.36874628
85	0xbd5e0973	-0.05420823
86	0x3da281d7	0.07934921
87	0xbd1d2f35	-0.0383751
88	0x3d0b93bb	0.034076434
89	0x3d4b62df	0.049654838
90	0x3d2b82da	0.041872837
91	0xbc96a7ac	-0.018390499
92	0x3c366d90	0.01113452
93	0xbd297784	-0.041373745
94	0xbd488364	-0.04895343
95	0xbdcb2281	-0.099186905
96	0x3c982b22	0.018575255
97	0x3c7547b6	0.0149707105
98	0xbe5bdf81	-0.21471979
99	0xbef5d993	-0.48017558
100	0xbc4c1bde	-0.012457816
101	0x3cb3449a	0.021883298
102	0xbd0f0d48	-0.034924775
103	0x3d8ec8f9	0.06971926
104	0xbd06bbec	-0.03289406
105	0xbe055fdd	-0.1302485
106	0x3ce6725f	0.028130708
107	0xbdea1151	-0.11429084
108	0x3b69c06e	0.0035667676
109	0xba4c4f90	-0.0007793838
110	0xbceecd0e	-0.029150512
111	0xbdf04061	-0.11731029
112	0xbb1403f1	-0.0022585357
113	0xbd6d1f30	-0.05789107
114	0x3dcb7958	0.09935254
115	0x3c1f7efc	0.009734865
116	0x3d1d973c	0.038474306
117	0x3c15a101	0.009132625
118	0x3c185841	0.009298385
119	0xbd19adf0	-0.037519395
120	0xbd6524fc	-0.055943474
121	0x3e2c6d5e	0.16838595
122	0xbd8f5305	-0.069982566
123	0x3ddbe073	0.1073617
124	0xbd11a81c	-0.035560712
125	0x3d826589	0.063670225
126	0x3e0bf3bb	0.13667195
127	0x3d728b47	0.059214856
128	0xbd8e43b7	-0.06946509
129	0x3d463207	0.048387554
130	0x3ca17160	0.019707382
131	0xbe20b986	-0.15695772
132	0x3dadf7e3	0.08494546
133	0xbc232b26	-0.009959018
134	0xbd3d3ed8	-0.04620251
135	0x3d189913	0.037255358
136	0xbe073157	-0.13202415
137	0xbd96a377	-0.07355397
138	0xbd392f7b	-0.045211297
139	0xbbdb04c4	-0.0066839177
140	0xbda4a4fe	-0.08039282
141	0xbc1be732	-0.0095155705
142	0x3da8e32d	0.08246455
143	0x3e1a50d9	0.15069903
144	0x3a987b56	0.0011633437
145	0xbd6350bd	-0.05549692
146	0xbd807d0f	-0.06273853
147	0xbd77dde4	-0.060514346
148	0xbda53b61	-0.08067966
149	0x3d60ed58	0.05491385
150	0x3bbd55ed	0.0057780654
151	0x3d2e6073	0.04257245
152	0xbc6a7afe	-0.01431155
153	0xbde4bb5e	-0.1116855
154	0xbdb492c1	-0.088170536
155	0xbdc91aeb	-0.09819587
156	0xbd236ddf	-0.039899703
157	0x3cf91f57	0.030410452
158	0x3c9a8e9e	0.018866833
159	0xbc89ae06	-0.016806614
160	0x3d80a80c	0.062820524
161	0x3d219bbd	0.039455164
162	0xbcc0b6c3	-0.023524648
163	0x3dd01aea	0.101613835
164	0x3e8d244e	0.2756676
165	0xbe10d952	-0.14145401
166	0x3ddb01e2	0.106937185
167	0x3d2d0a22	0.04224599
168	0x3da41b3c	0.08013007
169	0xbcfbd927	-0.030743195
170	0x3c0d62e0	0.008629531
171	0x3db7248c	0.08942518
172	0xbdac991a	-0.08427639
173	0x3bca71e2	0.0061781267
174	0x3d0b1781	0.033957962
175	0xbca6ab7a	-0.020345438
176	0xbe8f7b4b	-0.28023753
177	0xbcefa60e	-0.029253986
178	0xbda38286	-0.0798388
179	0x3e86410c	0.26221502
180	0xbded45f0	-0.11585605
181	0x3d1d26eb	0.038367193
182	0x3d8b1356	0.067907974
183	0x3b5bfd61	0.0033567774
184	0x3d9d244b	0.07672938
185	0xbca016f9	-0.019542204
186	0xbeaff034	-0.34362948
187	0xbd9818e6	-0.07426624
188	0xbd9436b1	-0.07236994
189	0xbe3504de	-0.17677638
190	0x3d944b9d	0.072409846
191	0xbd599c92	-0.053127833
192	0x376aeab5	1.4002134e-05
193	0x3d1ac46f	0.03778499
194	0xbd7fd5e1	-0.06245983
195	0x3df09e57	0.11748951
196	0xbc53f904	-0.012937788
197	0xbc94a494	-0.018144883
198	0x3da57ee6	0.080808446
199	0xbd87af67	-0.06625252
200	0x3cd646c2	0.026156787
201	0xbe07d235	-0.13263781
202	0x3ccf4e8e	0.025306012
203	0x3b27f223	0.0025626502
204	0xbdd2d728	-0.10294944
205	0x3ad8b281	0.001653269
206	0xbd4fadd5	-0.05070289
207	0xbc2ecd63	-0.010669085
208	0xbc9b84a4	-0.018984146
209	0xbd6ab99b	-0.057305913
210	0xbd94ccb0	-0.072656035
211	0xbc005c0a	-0.007834444
212	0xbdfbb0c3	-0.12289574
213	0xbd36d0b7	-0.04463264
214	0x3df42252	0.119206086
215	0xbc98f197	-0.018669887
216	0xbdb09d17	-0.086237125
217	0xbc9dd67e	-0.019267317
218	0xbdaa3caf	-0.08312356
219	0x3d251732	0.040305324
220	0x3cb25a8a	0.021771688
221	0xbcf8be3f	-0.030364154
222	0xbdc2ca01	-0.095111854
223	0xbc841910	-0.016125232
224	0x3d3a3ae9	0.045466337
225	0x3e4f90eb	0.20270126
226	0x3e10f0f5	0.14154418
227	0x3e5cdde0	0.21569014
228	0x3e34a1ce	0.17639849
229	0x3e019b3d	0.12656875
230	0xbe3d9e16	-0.18517336
231	0x3e04a006	0.12951669
232	0xbcb793b3	-0.022409296
233	0x3dac6309	0.08417327
234	0xbcd067e2	-0.02544016
235	0xbd1bc859	-0.038032863
236	0xbd08f1d8	-0.033433765
237	0x3e1983b9	0.14991654
238	0xbd01c145	-0.031678457
239	0x3ce0f83e	0.027462121
240	0xbddb99e8	-0.10722715
241	0x3c0d56d3	0.008626658
242	0xbc8bb74d	-0.017055178
243	0xbbdbe6e5	-0.0067108744
244	0x3d94adb1	0.072596915
245	0xbe357757	-0.17721306
246	0x3bc6f437	0.006071593
247	0x3ca790aa	0.020454723
248	0xbea6ed12	-0.32602745
249	0xbdca5633	-0.098797224
250	0xbb8c4556	-0.0042807264
251	0xbd13558a	-0.03597025
252	0xbcd8ab5e	-0.026448902
253	0x3e5f80dc	0.218265
254	0xbe0c76c7	-0.13717185
255	0x3d6d0c7e	0.05787324

layer2.bias f4 [64]
0	0x3c1bbb04	0.009505037
1	0x3d0f045b	0.034916263
2	0x3cdfcb6a	0.027318675
3	0x3c35031d	0.011048106
4	0x3e03a1d6	0.12854704
5	0x3c6b37a9	0.014356532
6	0x3ba16343	0.004925163
7	0x3e001fdf	0.12512158
8	0x3d0ed1de	0.034868114
9	0x3c49b7dc	0.012311902
10	0x3b9fc329	0.00487556
11	0x3cb91683	0.022593742
12	0x3d74d82b	0.059776466
13	0x3c56aba5	0.013102447
14	0x3e251171	0.16119935
15	0x3b3e6557	0.0029052102
16	0x3e14b1bc	0.14520925
17	0x3dbf605c	0.09344551
18	0x3ceed286	0.02915312
19	0x3dd7139e	0.105017886
20	0x3ce2a3f5	0.027666071
21	0x3abc35b1	0.0014359263
22	0x3bcfc480	0.0063405633
23	0x3c9afaf1	0.018918486
24	0x3ce9a3a8	0.02852042
25	0x3c1d2a95	0.009592672
26	0x3cb2cba2	0.021825615
27	0x3ce0e318	0.027452037
28	0x3cb295ce	0.021799948
29	0x3c897315	0.016778508
30	0x3d5f22ea	0.054476656
31	0x3cec8f68	0.028876975
32	0xbd0b93fd	-0.03407668
33	0x3d3d30f3	0.04618926
34	0x3d1da8ce	0.038491063
35	0x3c95025a	0.018189598
36	0x3cf0371d	0.029323155
37	0x3e090cbf	0.13383768
38	0x3b8dffe6	0.004333484
39	0x3c090990	0.008364096
40	0x3cebc115	0.028778592
41	0x3be20120	0.0068971068
42	0x3d1e36b5	0.03862639
43	0x3bf87181	0.00758189
44	0x3d8056db	0.06266566
45	0x3d356aa6	0.04429116
46	0x3cf3fb91	0.029783042
47	0x3d0e8f31	0.034804527
48	0x3bbf9b53	0.0058473735
49	0x3c1098fc	0.008825537
50	0x3d2f9a6c	0.042871878
51	0x3b5f7d72	0.003410187
52	0x3e0f2f7f	0.13982962
53	0x3cb7ca17	0.022435231
54	0xbaca78fd	-0.0015447434
55	0x3d35acbe	0.044354193
56	0x3d41ed36	0.047345363
57	0x3d6a0d63	0.057141673
58	0x3d19c8ab	0.037544888
59	0x3c92c6bc	0.01791703
60	0x3d1202c4	0.03564717
61	0x3d39a599	0.04532394
62	0x3cb39cd3	0.021925366
63	0x3c9fe0b0	0.019516319

layer3.weight f4 [4, 64]
0	0x3ed6077c	0.41802585
1	0xbea0c351	-0.31399015
2	0x3d5fec44	0.05466868
3	0xbe26ffb6	-0.16308483
4	0x3e6b5910	0.22983193
5	0x3f0a0b0a	0.53923094
6	0x3f0af4d7	0.54279846
7	0x3eb1df4e	0.3474068
8	0x3eb3123f	0.34974858
9	0xbdd7c917	-0.10536402
10	0x3dd13a1a	0.1021616
11	0x3e6389f6	0.22220597
12	0xbe89577e	-0.26824564
13	0x3e685545	0.22688778
14	0x3eb9bd0f	0.36277053
15	0xbdfafda9	-0.12255413
16	0x3e9d9b95	0.30782762
17	0x3ead40c1	0.33838466
18	0xba3eeb6f	-0.0007283007
19	0x3ea70dd3	0.32627735
20	0x3eb9ecc5	0.36313453
21	0x3ebb7ade	0.36617178
22	0x3e8d8528	0.27640653
23	0x3ecdc32a	0.4018796
24	0x3e8cb15b	0.2747906
25	0xbc30dbf3	-0.0107946275
26	0x3f02b4b9	0.5105701
27	0x3eaed01e	0.34143156
28	0x3e15a12f	0.14612268
29	0xbe135343	-0.1438723
30	0x3e341b02	0.17588428
31	0x3ec8f3c7	0.39248487
32	0x3e60fd09	0.21971525
33	0xbd4bf27c	-0.049791798
34	0x3dad02d8	0.08447808
35	0x3dc74819	0.097305484
36	0x3e780c09	0.24223341
37	0xbe99f928	-0.30072904
38	0x3f070d2c	0.52754474
39	0xbd6aaa5a	-0.057291366
40	0x3e306f72	0.17230013
41	0x3e6b8e1d	0.2300343
42	0xbe9a1988	-0.30097604
43	0x3e5bc715	0.21462663
44	0x3efe1a41	0.49629405
45	0xbef52115	-0.47876802
46	0x3db03e8d	0.086056806
47	0x3ee9d130	0.4566741
48	0x3eb91539	0.36149004
49	0x3ece2fb5	0.40270773
50	0x3e742025	0.23840387
51	0xbdd94008	-0.10607916
52	0x3e859d78	0.26096702
53	0x3c13b864	0.00901613
54	0xbf180a49	-0.59390694
55	0x3e495e13	0.19664793
56	0x3e60d6d2	0.21956947
57	0x3f144abf	0.57926553
58	0x3de8d200	0.11368179
59	0x3cb07638	0.021540746
60	0xbd07ab62	-0.033122428
61	0x3e6dda0a	0.23227707
62	0x3e9cbe28	0.30613828
63	0x3edefb05	0.43550888
64	0x3d252f98	0.040328592
65	0x3ef2a071	0.47388032
66	0x3deb45c9	0.1148792
67	0x3d735906	0.05941107
68	0x3e7b22a2	0.2452493
69	0x3dbbfc67	0.09179001
70	0x3dee4870	0.1163491
71	0x3eb33559	0.3500164
72	0x3f15c310	0.58500767
73	0xbf036b8c	-0.5133598
74	0xbe42cc46	-0.19023237
75	0x3e396488	0.18104756
76	0xbeac3fc3	-0.33642396
77	0xbecf1eb2	-0.40453106
78	0x3ea4af2c	0.32164896
79	0xbe318768	-0.1733681
80	0x3ebe0eb7	0.37120602
81	0x3e97f9c8	0.29682755
82	0x3ee2f675	0.44328657
83	0x3eba6251	0.36403134
84	0x3e336ca0	0.17521906
85	0x3eaaa721	0.33330634
86	0x3e832b65	0.25619045
87	0x3e6ecb30	0.23319697
88	0x3e441873	0.19149952
89	0xbd0408cf	-0.032234963
90	0x3eb809db	0.3594502
91	0x3e97feea	0.29686671
92	0x3e88d4f8	0.26724982
93	0x3e00c61c	0.12575573
94	0x3eb7581b	0.35809407
95	0x3e4cd0b2	0.20001486
96	0xbee861db	-0.45387158
97	0xbdd6da19	-0.104908176
98	0x3f01068e	0.50400627
99	0x3e860c7e	0.26181406
100	0xbefb22e5	-0.4905006
101	0xbe79fa38	-0.24411857
102	0x3dc71614	0.09721008
103	0x3ec80b14	0.39070952
104	0x3ecc300f	0.39880416
105	0x3ee4fa7b	0.4472235
106	0x3eb1fb1f	0.34761903
107	0x3ebfb87a	0.37445432
108	0x3e93d3b6	0.2887246
109	0x3d6080f2	0.05481047
110	0x3dba40c3	0.090943836
111	0x3ebc86fd	0.36821738
112	0x3e5083a8	0.20362723
113	0x3e799f93	0.24377279
114	0x3e50d017	0.2039188
115	0x3efe6ef7	0.49694034
116	0x3e82c3eb	0.255401
117	0x3f1313ad	0.574519
118	0xbd033967	-0.032037165
119	0x3db96fa0	0.09054494
120	0xbedb4559	-0.42826346
121	0x3ea82526	0.32840842
122	0x3e8478b1	0.2587333
123	0x3ec5df7c	0.38647068
124	0x3e9511f8	0.29115272
125	0x3e6bfd9e	0.23045966
126	0xbde1a914	-0.11018577
127	0x3e1f9e06	0.15587625
128	0xbe864d8a	-0.26231033
129	0x3e346ae4	0.176189
130	0x3eb6d75d	0.35711184
131	0x3f32bb97	0.6981749
132	0x3e6d7e90	0.23192811
133	0x3d559818	0.052147
134	0x3ec18e4d	0.3780388
135	0x3ea770e0	0.32703304
136	0x3e9cab8b	0.30599627
137	0x3e0e9c60	0.1392684
138	0x3e5ded2b	0.21672504
139	0x3e4a2713	0.19741468
140	0xbe7d05f6	-0.24709305
141	0xbc5e9c92	-0.013587134
142	0x3ebc0d7f	0.36729047
143	0xbe171ea4	-0.14757782
144	0x3ebd3fd0	0.36962748
145	0x3eb9f464	0.36319268
146	0x3eb6d8b7	0.35712215
147	0x3e9657b1	0.29363778
148	0x3e0b3a4d	0.13596459
149	0xbf26abc1	-0.65105826
150	0x3ef1a906	0.47199267
151	0xbdad56e6	-0.0846384
152	0x3e6c0269	0.23047794
153	0x3d9baf9b	0.076018535
154	0x3e80972e	0.2511534
155	0x3ecc0354	0.3984629
156	0x3ec2673b	0.37969384
157	0x3eecf8b5	0.46283498
158	0x3eafd658	0.3434322
159	0x3d1dba11	0.038507525
160	0x3cf0b387	0.02938248
161	0xbe8f2806	-0.27960223
162	0x3ecb1cfe	0.39670557
163	0xbef91571	-0.4864917
164	0x3dd7538e	0.10513984
165	0xbe5dbcc2	-0.21654037
166	0xbe75732a	-0.23969713
167	0x3d04df6b	0.03243963
168	0x3e77c20e	0.2419512
169	0xbe3c82fd	-0.18409343
170	0x3e7194d0	0.23591924
171	0x3d937a11	0.07201017
172	0x3f045287	0.51688427
173	0x3e4e659b	0.20155947
174	0x3f0467bd	0.5172079
175	0x3eb61f0c	0.35570562
176	0xbe96736b	-0.29384932
177	0x3e80ff36	0.2519471
178	0x3e5dd942	0.21664909
179	0x3d97b378	0.07407278
180	0x3e871366	0.26381987
181	0x3eb487a4	0.35259736
182	0x3ea40595	0.3203551
183	0x3ea1a7a2	0.31573206
184	0x3ddcd556	0.10782878
185	0x3e04a29a	0.12952653
186	0x3ed02b94	0.40658247
187	0x3e4c5c83	0.19957165
188	0xbf189c26	-0.59613264
189	0x3e335df4	0.17516309
190	0x3e446fff	0.19183348
191	0x3e81f9a2	0.25385767
192	0x3da17b48	0.07884842
193	0x3e091589	0.13387121
194	0x3e848bf7	0.25888035
195	0x3e08e6b2	0.13369253
196	0x3e5eb74d	0.21749611
197	0xbbafd132	-0.005365514
198	0xbc462b70	-0.012095317
199	0x3ebf1405	0.3731996
200	0x3e5347f4	0.20632917
201	0x3ebc69a2	0.3679934
202	0x3f0fc962	0.5616666
203	0x3e02c876	0.12771782
204	0xbe4a647d	-0.19764896
205	0x3f066585	0.52498657
206	0x3ead2464	0.33816826
207	0x3f1378ef	0.57606405
208	0x3ea84997	0.32868645
209	0x3ec4a2ec	0.3840555
210	0x3c69ef8e	0.014278306
211	0x3ea4112d	0.32044354
212	0x3da013f9	0.078163095
213	0x3e2cc967	0.16873704
214	0x3eeb2f06	0.45934314
215	0x3e3cc2f2	0.1843374
216	0x3ec382f7	0.38185856
217	0x3f125792	0.5716487
218	0x3efd1973	0.4943348
219	0x3e414e73	0.18877582
220	0x3ebe888f	0.3721356
221	0x3c19473d	0.009355363
222	0x3ed3fd66	0.41404265
223	0x3ecc2c5a	0.39877588
224	0xbca5ef92	-0.020255838
225	0xbe73793d	-0.23776717
226	0x3e8e5e9e	0.27806562
227	0x3e4345ae	0.1906955
228	0x3ea961ad	0.33082333
229	0xbe8100c2	-0.2519589
230	0xbe1b7ffa	-0.15185538
231	0xbf0df1f4	-0.55447316
232	0x3e3cae10	0.18425775
233	0xbd8622a1	-0.06549574
234	0xbc62231d	-0.013802317
235	0xbcd46f56	-0.025931995
236	0x3f2e6325	0.6812003
237	0x3e69c5b9	0.22829331
238	0x3e57e054	0.21081668
239	0x3ea0e65a	0.31425744
240	0x3e25fdf3	0.16210155
241	0x3da99bf9	0.082817025
242	0x3ec8799b	0.39155278
243	0xbe8781fd	-0.2646636
244	0x3e6fa36b	0.23402183
245	0xbe7a9816	-0.24472079
246	0x3dd0e2e7	0.10199528
247	0x3e5ce694	0.21572334
248	0xbeaf5046	-0.3424093
249	0xbd9a5f34	-0.0753769
250	0x3e5c6d35	0.21526034
251	0xbef09417	-0.46987984
252	0x3ed2bce5	0.4115974
253	0x3e873905	0.2641069
254	0x3ed6a853	0.41925296
255	0x3cfdbe78	0.030974612

layer3.bias f4 [4]
0	0x3d8a5e4e	0.067562684
1	0x3d5e8b41	0.05433202
2	0x3dacfc3e	0.08446549
3	0x3d88dd41	0.06682826
