state_dic_target_net/test_v6_.pth (torch, 55199 bytes, 6 tensors)

layer1.weight f4 [128, 36]
0	0xbceb5894	-0.02872876
1	0x3c9c58a7	0.019085241
2	0x3d7c38a9	0.061577473
3	0x3d4d1e9e	0.050078027
4	0x3d273fda	0.040832378
5	0x3d1bb27e	0.03801202
6	0xbd8e0675	-0.06934825
7	0xbd940d38	-0.07229084
8	0xbd88207d	-0.06646822
9	0xbdf8db3c	-0.12151191
10	0xbdadf276	-0.084935114
11	0x3d58f413	0.052967142
12	0xbd69aad8	-0.057047695
13	0x3df03d44	0.117304355
14	0x3e4c9ea5	0.19982393
15	0x3e83afb3	0.25719985
16	0x3e1b03f8	0.15138233
17	0x3d49970d	0.04921632
18	0x3d33a42b	0.043857735
19	0xbd995e61	-0.074887045
20	0xbeeb8563	-0.46000203
21	0xbea40ec1	-0.32042506
22	0xbdd46ae7	-0.103719525
23	0xbd3f3f4e	-0.04669123
24	0xbcadd296	-0.02121858
25	0x3df7103f	0.120636456
26	0x3e4794be	0.19490334
27	0x3e11a194	0.14221793
28	0x3e129f44	0.14318568
29	0x3d4ea512	0.050450392
30	0xbd547d0a	-0.05187706
31	0x3d93c435	0.07215158
32	0x3c819433	0.015817737
33	0xbdad16fd	-0.0845165
34	0xbd97e587	-0.07416826
35	0x3d3e2c63	0.04642905
36	0x3dd23ca2	0.10265471
37	0xbcbed4c4	-0.023294814
38	0x3d4339dc	0.0476626
39	0x3e0d5b5e	0.13804385
40	0xbc3d7c8f	-0.011565342
41	0x3e0fcbdd	0.14042611
42	0xbc98d76d	-0.01865741
43	0xbf0f6959	-0.5602012
44	0xbeeb5ce8	-0.4596932
45	0xbe9b170c	-0.3029102
46	0x3daa4a6d	0.08314977
47	0x3da4cbe5	0.08046702
48	0x3dfb8afb	0.12282368
49	0x3dcfdeed	0.101499416
50	0xbef2cfbc	-0.47424114
51	0xbf0b13c7	-0.5432705
52	0x3ea51694	0.32243788
53	0x3c95bc66	0.018278312
54	0x3d703a4b	0.058649343
55	0x3e3aa94e	0.18228647
56	0x3e695aac	0.22788495
57	0x3e855276	0.26039475
58	0x3e60cbc2	0.21952727
59	0x3dcb9aeb	0.09941658
60	0xbcbdead9	-0.023183273
61	0x3e519b12	0.20469311
62	0x3e91ef43	0.28502855
63	0x3e92f8ef	0.28705546
64	0x3e6157de	0.22006175
65	0x3a615f34	0.0008597255
66	0xba6ec744	-0.00091086724
67	0xbcae1faa	-0.021255333
68	0xbcbb4c98	-0.022863671
69	0x3c5a1a22	0.013311895
70	0x3bd26771	0.0064210226
71	0x3ccb1e71	0.024794789
72	0xbc3547a6	-0.011064446
73	0x3d88d20d	0.06680689
74	0xbd6b3b5a	-0.05742965
75	0xbda92305	-0.082586326
76	0xbd94bb68	-0.072623074
77	0x3c2eea26	0.0106759425
78	0xbc911da1	-0.017714323
79	0xbf3868e0	-0.72035027
80	0xbd794103	-0.060853016
81	0xbd349c89	-0.044094596
82	0xbd159697	-0.036520567
83	0xbdb1a883	-0.08674719
84	0xbdc15e03	-0.094417594
85	0xbdd3455a	-0.10315962
86	0x3cd36b10	0.025807887
87	0xbd9333e7	-0.07187634
88	0x3ea54359	0.32277945
89	0xbd4a3f77	-0.04937693
90	0xbda6b3b5	-0.08139745
91	0xbef6f65d	-0.48234835
92	0x3d475987	0.048669364
93	0xbbc386f1	-0.005967014
94	0xbd8edb19	-0.06975383
95	0xbdd4a124	-0.10382298
96	0x3d4872d2	0.048937626
97	0xbf050fe9	-0.519774
98	0x3b3dfbca	0.002898919
99	0xbd4821a3	-0.048860203
100	0x3dfbb89e	0.12291072
101	0xbdc3e104	-0.09564403
102	0xbdc0c9d8	-0.09413499
103	0xbd2b1cd6	-0.041775547
104	0xbd1b6a45	-0.037943143
105	0xbda6dd08	-0.08147627
106	0x3ad527f6	0.001626252
107	0x3a6f9b49	0.0009140266
108	0x3dbe7b81	0.093009
109	0x3cf82b70	0.03029415
110	0x3c8390d7	0.016060276
111	0xbd12798c	-0.035760447
112	0x3d838515	0.06421868
113	0x3d9efece	0.07763444
114	0xbbae81a4	-0.005325513
115	0xbda4c70b	-0.08045777
116	0xbcf069a9	-0.029347258
117	0xbe099bd5	-0.13438351
118	0x3dc3548b	0.0953761
119	0x3dbcd20f	0.09219753
120	0x3db9acd6	0.09066169
121	0xbdcdec29	-0.100548096
122	0x3dd02bec	0.101646274
123	0xbe01b7bf	-0.1266775
124	0x3dbf8285	0.093510665
125	0x3d8dc129	0.06921608
126	0xbd367c5f	-0.044552203
127	0xbd8c40ec	-0.0684832
128	0xbf0205c6	-0.5079006
129	0x3dc749cc	0.097308725
130	0xbe0182bb	-0.12647526
131	0x3c8c7757	0.01714675
132	0x3cb72057	0.022354288
133	0xbed7e1a1	-0.4216433
134	0x3ea36df2	0.3191982
135	0x3e457c0d	0.19285603
136	0xbd47b660	-0.04875791
137	0xbd93dc1e	-0.072197184
138	0x3c2f6e11	0.010707394
139	0xbcbeefb2	-0.023307655
140	0xbd828e2c	-0.063747734
141	0x3dbfd8b2	0.09367503
142	0x3dc00d4b	0.093775354
143	0x3bca957f	0.006182372
144	0x3dc9e5d8	0.09858292
145	0xbcb970fd	-0.022636885
146	0x3da09563	0.07840993
147	0xbd85c6b1	-0.06532038
148	0xbd47b65d	-0.0487579
149	0x3ca34db9	0.019934522
150	0x3c679aa8	0.014135994
151	0xbe8c224f	-0.27369925
152	0x3d47d169	0.048783693
153	0xbdfad62d	-0.12247882
154	0xbdd9c742	-0.106337085
155	0x3c5dcacb	0.013537119
156	0xbcc52528	-0.024065569
157	0x3da6048f	0.08106338
158	0x3e95aff1	0.29235795
159	0x3e5ac9f3	0.213661
160	0xbcd7770c	-0.026301883
161	0x3c499df4	0.012305725
162	0x3dae0ed8	0.08498925
163	0x3d7b4181	0.061341766
164	0x3e942911	0.2893758
165	0x3eafae8c	0.34312856
166	0x3d1db165	0.038499255
167	0xbcfca05f	-0.03083819
168	0xbcae15cd	-0.02125063
169	0x3e3b08d7	0.18265091
170	0xbd15da03	-0.036584865
171	0xbe1b4c7c	-0.15165895
172	0xbe34e46a	-0.17665258
173	0xbd660e0c	-0.05616574
174	0x3c8187f6	0.015811902
175	0xbc313aed	-0.010817272
176	0x3d641973	0.055688333
177	0x3d3c2ab8	0.045939177
178	0xbc2c42c4	-0.010513965
179	0x3d2e16be	0.042502157
180	0x3cb331d7	0.021874351
181	0x3c95b6cc	0.01827564
182	0xbdd11a87	-0.10210138
183	0xbda846c6	-0.08216624
184	0xbdeb6bc4	-0.11495164
185	0xbde5e3c1	-0.11225081
186	0x3d1ce84c	0.038307473
187	0x3e8144ef	0.25247905
188	0xbe18f44c	-0.14936942
189	0x3dd84d41	0.1056161
190	0x3da7076c	0.081557125
191	0x3d1da44d	0.038486768
192	0xbcc94e91	-0.024573596
193	0xbe78db3d	-0.24302383
194	0x3df7ebd7	0.1210553
195	0x3d84f0d0	0.06491244
196	0x3cc88d9f	0.024481593
197	0xbdf7a08b	-0.12091168
198	0x3d1056f5	0.03523918
199	0xbf0c2bcf	-0.54754347
200	0x3d085085	0.033279914
201	0x3e16eedb	0.14739554
202	0x3d798305	0.060915966
203	0xbbeb9b27	-0.0071901265
204	0x3d2934ee	0.041310243
205	0xbdd6c1c0	-0.10486174
206	0xbf2bf8d4	-0.67176557
207	0x3ea7a065	0.3273956
208	0xbdda4318	-0.10657328
209	0xbd320e75	-0.04347082
210	0xbc5fc411	-0.013657586
211	0xbcc18dee	-0.023627248
212	0xbd5b73f0	-0.053577363
213	0xbdcbb7c1	-0.09947158
214	0xbdf3c436	-0.11902659
215	0x3d02af39	0.031905387
216	0x3d85dd9e	0.06536411
217	0xbd0e25d9	-0.034704063
218	0xbda08d7a	-0.078394845
219	0xbd5c0a53	-0.053720783
220	0x3d7e5008	0.062088042
221	0xbd812372	-0.06305589
222	0xbd8f0f43	-0.06985333
223	0x3efe38ce	0.49652714
224	0x3e87e974	0.26545298
225	0x3e2f577e	0.1712322
226	0x3e245c68	0.16050875
227	0xbca06330	-0.019578546
228	0x3d7c08df	0.061531898
229	0xbe9b3465	-0.3031341
230	0xbdf11ed7	-0.1177346
231	0x3de7804d	0.11303768
232	0xbeec1039	-0.46106127
233	0x3dacbd93	0.08434596
234	0x3d8a14fd	0.067422844
235	0x3d498862	0.04920233
236	0x3d2af52d	0.041737724
237	0xbd293a0e	-0.04131513
238	0xbe1f2aec	-0.15543717
239	0x3bd75075	0.0065708705
240	0xbd10e1a3	-0.035371434
241	0xba970468	-0.0011521699
242	0xbbec8734	-0.007218266
243	0x3ba317df	0.004977211
244	0x3b5ae9ea	0.0033403584
245	0xbbf02344	-0.0073284227
246	0x3d91907c	0.07107636
247	0xbccff1e9	-0.025383906
248	0xbd51bda2	-0.05120624
249	0x3cdc9f96	0.026931565
250	0xbc110915	-0.008852263
251	0x3c8f327f	0.017480133
252	0x3d70f288	0.058825046
253	0x3ce76da5	0.028250525
254	0x3da2acf2	0.07943143
255	0xbd3a4947	-0.04548004

layer1.bias f4 [128]
0	0xbd3ebaf3	-0.046565007
1	0x3bbab4c9	0.005697821
2	0xbd831edb	-0.064023696
3	0xbc919b4f	-0.017774252
4	0x3d27decf	0.04098397
5	0xbd21f44a	-0.039539613
6	0xbc9465ee	-0.01811501
7	0x3d914fa9	0.07095272
8	0xbda6bb37	-0.08141177
9	0xbd0e6e3b	-0.034773093
10	0x3cd73e83	0.026274925
11	0x3cc17f86	0.023620378
12	0xbc332324	-0.010933671
13	0x3b0b44c5	0.0021250707
14	0x3c03ad53	0.008036929
15	0xbdcd8d05	-0.10036663
16	0x3b96e5dd	0.0046050386
17	0xbca29b47	-0.019849433
18	0x3d385a0a	0.045007743
19	0x3d1e3aa3	0.03863014
20	0x3d3dc2e0	0.046328425
21	0x3cab4b00	0.020909786
22	0x3d8c9caa	0.06865819
23	0xbd34870d	-0.044074107
24	0xbda9ace4	-0.082849294
25	0x3da65654	0.081219345
26	0xbd553b08	-0.05205825
27	0xbc53e143	-0.012932125
28	0xbda221b0	-0.07916582
29	0x3d28981d	0.04116069
30	0xbd8cc44f	-0.068733804
31	0x3b07e880	0.0020737946
32	0x3b56ec69	0.003279472
33	0x3bb739d0	0.0055916086
34	0xbca524f3	-0.02015922
35	0xbda1eb21	-0.079061754
36	0xbdda1f99	-0.10650558
37	0x3d9e184b	0.07719477
38	0x3ca1de30	0.019759268
39	0x3d68427f	0.05670404
40	0xbe04bd76	-0.12962899
41	0xbd2ae736	-0.041724406
42	0x3d3a5c52	0.0454982
43	0x3de362f1	0.11102856
44	0x3d907980	0.07054424
45	0x3d86b443	0.06577351
46	0xbaba8fbc	-0.001423351
47	0xbd8f4ba1	-0.06996847
48	0xbcf1733a	-0.02947389
49	0x3ced28b4	0.028950073
50	0xbc82a0f8	-0.015945897
51	0xbdaeec30	-0.08541143
52	0x3da11cbc	0.07866809
53	0xbd502453	-0.05081589
54	0xbd2de912	-0.0424586
55	0xbd012f2b	-0.031539124
56	0x3cf4381f	0.029811917
57	0x3d5e64c0	0.0542953
58	0x3db414ff	0.08793067
59	0x3b317ab4	0.0027081193
60	0x3d82c981	0.0638609
61	0xbc9dd907	-0.019268526
62	0xbce7362a	-0.02822407
63	0xbdb722ac	-0.0894216
64	0x3d1d47fd	0.03839873
65	0x3d3f8cab	0.04676501
66	0xbd8d190f	-0.06889545
67	0xbe272796	-0.16323695
68	0xbdb268b7	-0.08711379
69	0x3984cce6	0.00025329663
70	0xbccdfa8c	-0.025143884
71	0x3cf9201c	0.030410819
72	0xbdbbe904	-0.091753036
73	0xbda7a76e	-0.081862316
74	0xbb070c52	-0.0020606709
75	0xbd3ba475	-0.045811135
76	0xbbdaba67	-0.006675053
77	0x3d9b0c4e	0.07570706
78	0x3d0eeeda	0.034895755
79	0x3d0e6c2f	0.03477114
80	0x3d5499ac	0.051904365
81	0xbca4cbbf	-0.020116685
82	0xba91ffd0	-0.001113886
83	0xbd79c172	-0.0609755
84	0x3d93618f	0.07196342
85	0xbd2011dc	-0.039079532
86	0x3ae27b0c	0.0017279102
87	0xbcd992f8	-0.026559338
88	0x3dbd0ff4	0.092315584
89	0x3c43afc1	0.011943758
90	0xbd028a16	-0.03186997
91	0x3d2636d1	0.04057962
92	0xbb7ef8e8	-0.0038905684
93	0xbbc97d94	-0.0061490033
94	0x3c04063c	0.008058127
95	0x3d1a5454	0.037678078
96	0xbd9c6d1e	-0.07638
97	0xbcd723a1	-0.026262106
98	0xbcd95e73	-0.026534295
99	0x3c6e05a5	0.014527713
100	0x3c4450db	0.011982168
101	0xbd352f34	-0.04423447
102	0xbd8a3f8e	-0.06750403
103	0xbc280f21	-0.010257513
104	0x3d124f78	0.03572032
105	0xbcc79e84	-0.024367578
106	0xbc92f592	-0.017939363
107	0x3c283efd	0.010268924
108	0x3cfdbc77	0.030973656
109	0xbd68f500	-0.056874275
110	0x3d57fc86	0.05273106
111	0x3dbdc2a1	0.09265638
112	0xbd215ff0	-0.039398134
113	0x3d69c90b	0.057076495
114	0x3d918e4d	0.0710722
115	0x3b13c8f9	0.002255021
116	0xbd9f89a6	-0.07789926
117	0x3d52ea9a	0.051493265
118	0xbd1bb452	-0.038013764
119	0xbc820064	-0.015869327
120	0x3aeaad1a	0.0017904371
121	0x3c20e47b	0.009820099
122	0x3da13f7d	0.078734376
123	0xbd71b094	-0.05900629
124	0xbd214110	-0.03936869
125	0xbd1f9e7f	-0.038969513
126	0x3d54d47e	0.05196046
127	0x3c666809	0.01406289

layer2.weight f4 [64, 128]
0	0xbdda1060	-0.106476545
1	0x3d8c3143	0.068453334
2	0x3be5c812	0.0070123756
3	0x3d85c77b	0.065321885
4	0xbd0cd94a	-0.03438691
5	0x3d431ae9	0.047633085
6	0x3deebaa8	0.116566956
7	0x3e4f7261	0.20258476
8	0x3dc1e55c	0.09467575
9	0x3c81dd99	0.015852736
10	0x3dc74ec5	0.09731821
11	0x3d172411	0.03689963
12	0x3dbbe916	0.09175317
13	0x3e0acc8b	0.1355459
14	0x3e035faf	0.12829469
15	0x3e11b32e	0.14228508
16	0x3e3acede	0.18242976
17	0x3e327dcc	0.174308
18	0x3dd9ecf0	0.10640895
19	0x3e1614a1	0.14656307
20	0xbd114af9	-0.03547189
21	0x3e1d5b70	0.15366912
22	0xbd987b49	-0.0744539
23	0xbe6ba2c1	-0.23011304
24	0xbd78f449	-0.060779843
25	0x3e15322d	0.14569922
26	0xbc822da9	-0.015890913
27	0x3cde1c5f	0.027113138
28	0xbc7c682a	-0.015405694
29	0xbe5ff922	-0.2187238
30	0xbd14cc3e	-0.036327593
31	0xbcd2c833	-0.025730228
32	0x3d28fda4	0.041257516
33	0x3d70493c	0.05866359
34	0x3b416d2d	0.0029514537
35	0x3e61e774	0.22060949
36	0x3dbc4363	0.091925405
37	0x3e761ec8	0.2403518
38	0xbdf572fe	-0.11984824
39	0x3d7d17af	0.061790165
40	0xbda44887	-0.08021646
41	0xbe2daaa9	-0.16959633
42	0x3e0ad488	0.13557637
43	0x3e0d0b7b	0.1377391
44	0x3c72f528	0.014828958
45	0xbb810779	-0.0039376584
46	0xbea1f1c0	-0.31629753
47	0x3d5cd916	0.053917967
48	0xbe987740	-0.2977848
49	0x3dc9770c	0.098371595
50	0x3d8317c7	0.064010195
51	0xbbf71a0b	-0.0075409464
52	0x3e7a7437	0.24458395
53	0xbdb62f37	-0.08895724
54	0xbdbb1974	-0.09135714
55	0x3b80bcdb	0.0039287633
56	0xbe82f16a	-0.2557481
57	0x3d356a8a	0.044291057
58	0x3e2c94c9	0.16853632
59	0xbd747aa0	-0.059687257
60	0xbc5f0424	-0.013611827
61	0xbd492f5e	-0.04911744
62	0xbd42bf5a	-0.04754577
63	0x3ec2484b	0.3794578
64	0x3e52f857	0.20602547
65	0xbd50767d	-0.05089425
66	0x3e511989	0.20419897
67	0xbd5aefe2	-0.053451426
68	0xbd01d606	-0.03169825
69	0xbd6e85dd	-0.05823313
70	0x3e4b2b53	0.19840746
71	0xbdd5144c	-0.10404262
72	0x3da3efe7	0.08004742
73	0xbd588ed0	-0.05287057
74	0x3dc99ea9	0.09844715
75	0xbd1899f3	-0.037256192
76	0x3d5c1739	0.053733084
77	0x3e0b922a	0.13629976
78	0x3e42e87d	0.19034
79	0xbe17b479	-0.14814939
80	0xbdb1ff44	-0.08691266
81	0x3ddefc70	0.108879924
82	0x3cc6e3cf	0.02427855
83	0x3df2f78b	0.11863621
84	0x3d5f78e0	0.054558635
85	0x3d42739d	0.04747354
86	0x3e238479	0.15968503
87	0xbdeb9a1c	-0.115040034
88	0xbe7732ac	-0.24140424
89	0x3dc5ce4a	0.09658487
90	0x3d2382bc	0.0399196
91	0xbd68664f	-0.056738194
92	0x3e033f6e	0.12817165
93	0x3b37188a	0.002793821
94	0x3d86821e	0.06567787
95	0x3df1aac3	0.11800148
96	0x3e252cef	0.16130422
97	0x3f0950bc	0.53638816
98	0x3cd38d3d	0.025824184
99	0xbdeeb519	-0.116556354
100	0xbd1bad0c	-0.038006827
101	0x3da2df81	0.07952786
102	0xbe95be12	-0.29246575
103	0xbd033a74	-0.032038167
104	0x3d72c67f	0.059271332
105	0x3cacbc27	0.021085812
106	0xbe616dff	-0.22014616
107	0x39ee99b8	0.00045509427
108	0x3d518283	0.051149856
109	0x3d970424	0.07373837
110	0xbd8d9828	-0.06913787
111	0xbdfce51b	-0.12348386
112	0x3e869f8a	0.26293594
113	0x3f0695f5	0.52572566
114	0x3ddb8792	0.10719217
115	0x3d5ca60d	0.053869296
116	0xbe73220e	-0.2374346
117	0x3deff5de	0.11716817
118	0x3b7adfbc	0.0038280329
119	0xbe3f373f	-0.18673418
120	0xbe4f24f0	-0.20228934
121	0xbe455868	-0.19272006
122	0x3e5e43bc	0.21705526
123	0xbd93333a	-0.07187505
124	0xbd9bffbd	-0.076171376
125	0xbcc002ef	-0.023438899
126	0xbd945a7e	-0.072438225
127	0xbe11efba	-0.14251605
128	0x3e440eef	0.19146322
129	0x3d9d8e78	0.076931894
130	0xbd1671e6	-0.036729716
131	0x3cfd32d2	0.030908022
132	0x3deb85e9	0.11500151
133	0xbeb1594c	-0.3463844
134	0xbdc79604	-0.0974541
135	0x3d0c0807	0.034187343
136	0x3e754dee	0.23955509
137	0x3e1213b5	0.1426533
138	0x3dd54547	0.10413604
139	0x3d97da7a	0.07414718
140	0x3e67a9c7	0.22623359
141	0xbcbc921d	-0.023018891
142	0xbec10427	-0.3769848
143	0x3d5929f5	0.05301853
144	0xbd721e0a	-0.05911068
145	0xbe5939d8	-0.21213472
146	0x3e0ae1dc	0.13562721
147	0xbca04f0d	-0.019568944
148	0x3e23220a	0.15930954
149	0xbe00676d	-0.12539454
150	0xbe6c4c34	-0.23075944
151	0x3eb4a76a	0.35283977
152	0x3e920c58	0.28525043
153	0x3cd683b7	0.026185853
154	0x3be3361a	0.0069339396
155	0xbe27c468	-0.16383517
156	0x3dad100e	0.08450328
157	0x3d9ef973	0.077624224
158	0x3e6248a7	0.22098027
159	0xbc96feaa	-0.01843198
160	0xbed1e539	-0.40995196
161	0xbd06a3b1	-0.032870952
162	0xbe085ee3	-0.13317446
163	0x3d76a0cf	0.060211953
164	0x3d9cea54	0.07661882
165	0x3d1ccf29	0.0382835
166	0xbce3095a	-0.02771442
167	0x3c95cfae	0.018287506
168	0xbe201f5f	-0.15636967
169	0xbd82af8a	-0.06381138
170	0xbc35df54	-0.011100609
171	0x3e32a49c	0.17445606
172	0xbe8f9eb2	-0.28050762
173	0x3da59d91	0.08086694
174	0xbe3f4a18	-0.18680608
175	0xbe689698	-0.22713697
176	0xbf0a8451	-0.5410815
177	0x3e17ec73	0.14836292
178	0xbdd030ae	-0.10165535
179	0x3dae24e5	0.08503131
180	0xbd8e9bd0	-0.069633126
181	0x3dad0e2c	0.08449969
182	0x3d91d899	0.07121391
183	0xbdff24ef	-0.124582164
184	0xbd05e5ff	-0.032690044
185	0x3d9d9d42	0.0769601
186	0x3e424886	0.18972978
187	0xbe875932	-0.26435238
188	0xbe89b528	-0.26896024
189	0xbe2b327a	-0.16718474
190	0x3e8ab346	0.270899
191	0x3e98f9ed	0.29878178
192	0x3ccbc307	0.02487327
193	0xbe882944	-0.26593983
194	0x3eb05a2d	0.344438
195	0xbe2ebe5d	-0.17064805
196	0x3e58cd8b	0.21172158
197	0x3e3045c6	0.17214116
198	0x3ea4002c	0.3203138
199	0xbd2fbeac	-0.04290645
200	0x3c7ab762	0.015302511
201	0x3c6a061f	0.014283686
202	0x3e5e7da7	0.2172762
203	0xbe879f70	-0.2648883
204	0xbdb70603	-0.089366935
205	0x3c92039b	0.017823985
206	0xbbee8473	-0.007278973
207	0xbdbaf262	-0.09128262
208	0xbd8cd5f2	-0.06876744
209	0xbdf7b1b4	-0.12094441
210	0xbc84b233	-0.016198253
211	0xbdba2329	-0.090887375
212	0xbdd1b683	-0.102398895
213	0x3e8139af	0.25239322
214	0xbc65d0e1	-0.014026851
215	0x3e0d585a	0.13803235
216	0x3d5d04ab	0.05395953
217	0xbd0fcba4	-0.035106316
218	0x3e496bd6	0.19670042
219	0xbc9bbdf0	-0.019011468
220	0x3dc4742e	0.09592472
221	0x3e493fbf	0.19653223
222	0x3e3eeab4	0.1864422
223	0xbd0e1c96	-0.03469523
224	0x3dd72510	0.10505116
225	0xbcf98644	-0.03045953
226	0xbde37b23	-0.11107471
227	0xbced7506	-0.028986465
228	0xbe3b4f56	-0.18291983
229	0x3e530422	0.20607045
230	0xbe3ab644	-0.18233591
231	0x3dd83808	0.10557562
232	0xbbf05395	-0.0073341825
233	0xbdd51560	-0.104044676
234	0x3dd76ea8	0.10519153
235	0xbdb381ff	-0.08765029
236	0x3d7063e0	0.058689
237	0x3e2c1573	0.16805057
238	0xbc98c991	-0.018650802
239	0xbed7c9c3	-0.4214612
240	0x3dc614e1	0.09671951
241	0x3ebdd0ca	0.37073356
242	0xbd014926	-0.0315639
243	0x3e0a2ba0	0.13493204
244	0xbd36ea7e	-0.044657223
245	0x3dc1c2f8	0.094610155
246	0xbdc34d53	-0.09536233
247	0xbc31a4ba	-0.0108424965
248	0xbc7a2b8f	-0.015269174
249	0xbe1a4aae	-0.1506755
250	0x3e8ca9b8	0.27473235
251	0xbe628721	-0.2212186
252	0x3e9848d7	0.29743072
253	0x3e1ea822	0.15493825
254	0x3dde59f6	0.108570024
255	0xbe2f4a44	-0.17118174

layer2.bias f4 [64]
0	0xbd62e432	-0.055393405
1	0x3d3094ae	0.043110542
2	0xbc7a033a	-0.015259558
3	0x3acbcd68	0.0015548887
4	0x3cff687c	0.031177752
5	0xbda07a5f	-0.078358404
6	0xbd868146	-0.06567626
7	0xbbe50dad	-0.0069901557
8	0x3c0c3f6a	0.008560041
9	0xbc896343	-0.016770964
10	0x3cd36b81	0.025808098
11	0xbd1fe903	-0.039040577
12	0x3dfbff71	0.12304581
13	0x3e079c44	0.13243204
14	0x3c0be6b1	0.008538888
15	0x3d1a36bd	0.03764986
16	0xbcd07466	-0.025446128
17	0xbcccf179	-0.025017487
18	0xbd088a79	-0.033335183
19	0x3cfd1a80	0.030896425
20	0x3dbc1bdc	0.09185001
21	0xbca7cafc	-0.020482533
22	0x3dda7c91	0.106682904
23	0x3d094bf3	0.033519696
24	0xba634728	-0.0008669966
25	0xba38b8f0	-0.0007046601
26	0x3c61695a	0.013758028
27	0xbcf63bd6	-0.030057829
28	0x3b108e46	0.0022057458
29	0x3c87b576	0.01656602
30	0x3c815b71	0.015790673
31	0x3d0469bc	0.0323274
32	0x3bb22749	0.005436812
33	0x3c2cb12f	0.010540291
34	0x3d295a7a	0.04134605
35	0x3cab8289	0.020936267
36	0x3e275af8	0.16343296
37	0x3d19573d	0.037436713
38	0x3d3d1aee	0.04616826
39	0x395bfae4	0.00020978932
40	0x3dd1241f	0.10211968
41	0x3cdcb8b6	0.026943546
42	0xbb6feebe	-0.0036610807
43	0x3d1bc36f	0.038028177
44	0xbd525264	-0.051348105
45	0xbd08fb0c	-0.033442542
46	0x3e01654e	0.12636301
47	0xbcfb5b96	-0.03068332
48	0xbc70d180	-0.014698386
49	0x3e598453	0.21241884
50	0x3ca4c989	0.02011563
51	0xbc8e7254	-0.0173885
52	0xb802acea	-3.1155454e-05
53	0xbd20f671	-0.039297525
54	0x3c1c5929	0.009542742
55	0x3c9f7f56	0.019469898
56	0xbc9290a9	-0.017891245
57	0x3da741fb	0.08166882
58	0x3c03aacc	0.008036327
59	0xbc152ea2	-0.009105356
60	0xbd5537c2	-0.052055128
61	0x3dfdc54d	0.12391148
62	0x3c3beea2	0.011470469
63	0x3d216024	0.039398327

layer3.weight f4 [4, 64]
0	0xbe2ee141	-0.17078115
1	0xbf442d32	-0.7663146
2	0x3d15a013	0.03652961
3	0x3ebbd01b	0.3668221
4	0xbe838bb6	-0.25692528
5	0xbf183aef	-0.59464926
6	0xbe0ad358	-0.13557184
7	0x3e396b1f	0.1810727
8	0x3f651b16	0.89494455
9	0xbcd7f6bf	-0.026362775
10	0xbee910c2	-0.45520598
11	0xbe3fa8ae	-0.1871669
12	0x3ea53a67	0.3227112
13	0x3f264450	0.64947987
14	0xbdd4e4d4	-0.10395208
15	0x3e2ea133	0.1705368
16	0x3eee98e3	0.46601018
17	0x3ee9df11	0.45678
18	0xbf14988a	-0.58045256
19	0xbdbf21dc	-0.0933263
20	0x3f83cebe	1.0297468
21	0x3cb50226	0.022095751
22	0x3ef69aac	0.4816488
23	0x3da6e8e0	0.08149886
24	0x3ed4f41f	0.415925
25	0x3c905024	0.017616339
26	0xbd342974	-0.043984845
27	0x3cf1a802	0.029499058
28	0xbe107d8d	-0.14110394
29	0x3ebfdeda	0.3747471
30	0xbec35b26	-0.38155478
31	0xbe231943	-0.15927605
32	0x3e3c2651	0.18373992
33	0xbeaca009	-0.33715847
34	0xbf00ddf2	-0.5033866
35	0xbf32e6e8	-0.69883585
36	0x3eef5ae4	0.46749032
37	0x3edce1b7	0.43140957
38	0x3f0c4ffe	0.5480956
39	0x3d57f05d	0.052719463
40	0xbe7764ef	-0.24159597
41	0xbec6b083	-0.38806543
42	0x3ef47923	0.4774867
43	0x3f36135a	0.7112328
44	0xbf4dea15	-0.80435306
45	0x3f5d919e	0.8655032
46	0x3ecf3114	0.4046713
47	0x3e8fa928	0.28058743
48	0xbecfd890	-0.40594912
49	0x3dc01891	0.09379686
50	0x3e9cec3d	0.30648986
51	0xbf0a5496	-0.5403532
52	0x3dde86a7	0.10865527
53	0x3cbf3fd6	0.023345869
54	0xbf356949	-0.7086378
55	0x3e05f650	0.13082242
56	0xbe6754be	-0.2259092
57	0x3bde790d	0.0067893327
58	0xbe6137a8	-0.21993887
59	0xbdd447c7	-0.10365253
60	0xbde4af3f	-0.11166238
61	0x3ec6d0d4	0.38831198
62	0x3f3ca848	0.73694277
63	0xbe52af59	-0.20574702
64	0xbe61d9c9	-0.22055735
65	0x3e21ee91	0.15813662
66	0xbf162c5c	-0.5866144
67	0xbef75d04	-0.48313153
68	0xbd571e12	-0.05251891
69	0xbf163c59	-0.58685833
70	0xbf66b1de	-0.90115154
71	0xbec38362	-0.38186175
72	0x3f1959e1	0.5990277
73	0xbef9fb93	-0.48824748
74	0xbcb2135c	-0.021737747
75	0x3d81cdf0	0.063381076
76	0x3ea9b551	0.33146146
77	0x3ee5a8ef	0.4485545
78	0xbdd4e65a	-0.103954986
79	0xbf088538	-0.53328276
80	0x3e23406d	0.15942545
81	0x3ecc421c	0.39894187
82	0xbebfd91f	-0.37470338
83	0x3eef928f	0.46791503
84	0x3e80f39d	0.25185862
85	0xbf49d79a	-0.78844607
86	0x3ea6742a	0.325105
87	0xbf7afb0d	-0.98039323
88	0xbd0ee131	-0.034882728
89	0xbdde6cc7	-0.108605914
90	0x3e4b4576	0.19850716
91	0x3b96ce42	0.0046022246
92	0xbe2d7336	-0.1693848
93	0x3edf80dd	0.43653002
94	0x3f130607	0.5743107
95	0xbe7bc1e1	-0.24585678
96	0xbd0a503a	-0.033767916
97	0xbe28d1af	-0.16486238
98	0xbedc4e31	-0.43028405
99	0xbee55b68	-0.447963
100	0xbc21b864	-0.009870622
101	0x3edc9212	0.43080193
102	0xbe1dc9d6	-0.15409026
103	0x3d1711c3	0.036882173
104	0x3ec5b09f	0.38611314
105	0xbf1aabb1	-0.6041823
106	0x3f2e9f0c	0.68211436
107	0x3f6644a6	0.899485
108	0xbea51644	-0.3224355
109	0xbe2318c9	-0.15927424
110	0x3f0a95b5	0.54134685
111	0x3e9193e0	0.28433132
112	0xbe037e21	-0.12841083
113	0x3eaff0dc	0.3436345
114	0x3f3fe0a3	0.74952143
115	0xbdf14755	-0.11781184
116	0x3f97ff03	1.1874698
117	0xbd02cc41	-0.031933073
118	0x3eda8691	0.4268079
119	0x3f51d912	0.8197185
120	0xbecce1b5	-0.4001595
121	0x3f02289b	0.5084321
122	0xbe6be089	-0.23034872
123	0xbdf58e06	-0.119899794
124	0xbf56206a	-0.8364321
125	0x3f0d6ace	0.55241096
126	0x3d5e9a03	0.054346096
127	0x3d4223f0	0.047397554
128	0xbb3709d9	-0.0027929454
129	0x3e80d5f1	0.25163224
130	0xbe67082a	-0.22561708
131	0xbec317e4	-0.38104165
132	0xbe57219c	-0.21008915
133	0xbf1a29d1	-0.60220057
134	0xbc95b6ad	-0.018275583
135	0x3f70c75d	0.94054204
136	0x3ed33d5b	0.41257748
137	0xbf290808	-0.6602788
138	0xbe028f32	-0.12749937
139	0xbe21f79f	-0.15817116
140	0x3f647bd4	0.89251447
141	0x3f1bdc71	0.6088324
142	0x3e3c501c	0.18389934
143	0xbe6fe1c7	-0.23425971
144	0xbe54624a	-0.2074062
145	0x3d8e62ae	0.069524154
146	0xbf52ba33	-0.8231537
147	0x3f5c3268	0.86014414
148	0x3e92970b	0.28630862
149	0x3e2606b3	0.16213493
150	0x3f22151b	0.63313454
151	0xbf4e0ea6	-0.804911
152	0x3e2cb266	0.16864929
153	0xbe5052b8	-0.20344055
154	0x3ebc50f0	0.367805
155	0xbc8ff450	-0.017572552
156	0xbe472914	-0.19449264
157	0x3ec38ae4	0.38191903
158	0xbec04dd9	-0.37559393
159	0xbe65b45c	-0.22432083
160	0x3ec3d641	0.382494
161	0xbda6ad27	-0.08138495
162	0xbeea3a5c	-0.4574765
163	0xbe3a454e	-0.181905
164	0x3eeb12bc	0.4591273
165	0xbf53a0a6	-0.82667005
166	0xbe7db2d9	-0.24775256
167	0x3c4df1ae	0.012569828
168	0x3f01bb8f	0.50676817
169	0xbf238682	-0.6387712
170	0xbf1dc22d	-0.61624414
171	0xbf0a2327	-0.5395989
172	0xbc9e6de3	-0.019339507
173	0x3f08739c	0.53301406
174	0x3e9076d6	0.28215665
175	0xbd48f9c0	-0.049066305
176	0xbe1c2ede	-0.15252253
177	0x3f070926	0.52748334
178	0xbcf4b002	-0.029869083
179	0x3dba24fa	0.09089084
180	0x3f88f7cd	1.0700623
181	0xbc1a4711	-0.009416358
182	0xbecda269	-0.40162972
183	0x3e8971fb	0.26844773
184	0xbf0cfd1f	-0.5507373
185	0xbed8cc41	-0.42343333
186	0xbe97173a	-0.29509908
187	0xbf0fd982	-0.56191266
188	0xbe8498da	-0.25897866
189	0xbe657e78	-0.22411525
190	0xbe82a9bb	-0.2552012
191	0x3a889de4	0.0010423032
192	0xbecec203	-0.40382394
193	0x3b3c1e9e	0.0028704773
194	0x3f31cc15	0.6945203
195	0x3e68aabd	0.22721381
196	0xbc8d1b9e	-0.017225083
197	0xbf037e26	-0.5136436
198	0xbde3e003	-0.11126711
199	0x3f4dddad	0.80416375
200	0x3eae585c	0.34051788
201	0x3e29242d	0.16517706
202	0x3e935324	0.2877437
203	0xbe53ce8c	-0.2068426
204	0x3deeb45d	0.11655495
205	0x3eb6a9a3	0.35676298
206	0xbf3c7b01	-0.7362519
207	0xbdfad924	-0.122484475
208	0x3e80d7f4	0.2516476
209	0xbf2c4919	-0.6729904
210	0xbf4d53a1	-0.8020573
211	0x3edf4d49	0.4361365
212	0x3eb71d82	0.357647
213	0xbe825b66	-0.25460356
214	0xbe564044	-0.20922953
215	0xbd4e6240	-0.050386667
216	0x3f7b0cc0	0.9806633
217	0xbe6ab690	-0.22921205
218	0x3f5b3fe8	0.8564439
219	0xbc50a357	-0.012734256
220	0xbed4c2ad	-0.41554776
221	0xbf2614ad	-0.648753
222	0x3ecafdd8	0.39646792
223	0xbec8d154	-0.39222205
224	0x3f633565	0.8875335
225	0x3d84698b	0.06465443
226	0xbec5a8ba	-0.3860529
227	0xbe6b20ca	-0.22961727
228	0x3ed24e0a	0.41075164
229	0xbe06e15a	-0.13171902
230	0x3f4fc204	0.8115542
231	0xbd13076e	-0.035895757
232	0x3dc4bb84	0.09606078
233	0xbdba7808	-0.091049254
234	0x3aa7e917	0.0012810555
235	0x3ee0e5bf	0.43925282
236	0xbed4a5a3	-0.4153262
237	0xbda6118d	-0.08108816
238	0x3eeddb31	0.46456292
239	0xbec3c15f	-0.38233468
240	0xbe337c7b	-0.17527954
241	0x3f0426f4	0.5162194
242	0xbdd946ed	-0.10609231
243	0x3ed175bc	0.40910137
244	0x3e78ae5a	0.2428526
245	0x3ca768e7	0.020435764
246	0x3eb8f181	0.36121753
247	0xbdd60293	-0.1044971
248	0xbec8035b	-0.3906506
249	0x3e88371b	0.26604542
250	0xbebca7a2	-0.36846644
251	0xbecb5769	-0.39715126
252	0xbe6b43a9	-0.22975029
253	0x3ed77e69	0.4208863
254	0x3e3362e6	0.17518196
255	0xbe54ba73	-0.2077425

layer3.bias f4 [4]
0	0x3d78dd47	0.0607579
1	0x3d5d07c9	0.053962503
2	0x3db9d1d1	0.090732224
3	0xbca25e61	-0.019820394
