state_dic_target_net/test_v9_.pth (torch, 78239 bytes, 6 tensors)

layer1.weight f4 [128, 81]
00000000: 93ae 563d 5cad 533d 3b83 573d 360e 553d
00000010: 5286 583d d251 553d 4f3c 553d def4 533d
00000020: 77fa 563d 5cab 563d 1966 02bd 3c9b 0e3e
00000030: 2b2f d13d 72ad 5b3e 3de7 4a3e 3572 c1bd
00000040: 42ff 91bc a80a 553d 8c18 533d 0f2e 7e3d
00000050: 7234 e93d 2f35 8a3d e98d 03bd 78d2 06ba
00000060: 5172 1cbd 91ed 263d 357e 583d 7187 563d
00000070: ad7f b8bd 1ab8 d33d 9409 55bd dec2 0abe
00000080: 2219 bb3d 1ed6 f23d 1088 d4bd bc58 553d
00000090: e457 553d 31a4 2e3c 5e10 1a3e 61b6 a9bc
000000a0: d674 0f3e a0f9 553d 7c85 8dbd 31fa afbc
000000b0: a38a 573d dc11 573d 305b 87be 8fa4 0a3d
000000c0: cdf7 d1bd 4b9d 083e bf4e 07bd b413 6cbe
000000d0: 5f7d 47be c4a8 583d e6c4 553d cf94 8abe
000000e0: 0120 2e3f 51d4 a8be 80e1 be3d c6af acbd
000000f0: 0328 19be 2a7d 11bc 2a5c 583d 5b10 543d
00000100: 7431 2b3e 2bfb 223f 42d4 62be 774e a9bc
00000110: 9022 50bd b97e 39be a174 81bd 5a95 553d
00000120: d169 553d 141d 553d 88ca 553d 16f1 553d
00000130: b979 563d 3463 563d dffe 543d 3207 593d
00000140: 580b 533d 9b20 533d b77f 573d 6b73 563d
00000150: 4e4a 563d 2a8e 523d 4cc3 543d 37aa 563d
00000160: 94e3 543d 30a0 563d b7e7 513d 5678 d43c
00000170: f38a 203e 237b 253e 918c 973e bc5f c13d
00000180: 02b4 813d 28a2 f93d c8ca 563d d6f2 553d
00000190: 0b9e 333e 8e4d 043d f3ed 693d 85cf 27b9
000001a0: 6419 1a3e 95ae 273e 80a1 923c efd3 513d
000001b0: dea2 513d 1fd1 803d bd32 213d c355 743e
000001c0: a02f ad3d 4bbf 573e 7677 533e 8388 3c3e
000001d0: 4528 553d 0360 523d 935a b53d 05dc edbc
000001e0: beac a3bd e2ea 9bbe 5df2 633d cc0f e73d
000001f0: 48cb 703e c6d1 513d b274 543d 4bf2 a53b
00000200: 86de d73d 6b01 3a3c a7f4 ad3d 12f0 c63d
00000210: 46f8 213e 7d21 4a3e 6547 523d 95db 553d
00000220: a07d ea3d b808 a23c 8111 6cbc 954a 163e
00000230: 258b 1c3d 08ec 0e3d 6462 cabc 0366 553d
00000240: 37ee 563d 912e 653d bb1c 253d d4f1 373e
00000250: a980 df3d 8d44 a0bd 2813 633d 67bb 36bd
00000260: d2d7 563d b10e 553d 44d9 563d 0b12 573d
00000270: 5720 533d 9c4f 553d 32b2 513d e946 523d
00000280: e095 573d 19d6 513d bf17 b5bc fd28 bebc
00000290: 84e6 b7bc fe1e b4bc eb57 b8bc 6f09 b7bc
000002a0: ac05 b9bc 2a7d b9bc eba2 b6bc 86d0 b7bc
000002b0: 8bfd db3c 6ef5 253d 36dd bc3d 48a8 fcbe
000002c0: 886f 2d3d f8cc 8fbe 2d9c 223d 4065 bbbc
000002d0: 0421 bbbc 8fa5 a23d 5712 50bc 8d52 abbe
000002e0: d66c e4bd b21d 5abd 8b74 f13d 071e 313e
000002f0: 3c92 bdbc 661b bdbc 32d5 7abe 6fad bebd
00000300: d119 77bd d7c2 283e 5103 f2bd 00a8 f2bc
00000310: 9494 3dbe fcc6 b7bc 4382 b7bc 3e17 b43e
00000320: c2c9 d2bd 22e9 afbd c77f 363d 7859 573d
00000330: eac0 a83d db35 893d be23 bebc 13b1 b5bc
00000340: ab82 b7be 2f7f cf39 1f21 44bd 73ea 023d
00000350: eefb 8f3e 9c13 753e 4d45 9d3c f948 bbbc
00000360: 49e6 bbbc d31a 07bf ecf1 02be 3491 d23c
00000370: e716 cebc afb9 303e 2ff2 e03d bb39 3cbc
00000380: 8dbf bcbc a866 bebc 9fce 5b3e 6f35 463d
00000390: a205 8ebe 41ce 29bd 1bd7 17be f834 71be
000003a0: 268e e0bd 9a11 bdbc ba78 bdbc 6601 babc
000003b0: 1b33 bcbc 07cd bbbc 94a8 b9bc c3e2 bdbc
000003c0: 1d89 bfbc c0c2 bebc 4b75 b7bc 5205 8ebd
000003d0: 29c4 8dbd b111 8dbd f323 8dbd 0313 8dbd
000003e0: 212e 8dbd f564 8dbd c5af 8bbd 3f37 8dbd
000003f0: 8b6d 8cbd 3a47 38be 9f6f 57be 6af5 24be
0.05241258 0.051679 0.052615386 0.052015506 0.052862473 0.052079983 0.052059468 0.051747195
0.052484956 0.052409515 -0.03183565 0.13926405 0.10214075 0.21452883 0.19814773 -0.094456114
-0.017821912 0.052012116 0.05153708 0.062055644 0.11386956 0.06748425 -0.032117758 -0.00051430566
-0.038194958 0.040753905 0.052854735 0.05237526 -0.09008727 0.10337849 -0.052011088 -0.13550898
0.09135653 0.11857246 -0.10377514 0.052086577 0.052085772 0.0106592635 0.15045306 -0.020716848
0.14009413 0.052240014 -0.06910226 -0.021481605 0.05262245 0.052507266 -0.26436758 0.03384834
-0.102523424 0.13341253 -0.033034083 -0.23054391 -0.19481419 0.052895322 0.05218973 -0.27066657
0.68017584 -0.32974485 0.093203545 -0.084319636 -0.1495667 -0.008879939 0.05282227 0.05177341
0.16718084 0.636645 -0.22151282 -0.020667298 -0.05081421 -0.18114747 -0.06321073 0.052144386
0.052102868 0.052029684 0.052195102 0.05223187 0.052362178 0.0523407 0.052000877 0.052985378
0.05152449 0.051544767 0.052612033 0.052356165 0.052316956 0.05140511 0.051944062 0.052408423
0.051974848 0.05239886 0.05124637 0.025936287 0.15678005 0.16160254 0.2959943 0.09442088
0.06333162 0.12189132 0.05243948 0.05223354 0.17540757 0.032300524 0.05711169 -0.00016003668
0.15048748 0.16375192 0.017899275 0.051227506 0.051180713 0.06289887 0.03935503 0.2386084
0.084563494 0.21069066 0.2065104 0.1841145 0.052040357 0.051361095 0.08855166 -0.029035578
-0.07991932 -0.3045264 0.055651058 0.1128231 0.23515046 0.051225446 0.0518691 0.005064284
0.1054049 0.011352877 0.08493929 0.097137585 0.15817365 0.19739337 0.05133762 0.052211363
0.11449742 0.019779548 -0.01440847 0.14676888 0.038218636 0.034893066 -0.02470512 0.05209924
0.052473273 0.055952612 0.040310603 0.17963344 0.10913212 -0.07825575 0.05543819 -0.044612315
0.052451916 0.052015964 0.052453294 0.05250744 0.051544514 0.052077875 0.05119533 0.051337156
0.052633166 0.05122957 -0.02210605 -0.023212904 -0.022448786 -0.021987434 -0.02250286 -0.022343365
-0.022585712 -0.02264269 -0.022294482 -0.022438299 0.026854297 0.040517263 0.0922188 -0.49347138
0.042342693 -0.28086066 0.039699722 -0.022875428 -0.022842892 0.07941734 -0.012699685 -0.3346142
-0.11153571 -0.053250976 0.11789807 0.17296611 -0.023141019 -0.023084354 -0.2449539 -0.093104236
-0.060327355 0.16480576 -0.11817039 -0.029621124 -0.1851371 -0.02243375 -0.02240098 0.35173982
-0.102923885 -0.085893884 0.04455545 0.05257556 0.082399204 0.06699725 -0.023210403 -0.022179162
-0.3584188 0.00039576876 -0.04788315 0.03196187 0.28121895 0.23933262 0.019198084 -0.022861945
-0.022936957 -0.52775306 -0.12787598 0.025704004 -0.025157405 0.17258333 0.10983693 -0.011488373
-0.023040557 -0.02324231 0.21465538 0.048390802 -0.27738672 -0.041456465 -0.1482815 -0.23555362
-0.10964613 -0.023079682 -0.023128856 -0.022705745 -0.022973588 -0.022924913 -0.022663392 -0.023179417
-0.02338081 -0.023286223 -0.022394797 -0.069346085 -0.0692218 -0.0688814 -0.068916224 -0.06888392
-0.06893564 -0.06904022 -0.06820635 -0.06895303 -0.06856831 -0.17995921 -0.21038674 -0.16109243

layer1.bias f4 [128]
00000000: 90fc 54bd 5ac7 52bd 6219 b93c a23a 8d3d
00000010: a742 de3b 2a35 f93b 614b b3bc 4065 f7bc
00000020: 6419 0d3d 0e03 3cbd 4599 5cbd bf0b 79bc
00000030: c086 b0bc 747a a1bc d6a6 823c fbfd febc
00000040: 6226 c93b 51eb cc3b 4048 16bd 5009 a23a
00000050: 7a8b 9f3b 5a24 363c 9fb5 fdbc e3da e8bc
00000060: d109 063d b390 d1bc 5595 27bd 3296 90bb
00000070: 9f85 a9bc 4d55 483b 6c21 093c 8e75 34bd
00000080: 562c 1e3d 0a39 bcbc 7454 083d 6f15 04bc
00000090: 675b cfbc 698f 27bc 0695 eb3c 3979 3cbc
000000a0: 6cb6 863c fa20 cbbc 59e0 003d 2054 52b9
000000b0: 847c 83bc ef6d 263c 473c 0d3c 5c38 12bd
000000c0: 9fc3 7cbc b56d 5ebc 99bd 7cbc ece1 03bd
000000d0: aae9 813c 1ec7 16bd c44b 87bc 4d3f 6abd
000000e0: cbee 3d3c c94b 05bd 6585 b8bc b421 4ebd
000000f0: d7cc 0dbc 4541 c9bc f5d9 af3b 05d8 f53b
00000100: ef2c 83bc 880e 34bd adb2 cebc e197 793c
00000110: 4674 3bbd 5f3e c4bc 883c 67bc d1ac 563c
00000120: f628 ceba 2a67 b7bc ebed f03a 62f6 46bd
00000130: 9b4c e3bc 4fd4 54bb 3653 babb c45c d9bc
00000140: 6794 0ebd 8d8d 1bbd da2f 24bd ddf9 96bc
00000150: 48ca 41bd 8abf 1dbd 2401 44bc e722 ddbc
00000160: 0d57 d6ba 95ad 95bc 052e 3bbc 6191 1dbd
00000170: 2256 7cbc cc96 bbbc 2870 43bc 184e 7cbc
00000180: 2867 3ebd b181 793d d83a 18bd cfd8 1fbb
00000190: 25e0 a43c 2fe4 99bc 42ac c3bb b120 0ebd
000001a0: dd72 86bc 98b4 6f3a 387a 11b7 46b7 a53c
000001b0: cc65 5dbb 01d5 28bd b26a e1bc f908 31bc
000001c0: 8c4c bdbc 9b40 57bd bf19 acbc e503 04ba
000001d0: e057 a53c a781 b6bc b6b6 17bd d66d fdbb
000001e0: db45 f93c fe53 14bd 4111 0dbd 9ba3 88bc
000001f0: e1af 34ba fc79 7dbc 5c6d 8bbc 205e cabc
-0.051998675 -0.051459648 0.022595111 0.06895949 0.006782848 0.0076052146 -0.02188653 -0.030199647
0.034448043 -0.04590135 -0.053857107 -0.015200554 -0.021548629 -0.01971171 0.015948694 -0.031126967
0.006138609 0.006253638 -0.036689997 0.0012362394 0.004868922 0.011117065 -0.030970393 -0.028424686
0.032724205 -0.025581693 -0.0409139 -0.004412436 -0.020693598 0.0030568421 0.008369785 -0.04405742
0.0386165 -0.022976417 0.033283666 -0.008061751 -0.025312139 -0.010227063 0.028757583 -0.011503511
0.016444407 -0.024795998 0.031463955 -0.000200585 -0.016050585 0.010158046 0.008620328 -0.03569828
-0.015427499 -0.013575961 -0.015426063 -0.032197878 0.01585849 -0.036810987 -0.01651562 -0.057189275
0.011592577 -0.032542977 -0.022524545 -0.05032511 -0.008654795 -0.024567256 0.0053665587 0.007502558
-0.016012637 -0.04395917 -0.025231684 0.015233965 -0.045765184 -0.023955522 -0.014113553 0.013102726
-0.001572876 -0.02238806 0.0018381452 -0.048574813 -0.02774649 -0.0032475179 -0.005686189 -0.026533492
-0.034809496 -0.03797679 -0.040084697 -0.018429691 -0.04731205 -0.038512744 -0.011963163 -0.026994182
-0.0016352847 -0.018271247 -0.011424546 -0.038468722 -0.015401395 -0.022899054 -0.011928596 -0.015399478
-0.046485096 0.0609147 -0.037165493 -0.0024390703 0.020126412 -0.018785564 -0.0059714625 -0.034699146
-0.016412193 0.0009144037 -8.67113e-06 0.020228993 -0.00337826 -0.04121876 -0.027516697 -0.010805362
-0.02310779 -0.052551847 -0.02100837 -0.0005035981 0.020183504 -0.02227862 -0.03703948 -0.0077340407
0.030428817 -0.036212914 -0.034440283 -0.016679576 -0.0006892663 -0.015470978 -0.01701992 -0.024703085

layer2.weight f4 [64, 128]
00000000: 6b9e 67be 548f 44bd b3df b8bd 7c9d 2dbe
00000010: 473f 41be 42c0 14bc 54ed ba3d d4bf a33e
00000020: 87c6 5ebd 7505 3abe 35ee f9bc 45d9 1a3e
00000030: 9d53 eb3b 07a2 4fbd c385 003e 6df7 36be
00000040: 9d0c 8f3b 59f0 ef3c d56e 8d3c 7a52 1a3e
00000050: 838b 71bd a311 cebd d4a1 853c 252c b5be
00000060: b1ae 3ebe edf1 c5bc 5148 27bd b2dd 82bc
00000070: 61df f43a de9b 693d 4ed3 58bd a5c7 453e
00000080: 3849 8fbd cd02 663e e7d5 c23e f8d4 eabd
00000090: 6797 b1bc aca8 40be 6769 3c3e f504 f23d
000000a0: 743c b63d d773 e7be 6ae1 4cbe c9f6 98be
000000b0: 5dc1 2abe 6e72 203d fa10 9bbe a980 80bd
000000c0: fb7f 7c3c 279e 9cbe 0104 28be 9039 a33c
000000d0: 283c 61bd 5278 d6bd 3728 b93b 678a 513e
000000e0: 1011 3d3c de04 a4be 8339 86bc 0a12 30bf
000000f0: c375 123d 6b43 c2bc a244 b0bd 1634 a03b
00000100: b944 47be 50d7 e83d 74a9 383e 7167 1e3e
00000110: 78e2 883d 2e37 f8bd 0b8b 98be e77c db3d
00000120: 89fb 043d af81 90bd 8281 97bc 8895 563d
00000130: 3010 52be 7b2c 093e 80e9 84be fc09 093e
00000140: 6e9e 2a3e bebd f8bb 43a9 acbd 8859 393e
00000150: f243 56bb 74c4 043f 5f59 483c 07f4 1abd
00000160: 39e1 5e3d b76f 313e 03a9 0cbe 0ccb 163e
00000170: f2b7 cd3d ff98 61bc 210d 8dbe faea 4c3d
00000180: b7a9 01be b8b4 10be 1e7a 803c c2a1 12be
00000190: f549 cd3c 5845 72bb 5623 5a3c 4a13 06be
000001a0: 164c 16be a135 c93b 90dd 52bf e3ae dc3d
000001b0: 7b83 85bd e825 093e 34a3 bfbd e38d 7fbc
000001c0: da98 a7be ae79 073e e5ff cd3d a7fc e93d
000001d0: 2c7c dc3d 3c67 aabe 990e 04be 0f03 a13c
000001e0: d0cd 97bd 6cb4 673d b613 cdbd 5868 1cbe
000001f0: c6e5 17be be07 41be 1c56 c93b fab4 dfbb
00000200: e6f7 a539 e607 203e 86a5 063d 353b 143c
00000210: 9b5c 7abd 5518 4abd 1e08 eb3c f5d0 a0bd
00000220: 1780 c23c 5fb2 ac3d f4b5 383e b4b9 813d
00000230: cfb0 a73d 8ebb 7ebd 89b6 86bc 50ee 4f3d
00000240: 88df 1f3d 0e8e af39 24d6 343c 3ba9 e53c
00000250: 1b4e 51bd 91e9 e9bc 60ce 963d 8a43 693d
00000260: 4d1c 0ebd da75 56bd 6d44 4f3c 263b 6fbc
00000270: fbff c73c dd9c 63bc ee41 a7bc 0b75 113e
00000280: 0c29 23bc 75fd 543e d7f8 00bc 1990 d03d
00000290: 27f9 263e 115c 463d 053b 6fbd 2725 23bd
000002a0: 1d4b a93c b308 3d3e 8271 b3bb 8e37 4dba
000002b0: d900 29bd 7f23 b0bc 28b9 0e3e 5d17 8a3d
000002c0: cc9f e23d 58ea 19bd 6a6c 943d e7cc 583d
000002d0: e112 61bb c15d 833d fae1 6c3d 1e49 a93d
000002e0: 1279 22bc 9c58 e23c 6cc4 333e 63d8 4abc
000002f0: 1184 e5bc a64b 3ebc 9bd9 26bd 3677 663e
00000300: f599 ba3c c425 7e3d a37e ce3d 4a48 523d
00000310: 6170 0e3e ab7c 26bd 9daa c53b c78d cebc
00000320: a7ba f8b9 b025 6a3d 1e2a 34bd e785 0a3e
00000330: 9765 abbd 362a ca3c 2da8 c3bc 2e73 b1bd
00000340: b2f4 9f3d ccef 303d 8c22 ce3d b1d4 bc3d
00000350: 0f18 f1bd f9a2 09bd 7a3f 16bd 4bbe b83c
00000360: cb6e 4f3d e24a 2c3d 33c4 3dbc 190b a23d
00000370: 35f0 04bc 7690 6e3d da12 15bd c138 aabc
00000380: 198c 9abd 83a3 1c3c 270a 133c b582 c43c
00000390: a220 11bd fbd4 bc3d 4cf1 aa3d 274f c53d
000003a0: 84a3 1f3c fc10 653e d66a 953b 940c b7bc
000003b0: c2e0 33bd 2b79 ac3c c87d 833d a00a f2bc
000003c0: a92f a03d 6417 37bc 4ef0 e23b 4a0d 9d3d
000003d0: 82cf 62bc 2320 d33d 59de 373d ed7c 0d3e
000003e0: d075 573c 715d 3b3e aec0 8b3d abc0 aabd
000003f0: 067d a43d 28f0 b43c 38f4 833d 66ac 5d3d
-0.22619025 -0.04798825 -0.09027042 -0.16954607 -0.18871795 -0.009079041 0.09127298 0.3198229
-0.05438855 -0.18166144 -0.030509094 0.15121944 0.0071815983 -0.05069163 0.12551026 -0.17867823
0.0043655173 0.029289411 0.017264763 0.15070525 -0.05897094 -0.10061958 0.016312517 -0.35385242
-0.18621327 -0.02416321 -0.04084045 -0.015974853 0.0018682295 0.057033412 -0.05293589 0.1931444
-0.06996387 0.22462006 0.3805382 -0.11466402 -0.02167864 -0.18814343 0.18399583 0.11817352
0.08898249 -0.45205566 -0.20007864 -0.29875782 -0.16675325 0.03917163 -0.3028639 -0.0627454
0.015411372 -0.3058941 -0.16407777 0.019924909 -0.05498901 -0.10472168 0.005650546 0.20462953
0.011539713 -0.32034963 -0.016384846 -0.68777525 0.035756838 -0.023713788 -0.08606841 0.0048890216
-0.1945981 0.113691926 0.18033391 0.15469147 0.066838205 -0.121199 -0.2979358 0.107171826
0.032466445 -0.07055985 -0.018494371 0.052388698 -0.20513988 0.13395874 -0.25959396 0.13382715
0.16661999 -0.0075909784 -0.084307216 0.1810056 -0.0032694307 0.51862264 0.012228339 -0.03783038
0.054414008 0.17327772 -0.13736348 0.14725894 0.100448504 -0.013769387 -0.2754908 0.05002878
-0.12662397 -0.14131439 0.01568323 -0.14319518 0.02505968 -0.0036967602 0.013314089 -0.13093296
-0.14677462 0.0061404263 -0.8236933 0.107755445 -0.065192185 0.13393366 -0.093573004 -0.015597793
-0.32733804 0.13230011 0.10058574 0.11425143 0.107658714 -0.33281887 -0.12896194 0.019654779
-0.074123025 0.056568548 -0.10013525 -0.15274179 -0.14833745 -0.1885061 0.0061442982 -0.006826994
0.0003165595 0.15628013 0.0328727 0.009047319 -0.06112347 -0.04933961 0.028690394 -0.078523554
0.023742719 0.08432459 0.1803816 0.06334248 0.081880204 -0.062190585 -0.016444461 0.050764382
0.039031535 0.0003348444 0.011037383 0.028034797 -0.051099878 -0.028553756 0.07363582 0.056949176
-0.03469496 -0.052358486 0.012650591 -0.014601504 0.024414053 -0.01389238 -0.02041718 0.14204805
-0.009958517 0.20799811 -0.007871828 0.101837344 0.16305982 0.048427645 -0.058405895 -0.039830353
0.0206657 0.1846035 -0.0054761777 -0.00078284077 -0.041260574 -0.0215013 0.13937819 0.067427374
0.11065635 -0.037577003 0.07247241 0.052929785 -0.0034343528 0.064143665 0.057832696 0.08265899
-0.009916561 0.027630143 0.17555398 -0.012380692 -0.028017076 -0.011614716 -0.04073487 0.22506413
0.02277849 0.062047735 0.10082748 0.05133847 0.13910057 -0.040646236 0.0060323016 -0.02521409
-0.00047441313 0.057164848 -0.04398548 0.13527642 -0.08368986 0.02467833 -0.023883903 -0.08664547
0.07810344 0.043197438 0.10065183 0.09220255 -0.11772167 -0.03360269 -0.03668163 0.022551676
0.05064277 0.0420636 -0.011582422 0.07912273 -0.00811391 0.058243237 -0.03639493 -0.020779015
-0.07546253 0.009560469 0.0089745885 0.023988107 -0.03543151 0.0922031 0.08346805 0.09634238
0.009743575 0.2236976 0.004559855 -0.022344865 -0.043915518 0.021053871 0.06420475 -0.029546082
0.078215905 -0.01117501 0.006925619 0.0766855 -0.013843419 0.10308864 0.04488978 0.13817187
0.013150647 0.18297364 0.0682386 -0.0833753 0.08031659 0.022087172 0.064430654 0.05411949

layer2.bias f4 [64]
00000000: c89b dabd 1048 cc3d 30df bf3d b5e7 84bd
00000010: 2646 1e3e 05b1 de3d 68f0 d93d 86db 8f3d
00000020: 4ad4 753d f082 fe3d c9b5 e93c 0f6c da3c
00000030: e687 483d 373d 093e e207 9c3d ea18 d83d
00000040: f930 833d f49b 833d a3de 113e cd0f 873d
00000050: c420 87bb ac34 923d 5d07 8a3d bb76 893d
00000060: 01d0 543d 3615 343e 6adc 17bc 8a46 183e
00000070: 0eb1 ad3d ef83 753d 15d9 20bd 6719 553d
00000080: f31b 123b cd3b 3c3d 1e9f 5e3d 590e 3a3e
00000090: c837 1f3d b12c 4ebc 9843 0b3d d0e5 113d
000000a0: 2add 96bd 55fb ba3b 1983 08bd f5f4 bb3b
000000b0: a1e8 5f3c 6f8d 813d 7941 883d 3749 003e
000000c0: 2fc5 923d f9c2 58bc ca92 7abd 6268 be3d
000000d0: 5236 c03c 3e8d ffbc cdac 793d a2c9 4e3d
000000e0: 107f 173d 6957 693d 47e5 5f3c 9225 133e
000000f0: 9a44 9c3d 9cef d33c 1fbe 103d d9c8 403d
-0.10674244 0.09974682 0.093687415 -0.06489507 0.15456447 0.108736075 0.10641557 0.07024293
0.060016908 0.12427318 0.028529065 0.026662854 0.048957728 0.13402258 0.07618691 0.10551627
0.06405825 0.0642623 0.14245085 0.06594811 -0.004123779 0.071389526 0.06739686 0.06712099
0.05195618 0.17586216 -0.009268859 0.14870659 0.08481036 0.059940275 -0.039269526 0.05202618
0.002229449 0.045955468 0.054350965 0.18169536 0.038871557 -0.012583897 0.03400001 0.035619557
-0.073664024 0.0057062306 -0.03332815 0.0057359883 0.013666303 0.063258044 0.06653113 0.12527929
0.07166516 -0.013230079 -0.061175145 0.09297253 0.023463402 -0.03119528 0.06095581 0.05048526
0.03698641 0.056968126 0.013665504 0.143698 0.07630272 0.02587109 0.035337564 0.047066543

layer3.weight f4 [4, 64]
00000000: b6e7 9f3e 6b76 d13d 4c14 a33d eead 5b3f
00000010: 8832 343e 3508 d73d ba83 6d3e 10df 1a3f
00000020: bad0 2d3f b1da 123e e8fb d13d 1f8c de3e
00000030: 84ea 283f 3a1a 513e 284d 9a3e ae31 f23e
00000040: 17ec ca3e 2583 7f3d 57f6 183e ace7 2c3f
00000050: 351d 2a3f dd77 d03d 70e0 383f add9 563f
00000060: 53dd b63e 4481 063e 3df1 1d3f 5dc0 153e
00000070: dd23 0a3f 77f0 473f 17c1 883f 1f34 b93e
00000080: 79f9 4dbf 24fa 433f 5431 833f 2c31 6a3e
00000090: bd7c ac3e 96cf e4be 30fc c63e f675 a6be
000000a0: 46fc c4be 8a6f 183d aebd 08bf cc4e 393f
000000b0: 1302 363f ad34 a63e 3a1a 053f d1ca f43d
000000c0: c28c 983d 343f cb3e 2085 50bf 195e 363f
000000d0: 3304 313f ad11 4b3f ba86 803d f922 083f
000000e0: 5c31 003f a192 2f3f dda6 ccbe a762 443e
000000f0: 3c40 1d3f e058 d33d 367d 213f dc20 3a3f
00000100: bbfd 443f 58db c93d f49f c83d 940e bd3e
00000110: c7ba 373e fab6 d63d de64 5f3e 2374 e73e
00000120: 253b 3e3f 91ee 253e 9cd9 fa3e 299f c33e
00000130: fdac a83e f338 333e c97b 733e e522 103f
00000140: 17ff cf3e 6cd3 8c3d 151b 5c3e a693 023f
00000150: 4bc8 2d3f 287e c43d 6636 563f e91e 2b3f
00000160: 6243 1c3f cf5d 6c3e 9d02 133f 806f 353e
00000170: 06e1 473e 3f67 4c3f 94e2 253f dd6b c93e
00000180: c272 2ebf f685 5a3f bb58 603f db24 1b3e
00000190: 8411 aa3e 7c2c 66bf 97c9 333f 4f70 2dbf
000001a0: d3f4 abbe 1fa9 e43c ffb5 0cbf 53c6 0a3f
000001b0: fa1c 2a3f 3de0 8c3e 08dd 263f eb34 f83d
000001c0: eec5 a43d b101 843e 24ee 57bf 7d9c 293f
000001d0: 8e0c 513f 0942 6b3f 218a 843d 6cbc 2b3f
000001e0: 2674 273f b0dc 133f 8a55 c1be c6f3 443e
000001f0: dadd 173f 8769 a5bd 9076 233f bb7d 3d3f
00000200: 9551 d13d 1682 dc3d ee28 cd3d 6746 15bc
00000210: 35c9 513e 162c e13d 6770 4c3e 0519 e13e
00000220: a68f 1a3f f41a 113e 2f1e 453e 0eb4 dd3e
00000230: 701f eb3e 8798 393e e5e8 413e e764 2d3f
00000240: 993c ce3e 9cb5 8a3d 8ebb 773e 94b1 0e3f
00000250: abc9 513f 9110 c83d c20e 753f c5bb 213f
00000260: 880b 393f 0fea 123e f78f 2b3f a4d0 193e
00000270: 4ce7 8d3e d290 383f 9d9a 4d3f 7261 b53e
00000280: 88da 35bf 89d8 4f3f a8b3 753f 0ea3 653e
00000290: 1363 733e 4fc3 36be 00c8 2b3f df50 883e
000002a0: 94a7 04bf f310 033f 8cf7 28bf 6992 c53e
000002b0: 9f15 9e3e b337 963e 7f9b 253f bc39 ef3d
000002c0: 65be 9a3d a1fc de3e 8f16 83bf 0028 453f
000002d0: 3f50 443f c6c0 023f 004c 8b3d 5487 e23e
000002e0: 3cfd 5f3f 9cc3 ee3e 1ad2 05bf 498f 473e
000002f0: f140 1c3f 43c4 1b3f 0ec8 143f 2c2c 3e3f
00000300: 11dc e63e 6d8c d03d 2d41 c73d 0592 6f3f
00000310: 3dab 403e 9db0 d03d 075d 1c3e a878 d73e
00000320: 46ac 393f cd45 1d3e 1606 da39 a48a bb3e
00000330: d7d5 133f 8193 353e e055 943e e157 1c3f
00000340: 7a91 a33e 70ee 873d ffec 6a3e 4b25 073f
00000350: 144b 3a3f 5dc1 c93d c8d4 4a3f b611 223f
00000360: b13d d53e 03c4 6f3e 923c 2b3f 5a41 233e
00000370: a47c 1d3f 8a6d 483f a772 473f ca2b 193f
00000380: 3390 31bf 2cb8 3a3f 94f1 693f 21c6 083e
00000390: 4928 9b3e ce60 dcbd 07af 523f 864d 283e
000003a0: 0576 24bf 575d be3e 7e46 0abf f251 2d3f
000003b0: be22 0d3f 0ca6 be3e 9b87 273f 603b f03d
000003c0: 68d2 a03d cb51 053f 8ddf 3cbf dd5c 4f3f
000003d0: b8bc 223f d761 fa3e 9288 7f3d 9c5f e93e
000003e0: aa20 263f dfe9 ec3e 5f6d 0cbf dd1f 453e
000003f0: 6d66 063f 06a5 373f 887e 0e3f 500b 2e3e
0.3123147 0.102276646 0.07962856 0.8581227 0.17597401 0.10499612 0.23194781 0.60496616
0.67896616 0.14341237 0.102531254 0.4346628 0.6598284 0.20420161 0.3013699 0.47303528
0.39633247 0.06238093 0.14937721 0.67541003 0.66450816 0.10179112 0.72217464 0.83925897
0.35715732 0.13135248 0.61696225 0.14624162 0.53960973 0.78101295 1.0683926 0.36172578
-0.8045879 0.7655356 1.0249429 0.2287032 0.33688918 -0.44689626 0.3886428 -0.32511872
-0.3847372 0.037215747 -0.5341443 0.7238586 0.71096915 0.32462063 0.51993144 0.11952747
0.074487224 0.39696658 -0.8145313 0.7123733 0.6914703 0.79323846 0.06275697 0.53178364
0.50075316 0.6858311 -0.39971057 0.19178258 0.6142614 0.10319686 0.6308168 0.7270639
0.7694966 0.098562896 0.09796134 0.36925185 0.17942344 0.10484119 0.21815822 0.45205793
0.74309 0.16204287 0.48994148 0.38207367 0.3294448 0.17502193 0.23777689 0.56303245
0.40624306 0.06876263 0.21494706 0.51006544 0.6788375 0.09594375 0.83676755 0.6684404
0.6104032 0.2308266 0.5742586 0.17718315 0.19519433 0.7984504 0.64798856 0.39340106
-0.68143857 0.8536066 0.8763539 0.15150778 0.33216488 -0.8991163 0.70229477 -0.67749494
-0.33585224 0.027912674 -0.54965204 0.5420887 0.66450465 0.2751483 0.65181017 0.12119468
0.080455646 0.2578254 -0.8434775 0.6625441 0.8165978 0.91897637 0.064716585 0.67084384
0.65411603 0.5775862 -0.37760574 0.19233617 0.59322894 -0.08076768 0.63852787 0.74019974
0.10220639 0.107669994 0.10017572 -0.0091110235 0.2048691 0.10994737 0.19964753 0.439644
0.6037544 0.14170438 0.19249795 0.43301433 0.45922422 0.18124591 0.18936498 0.6773209
0.40280607 0.067729205 0.2419264 0.5573971 0.81948346 0.09768785 0.95725644 0.6317714
0.7228322 0.14347099 0.6701655 0.15020996 0.27715528 0.7209598 0.80314046 0.35425907
-0.7103658 0.8118978 0.9597726 0.22425482 0.23768263 -0.17847942 0.6710205 0.266242
-0.51818204 0.5119774 -0.66002727 0.38588265 0.3087587 0.2933937 0.64690393 0.11680934
0.07555846 0.43552116 -1.0241259 0.7701416 0.76684946 0.510754 0.06801605 0.44243872
0.8749578 0.46633613 -0.52273715 0.19488253 0.6103659 0.60846347 0.5811776 0.7428615
0.45089772 0.10183034 0.09729228 0.93582183 0.18815322 0.10189936 0.15269862 0.4208424
0.72528493 0.15358658 0.00041584735 0.36629212 0.5774817 0.1773205 0.28971767 0.6107159
0.31946927 0.06637275 0.2294197 0.5279128 0.7277081 0.09851334 0.7923093 0.63308275
0.4164863 0.23414616 0.668893 0.15942898 0.6151831 0.78292143 0.7790932 0.5983244
-0.69360656 0.72937274 0.91384244 0.1335683 0.30304173 -0.107606515 0.8229832 0.16435823
-0.64242584 0.37180588 -0.5401381 0.67703164 0.5513114 0.3723606 0.6544129 0.11730075
0.07852632 0.5207793 -0.7377861 0.81001073 0.6356921 0.4890277 0.062386103 0.45580757
0.6489359 0.4627218 -0.5485439 0.19250436 0.5250004 0.7173618 0.5566182 0.16996503

layer3.bias f4 [4]
00000000: 767c 133e 3407 e23d f06e 133e a5a0 243e
0.14402947 0.1103653 0.14397788 0.16076906
