state_dic_target_net/test_v5_.pth (torch, 55199 bytes, 6 tensors)

layer1.weight f4 [128, 36]
00000000: 3eae 0a3c 3bd1 b4bd df52 b43c e08f 7ebd
00000010: 4847 b33c 7de2 f9bd caa3 c33c 034e cc3d
00000020: 5777 eb3c a8d2 bfbc bcc4 69bc f37a d6bd
00000030: e075 e3bd 287e bf3d 55cd 89bd 13a1 4ebd
00000040: 7053 93be 8879 30bc 98b9 813b 18aa 13be
00000050: 6d49 57be a03d 33be 5231 0f3e d1e4 aabd
00000060: 189a dbbd 1d23 68be 5b34 6a3e 0029 863d
00000070: 786f 9c3c d7eb 61bd 84ad 4ebd 6527 f8bd
00000080: 9590 bf3c d3eb f5bd 8875 83bd 03f5 ca3c
00000090: c182 75bd b42e 93bd a251 56bd de5d f53c
000000a0: ee71 ecbc b1b2 a93d ccc2 99bd 34f3 3c3e
000000b0: db0b 873e 2e9f 523e 84c5 223e 5e6d 1a3c
000000c0: 4bc9 8abd 513d 91bd 3f87 753d 6cdf c4be
000000d0: 9c32 503e d403 1d3c 78f8 b93d b555 683d
000000e0: e599 90bd 69a1 0d3e a264 85be eb18 1b3d
000000f0: 2afe 66bc 3f1d f23d 02b1 6f3d 3893 d43c
00000100: ddc6 06be 553c 83bd ae0b 94ba 3225 393d
00000110: 117c 823d acde 3c3d cc92 203d a237 e53c
00000120: c0a2 bdbd f18e b03b fa77 92bd 654d 4d3d
00000130: 0329 863d ca32 b8bd 08b4 aabd b727 9fbd
00000140: d2a5 54bd 9507 61bd bfc5 c8be 334c 073d
00000150: 2127 8fbc 0427 253e 29e1 9a3d 8c50 3c3c
00000160: 0663 b8bd 4507 903d 05a4 b0bd ab99 813e
00000170: 06cd 3b3e 98b4 3a3e 24ac d5bd 0a7f a33d
00000180: 4306 483c e22f 3f3e 246e 113e 1a40 863e
00000190: 1261 593e 3aee 48bc 7e56 b4bc 3ab4 603d
000001a0: 4c55 2d3d 77f1 ca3c e2a9 d2bb 967e f8bb
000001b0: a57e 7d3c 5ca7 c7bc 4e5d 5bbd 3e66 de3c
000001c0: 9309 75bd 893e 8ebd 43bc 9cbd 40fd 20bf
000001d0: 74a9 333e 30fc a6bd e7e6 99bd 709f 85bd
000001e0: 241b a4bd ba02 bbbd 752d 7a3e 24fc a3bd
000001f0: 50f4 b2bc 3750 4abd be22 923d 0bd6 433e
00000200: d344 01bf b883 1dbf 2f0f f43d de31 d6bc
00000210: 0d39 17bd a751 143e 1d66 513d 1bba f5bd
00000220: 5f4c ff3d 376e 49bc b99f c0bc 9abe 333b
00000230: bfb8 55bd 5e99 853c f32f 33bc 5583 a53d
00000240: 738b b83c d9f2 983c fde0 a7bd 24ed 2d3d
00000250: 2e9f 76bd 4350 de3b 3de9 093d 15dd ee3d
00000260: 535d 7c3e 68de 85be 8dde dd3c 141d 803c
00000270: e545 a9bb 97e4 663c 7b96 103e 4196 653e
00000280: 97ce cd3d e4a2 763d e763 84bd 309a 8e3d
00000290: 862b 503e 9268 4cbd 6f86 7c3d 3994 3dbd
000002a0: c2d0 a4bd 77df 183e d5aa 4f3e 0eb4 d5bd
000002b0: e3ef f03c 1fa8 353d a682 d13c a388 1abd
000002c0: 29bf 08bd cbec 693d 659c 583d bafd 843c
000002d0: 1284 a73d 4b32 543d e119 843a 7c03 9c3d
000002e0: 45ac aabd d5e3 fdbc 8357 82bd f4b1 00be
000002f0: 0f58 e13d 6c03 253e 184c 2a3e e215 87bd
00000300: 5ab0 a0bd 98c9 3bbe c385 24bf 29db b7be
00000310: 48ab 1abe db40 abbb f954 753d 21f5 1f3e
00000320: 24b1 773e 25b1 933d 0b3b 3d3e 017a 713d
00000330: 1337 2dbd 3370 3abe e0ef 58be b89d 84be
00000340: 58ea dbbd 1eef 94bd bb27 aa3d 40c7 7f3d
00000350: 10c6 8fbd f649 41bd c995 90bd 9e4d 81bd
00000360: f03f fdbb 0249 493c cf55 25bd 9c6a df3d
00000370: 54c6 b33c 1b74 463c 860e aa3c 8fb3 07be
00000380: 4a3e fe3d 3a47 d33d 1e27 f33d 560c b93d
00000390: 6039 84bd 0544 2f3e dc2a dc3c bae8 e13d
000003a0: 3814 12bd 3bcf d73d f440 a73d 294f f2be
000003b0: 0d58 42be 5dbc 323e 98df f73d b5b9 043d
000003c0: 0c38 f6bc e0b5 993e 87dc 713d 485e c4be
000003d0: 8c86 173e 543b 8b3c 8b46 af3c 9411 e73c
000003e0: a9e8 bd3d f900 423d 5c55 c13d e13a b7bc
000003f0: 91ad 16bb 9193 a23d 4ec2 7ebd 48f4 773b
0.008464394 -0.0882897 0.022012172 -0.06214893 0.021884575 -0.12201402 0.023881812 0.09975817
0.02874343 -0.023415878 -0.014268097 -0.104726695 -0.11106467 0.09350234 -0.06728617 -0.05044658
-0.28774595 -0.010771163 0.003958892 -0.14420354 -0.21024103 -0.17503977 0.13983658 -0.083444245
-0.107227504 -0.22669645 0.22871535 0.06550789 0.019096121 -0.055156555 -0.050458446 -0.12116889
0.023384372 -0.120078705 -0.06418902 0.024775034 -0.05993915 -0.07186642 -0.052323945 0.029951986
-0.02886292 0.08286036 -0.07507858 0.1845215 0.26376233 0.20568535 0.15895659 0.009425489
-0.06776675 -0.07091773 0.059943434 -0.38451707 0.20331806 0.009583432 0.09080595 0.05672236
-0.07060603 0.13831104 -0.2605334 0.03786556 -0.014098683 0.118219845 0.058518417 0.025949106
-0.13161798 -0.06407992 -0.0011294985 0.045201488 0.0637132 0.046110794 0.039202496 0.02798063
-0.09259558 0.0053881337 -0.0715179 0.050122637 0.06550791 -0.08994062 -0.083351195 -0.07771247
-0.05191595 -0.05493887 -0.39213368 0.033031654 -0.017474713 0.16128165 0.07562477 0.011493813
-0.09003262 0.070326366 -0.08625034 0.25312552 0.18339929 0.18232954 -0.10433224 0.07983215
0.012208524 0.1867061 0.14202172 0.2622078 0.21228436 -0.012263829 -0.022013899 0.054859377
0.042317674 0.024773343 -0.006428943 -0.0075834496 0.015472089 -0.024371795 -0.05355578 0.027148362
-0.059823584 -0.069455214 -0.076530956 -0.6288643 0.1754511 -0.0815357 -0.07514744 -0.06524551
-0.08012989 -0.091313794 0.24431403 -0.080070764 -0.021845013 -0.049392905 0.07135533 0.1912462
-0.5049564 -0.6152911 0.119169585 -0.026146825 -0.036919642 0.14484273 0.051122773 -0.119983874
0.124657385 -0.012294344 -0.023513662 0.002742684 -0.05217814 0.016308483 -0.010936725 0.0808169
0.022527432 0.018670486 -0.0819721 0.042462483 -0.0602104 0.0067844703 0.0336697 0.11663262
0.24644975 -0.26146245 0.02708366 0.015638866 -0.005165803 0.014092586 0.14119904 0.22420599
0.100491695 0.06021394 -0.06464367 0.06963003 0.20329103 -0.049904414 0.061651643 -0.046283934
-0.0804763 0.14928995 0.20280011 -0.10434733 0.029411262 0.044349786 0.025574993 -0.037727963
-0.03338543 0.05711059 0.052883524 0.016234268 0.08179487 0.051805776 0.0010078513 0.07617852
-0.08333639 -0.030992428 -0.06364348 -0.12567884 0.11003124 0.16114587 0.1663059 -0.06595971
-0.078461364 -0.1833862 -0.64266604 -0.35909393 -0.15104401 -0.0052262372 0.05989549 0.15620853
0.24188668 0.07211522 0.18479554 0.058954243 -0.04228885 -0.18206863 -0.21185255 -0.2590158
-0.10738057 -0.072721705 0.08308359 0.06244588 -0.07020199 -0.047189675 -0.07059819 -0.063136324
-0.007728569 0.012285473 -0.040365037 0.10909006 0.021945156 0.012112643 0.020758878 -0.1325209
0.124142244 0.1031632 0.118726954 0.09035556 -0.06456256 0.17115791 0.026875906 0.11030717
-0.035663813 0.10537573 0.08166686 -0.4732602 -0.18978901 0.17454667 0.12103194 0.032403667
-0.030056022 0.30021572 0.059048202 -0.3835318 0.1479742 0.016996063 0.021395942 0.028206624
0.09272892 0.04736421 0.09440109 -0.022366943 -0.0022991637 0.07938302 -0.062197022 0.0037834812

layer1.bias f4 [128]
00000000: e2c3 71bd 9855 10bd 00d6 9e3d 643d 813c
00000010: fb73 55bc 39cf 913d baa8 9cbc 3bea acbd
00000020: 77cf 5dbd 4dac 003d 3074 e03d c4b1 c03d
00000030: 255f b6bd 2580 c1bd f57d 703d dd9f 7e3d
00000040: c72f 81bd 4232 2dbd 6422 5d3d 3c11 41bd
00000050: 1236 913d 68d2 a9bd d1bb e33c 448e 843d
00000060: 9144 7e3d de98 d9bb 4ab9 a73c 5b5a d0bd
00000070: bf75 3bba c788 f3bd 51fc 19bc e315 febc
00000080: 0101 703d c62e 643d b255 a9bd 23cc 853a
00000090: c7aa 95bc 863e 9fbd cb23 a6bd dc92 7b3c
000000a0: e0bb 253d e709 443b 4333 8a3d 29ba 243d
000000b0: 68df 64bd ee1d 1cbd 45b1 d33d d115 043d
000000c0: 96e6 98bd f3f8 49bd b6ff c23d 3bc7 9d3b
000000d0: 84be c5bc ce17 14bc b4c9 c6bd f9df 8dbd
000000e0: c5b0 ffbb b39b bc3c 5fe2 8ebd fe03 a2bd
000000f0: 5602 723d fecc e13c 0792 c7bd 0930 b73d
00000100: 5ff2 373a d4b2 bd3d 5e3b adbd 33df c6bc
00000110: 4b26 cd3d 947f f037 b642 303d 4c85 25bc
00000120: 6768 f7bc 151c a1bd d0f8 4f3d b643 d7bd
00000130: f629 3cbd 91b9 cdbd ae2f 683a 480b 593d
00000140: adc6 003d dc6e 0b3d 3586 283d 491a d33d
00000150: 193c 973d fbb3 5f3c 5f87 7e3d a9c2 e73c
00000160: 1a96 16bd 49b9 3cbc 58ef 89bd 45d4 c7bd
00000170: 3a5e d1bc a373 8abc eb7b 82bd 54f5 a23d
00000180: 95ef aabd 6aee 703d 7988 2ebd 853b 0dbb
00000190: d06e d0bd 138e 05bd 14c6 103c 1d59 353d
000001a0: 436f a5bc 2938 ce3c 73b4 69bc d7a3 34bd
000001b0: 06c6 bf3c 0554 d23d f9a7 95bd a76f bc3c
000001c0: 68ac 72bd 3d78 67bd b640 b83c 7ac1 0d3d
000001d0: aeed 02bd 4f1a c13c cfa1 b33d 17ed 293d
000001e0: 5572 babd 1d6a a2bd ef0b 50bd cccc 9cbd
000001f0: 1cdb 8dbc 2d24 6dbd 342b 8d3c b096 5a3b
-0.0590247 -0.03523788 0.07755661 0.015776344 -0.01302814 0.07119603 -0.019123424 -0.084431134
-0.054152932 0.03141432 0.10959661 0.09408906 -0.08904866 -0.0944827 0.058713872 0.062164176
-0.06307941 -0.042284258 0.053987876 -0.047135577 0.07090391 -0.08292085 0.027799519 0.064724475
0.06207711 -0.0066405376 0.020474095 -0.10173484 -0.00071510294 -0.118913226 -0.009398536 -0.031016296
0.058594707 0.05570867 -0.08268298 0.0010207932 -0.01826991 -0.07775597 -0.08112296 0.015354838
0.040462375 0.0029913129 0.06748059 0.0402166 -0.05587712 -0.03811448 0.10336546 0.03224737
-0.07465856 -0.049309682 0.09521429 0.00481501 -0.024138696 -0.009038879 -0.097064406 -0.06927485
-0.007803055 0.023023462 -0.069767706 -0.07910918 0.05908426 0.027563568 -0.097446494 0.08944709
0.0007017012 0.092626244 -0.08458589 -0.024276352 0.100170694 2.8669638e-05 0.04303237 -0.010102581
-0.03020115 -0.07866684 0.050774395 -0.10510962 -0.045938455 -0.100451596 0.00088572025 0.052989274
0.031439472 0.03404127 0.041143615 0.10307748 0.073845096 0.0136537505 0.06214082 0.028291063
-0.03676424 -0.011518785 -0.06735104 -0.09757284 -0.025557626 -0.016900843 -0.06371292 0.07956949
-0.08346478 0.05882112 -0.04261062 -0.002155037 -0.10177386 -0.032606196 0.008836288 0.04427444
-0.020194655 0.025173264 -0.014264214 -0.044101562 0.023409855 0.10269932 -0.07307429 0.023002459
-0.05924645 -0.056511153 0.022491794 0.03460834 -0.03196495 0.023572115 0.08771097 0.041485872
-0.09103838 -0.07930396 -0.05079263 -0.076562494 -0.017316394 -0.057895828 0.017232515 0.0033353977

layer2.weight f4 [64, 128]
00000000: 0909 193e 7172 d03d 18d0 9bbe e925 3c3d
00000010: 0440 b2bb 2988 ff3d af7e 4d3e 3b93 2d3e
00000020: 761e 44be 3282 afbd 8e1a 433e 7b55 91bd
00000030: 343f 8b3c d4b9 afbd b8a1 413e 3665 89be
00000040: eb05 80be aecc 0e3e 6de2 633e b723 04bd
00000050: 6a02 2839 1f19 723d 2234 9dbc 43bd ad3d
00000060: ea07 65bd 613d 633e fab0 9cbd b6de 68be
00000070: f054 773d 9ea5 da3e 1115 afbd 47a6 b5be
00000080: 6d42 8eba 22d7 06bc 8907 043e 4e40 273e
00000090: 693d 9fbd 327d 543e cbc6 ebbd 5ed4 56bd
000000a0: 4477 0b3c 8a12 33bd f9a6 313e bacc 2d3d
000000b0: c302 603d b8cb ff3d 1582 943d af2c 9bbc
000000c0: edb0 cebc d75a f9bd ae0c c93d fc74 e63c
000000d0: 5217 45be c6a9 10be d74f 613d 93fc 013e
000000e0: d8c6 9e3d 75d0 0d3f 8026 3a3a c7a3 38be
000000f0: c069 fb3d a555 7e3d 484f 983d ba8e 013c
00000100: 0851 983d 0283 b1bc 900e cdbc c216 023d
00000110: 9ba0 ddbe 478a 823d cd4c 9d3e b196 85bd
00000120: f5d1 a23e 071d cf3d 2f8f c83e 4c40 6a3e
00000130: 65e7 1f3e d87b dfbd a26e 64be e891 04be
00000140: 42d3 f9bc 59ee 15bd 50ee a6be 4e9a 9bbd
00000150: b555 353e 6487 3e3e 86c8 1dbc a3cf 7c3e
00000160: d8f3 35be 8360 a5be 7904 483d 9852 693e
00000170: 8450 1ebe 1d3f 85be 73cc 50be 2e6f a63e
00000180: a999 883e 98f4 babd 1756 a4be ed3d d7bb
00000190: d579 7a3d 3fc4 1a3d 7bee 193f 2231 133e
000001a0: 84f7 ccbd a385 28be 964d 08be 8ca5 a4be
000001b0: 29d7 3fbd 5c34 0fbe 31bd 253e a55a debd
000001c0: 317b af3c dbc9 793e 8d65 323e ee6e 4ebe
000001d0: 05fb 1e3e b7c6 93be a95c 263d 4b13 723c
000001e0: 3c7e ff3d 1c00 9fbd 360f ec3d 2a1a d5bd
000001f0: b322 7e3e d826 1e3e 64e8 7dbe d359 0c3e
00000200: effc b1bd 54f1 3a3e 5053 593e f65d 6e3b
00000210: 0048 5a3e 7bf7 90be 6a09 15be 5120 5d3e
00000220: 336b be3e 2f7d 423b 13bf 4bbd 8a00 493e
00000230: 2809 a8bc e07a a33c a836 a8bd f7d7 51be
00000240: ec5e 94ba 9968 49bd 4da4 933d 2135 3bbb
00000250: 197e 003d 136e c73d 35b6 4dbe 8929 26be
00000260: 2adb 733e 5a95 a9be 8832 643e 3e47 cc3d
00000270: d7ef 1a3d 05d6 353d 21f5 dcbd 6d17 b33d
00000280: d18e abbd d802 2b3e d772 57be e8a2 8ebd
00000290: 1cd1 163e 2858 be3c f122 813e 5df2 bfbd
000002a0: ee2e a43d 92c9 ba3e 8db5 803d 9924 bc3d
000002b0: efe9 89be 038e f1bd be5a 3cbe 2dfa 54bd
000002c0: 548d d9bd b2b2 c83d 5508 53be 1a8c 153d
000002d0: 8507 9e3e 2366 463e 5132 9f3d f001 9bbc
000002e0: aa81 e0be 0916 62bc 9d55 f3bc 0543 69bc
000002f0: 1f38 11bd 455a c63d 293e 893e acf3 8abe
00000300: 6b03 e53d 2b8a c439 8092 c5bd ea32 b7bd
00000310: 5bb2 33be 8df3 103e ae6e f0be 95d5 8ebe
00000320: 7a8a 8ebe 55be 50bd b9a6 3bbf 0d8b d2bc
00000330: c9f5 a8bc b871 9d3d 408e 49bd ade9 843d
00000340: f916 98be 96fb 96ba 2017 1d3d 19ba 823e
00000350: 3fbc eabe 0193 43be e672 723e 9fd4 163e
00000360: 450c b73d 0f3a 71b9 9b91 013d 2272 7dbe
00000370: 2e7d 5e3e 17c6 c73d af5e 893e c275 17be
00000380: 9a5a c63d 8727 c23d 5025 61be 9b0a 0b3e
00000390: 80d4 ae3d b362 1ebe 5718 62be 78e9 5e3e
000003a0: b4db 303d 41c1 643d a3bd bb3c fb1a 7d3e
000003b0: 5871 f8bd b320 99bd 293d 9b3c 3571 47be
000003c0: 7345 0e3e 26ff a13d 6d11 d8be e2f3 a5bd
000003d0: f43b 093d 9e30 69bd 1883 2c3e 5685 db3d
000003e0: e478 393d e226 633e 754b 21be 05c4 e63c
000003f0: d410 be3b 3305 bdbe f238 19be 9ad2 bd3d
0.14944853 0.10178078 -0.304322 0.04593459 -0.00543976 0.12477142 0.20067857 0.16950695
-0.19152245 -0.08569755 0.19053099 -0.07096382 0.016997911 -0.08580366 0.18909347 -0.2683503
-0.25004515 0.13945267 0.22254343 -0.032260623 0.00016022628 0.05910599 -0.019189898 0.084833644
-0.05591575 0.22191383 -0.07650943 -0.22741207 0.060383737 0.4270448 -0.0854894 -0.35478422
-0.0010853537 -0.008230003 0.128935 0.16333124 -0.07775385 0.20750883 -0.11512526 -0.052448623
0.008512322 -0.043718852 0.17348851 0.04243157 0.054690134 0.12490028 0.07251374 -0.018942205
-0.02523085 -0.121755295 0.098168716 0.028131954 -0.19247177 -0.14127263 0.05500778 0.12694006
0.0775277 0.55396205 0.0007101074 -0.18031226 0.122760296 0.062093396 0.07436997 0.007907564
0.074373305 -0.021668915 -0.025031358 0.031759985 -0.43286595 0.063740306 0.30722657 -0.06522883
0.3180081 0.101129584 0.3917174 0.2287609 0.15615614 -0.10912293 -0.22307828 -0.12946284
-0.030496243 -0.03660426 -0.32603693 -0.07597791 0.17708476 0.18606335 -0.009630328 0.24688582
-0.177688 -0.32300195 0.04883239 0.22785413 -0.15460402 -0.26024714 -0.20390491 0.32506698
0.26679733 -0.09128684 -0.3209693 -0.0065686614 0.061151344 0.03778481 0.6012952 0.14374211
-0.10008147 -0.16457228 -0.13310847 -0.32157552 -0.046836052 -0.13984817 0.16185452 -0.10857133
0.021421047 0.24393408 0.17421551 -0.20159504 0.15525444 -0.28862545 0.04061571 0.014775108
0.12475249 -0.07763693 0.11526339 -0.10405381 0.24817924 0.15444505 -0.24795681 0.1370614
-0.086908214 0.18256122 0.21223187 0.0036371923 0.21316528 -0.28313813 -0.14554372 0.21594359
0.37191162 0.0029676666 -0.04974277 0.19629112 -0.020512179 0.019956052 -0.0821355 -0.2049254
-0.0011319793 -0.049172018 0.07209072 -0.0028565603 0.031370256 0.09737792 -0.20089038 -0.16226782
0.23814073 -0.3312176 0.22284901 0.09974526 0.037826385 0.044393558 -0.10788942 0.087447025
-0.083768494 0.16700304 -0.21039902 -0.06964666 0.14728206 0.023235396 0.2522197 -0.09372399
0.08016764 0.3648191 0.06284628 0.09186668 -0.2693629 -0.11794665 -0.1839399 -0.0519964
-0.10622659 0.097997084 -0.20608647 0.036510564 0.30865112 0.193749 0.07773269 -0.018921822
-0.43848926 -0.013799199 -0.02970391 -0.01423717 -0.035453912 0.09685186 0.26805237 -0.27139032
0.111822926 0.00037486976 -0.09647083 -0.08945258 -0.17548506 0.14155407 -0.46959442 -0.27897325
-0.27840024 -0.050962765 -0.73301274 -0.02570107 -0.020625012 0.07687706 -0.049207926 0.064898826
-0.29705027 -0.001151907 0.03835213 0.25532606 -0.45846745 -0.19099046 0.23676643 0.14729546
0.08937887 -0.0002300518 0.031633 -0.2475057 0.2172744 0.097545795 0.2683005 -0.14791015
0.096852496 0.094801955 -0.2198689 0.13578264 0.08536625 -0.15467338 -0.22079597 0.21768749
0.043178275 0.055848364 0.022917574 0.24717323 -0.121309936 -0.0747694 0.018950062 -0.19476779
0.1389368 0.07909994 -0.42200795 -0.081031576 0.03350444 -0.05693113 0.16846883 0.10718791
0.045281306 0.22182801 -0.15751441 0.028169641 0.005800346 -0.3691803 -0.14963129 0.09268685

layer2.bias f4 [64]
00000000: 672b a83c eba8 493e 4d4c e73c ed94 6a3b
00000010: 152a 733d 443a 0aba ec01 3f3d 91e5 2fbd
00000020: 6acf 573c fd91 afbb bcc1 123c 9abc 953d
00000030: 7165 553c c107 fe3d 8a9b 06bc 34c1 76bc
00000040: c906 9b3d cbd4 6dbc 5711 8ebc 0467 833c
00000050: ce31 8b3d ca5a 0ebd 8c60 7a3c 7748 393d
00000060: 8c19 373d fa3d 413b 8d17 2abd 3689 72bc
00000070: 3163 93ba 6616 703c 899d b53c 6cee c83c
00000080: 8b12 493d f25a 1c3e e9dd 303d 2a39 a93c
00000090: 5e58 b33d 59f2 a33d d916 ff3a 170a 1e3d
000000a0: e19b 84bb 7a63 733d 0167 99bc ae00 1f3d
000000b0: aa41 653d a6b5 0abc e835 73bc 56cd 7f3c
000000c0: 40d4 063d f860 663d cab8 23bd 433a d03d
000000d0: 88e4 923d 4928 543c a740 8f3c ac95 993d
000000e0: c9a5 3d3d 1eba 693d 270f 323d d4d8 3bbd
000000f0: 46b6 123e 0bb3 863d 31a7 25bc cac2 ad3c
0.020528508 0.19693343 0.028234625 0.0035794333 0.059366304 -0.00052729645 0.046632692 -0.04294354
0.01317201 -0.0053579793 0.008957323 0.073113635 0.013024674 0.12403823 -0.008215794 -0.015060712
0.075696535 -0.014516066 -0.017342253 0.016040333 0.06796609 -0.034754552 0.015281808 0.045235123
0.044702098 0.0029486404 -0.041526366 -0.014803221 -0.0011244771 0.014653778 0.022169845 0.02452775
0.04908995 0.15269068 0.04318038 0.02065714 0.08757089 0.080052085 0.0019461765 0.03858384
-0.0040469025 0.05942104 -0.018725874 0.038819008 0.055970825 -0.00846616 -0.014844395 0.015612921
0.03291726 0.05624482 -0.03997115 0.101673625 0.07172495 0.012949058 0.017486883 0.07499251
0.046300683 0.05706226 0.04347148 -0.04586108 0.14327344 0.065771185 -0.010110662 0.021211047

layer3.weight f4 [4, 64]
00000000: 500b 893e ddcd ea3e c42e 603f 9e39 1abf
00000010: 4d97 5abe 4827 e13d 94e0 08bf c419 373d
00000020: 06d3 ecbd 5ed7 8dbe d40e 0fbf ff54 eebe
00000030: 89db 84be 621c e93e b71a 843d 26fd 103f
00000040: 56b6 873f be97 65be 2800 b43e 20eb 74be
00000050: b58c 8ebe 719d 65be b498 d23c c9be f9bc
00000060: 228d 34bf 49a7 443e 503f 053e 76ba d5bd
00000070: 4370 78be 7e82 f3bd 3ae9 f63d 0374 1b3e
00000080: d65f af3d a33d f13e 14ab 853e ba0e a93e
00000090: 0f0b 8fbd 9bcf 9dbe 3cbf 0abf 3589 233d
000000a0: 805c 79bd c5c1 d6bc e267 e23d bca0 e6be
000000b0: 3c0b 67bd d6e7 74be 6ee0 b13d 6710 c03e
000000c0: 1e2e f13d 77bc ba3c c536 cbbe ee76 293e
000000d0: 5a9a 42bf ebad a13e c236 84be e842 b8be
000000e0: a687 853e 5109 6bbd 5999 76be e7e1 363d
000000f0: 0588 d13d 3b8c 3e3e 9489 d2be 4a51 473d
00000100: bea9 873e 1547 9f3d 0eed 4f3e 0acb 4abe
00000110: f9af d4be cdb6 a3be 0c6c 583e 22e6 c8bc
00000120: 0ab7 093e efca 923e 8f70 59be f10b 4ebe
00000130: fae8 ac3d 1403 8e3e 5518 3e3b dddf a33e
00000140: e024 8f3d 024a e3be 81f1 073f 19e3 8cbe
00000150: 052f 8a3d f7ea b9be 8dc2 863b 6d17 9a3e
00000160: e01e 27be f43e 2bbf fa1c ac3e 8068 32bf
00000170: dde5 ecbe 10a9 bc3e 141f c03d 75bb d9be
00000180: d5c0 bfbe f8f6 043d 6161 fabd 1a3c 26bf
00000190: 191d 37be 4a97 95bc 95af 44be 5756 af3b
000001a0: 0217 b2be c58e 5fbf 772b 963e 5cca 223d
000001b0: 06f7 e83e af43 843e 939e 663d d4fb 70bf
000001c0: 5775 10bd 05c6 4bbd b0f8 bdbe 74d6 7a3e
000001d0: 6b71 a83c 541f 84be 4060 353e 40bd 083e
000001e0: 92e5 683f b408 c5bd 0c09 e8be ec3d a43c
000001f0: 5b5a 683f 4d46 2e3f 7793 cb3b 0b78 183f
00000200: 48c6 1ebf ec32 543f f0ab f3be 04d2 30bc
00000210: 1a27 c9be 2c36 fa3d 3997 213f bd9e c83b
00000220: b9a1 48be 8596 5cbe 4cd9 db3c 0bee 463d
00000230: 48a7 a2be b96d 863d ea94 34bd 40d5 8cbe
00000240: e225 d6be 8a31 86be caa8 a2be 2898 873e
00000250: 31b9 cbbe 3782 ad3d 815d 06bc 85ea eb3e
00000260: 62dc d13e 45ca 51bd a19c c3be 22fc c8be
00000270: e316 3fbe a225 f73d 08f4 e8be e11c debe
00000280: f23a 04be cfc3 7d3e 47fb 07bb 6366 cb3e
00000290: fbf0 19be 2f52 37be 0ed2 683e bc10 433c
000002a0: 6958 ffbd 5b39 a0bd 8d03 af3f a2b7 76be
000002b0: 0890 913e 7146 083f 5691 10bf 0c69 73bd
000002c0: 3035 16bf 1a6b 1a3f 3ed8 18bf db8c a93e
000002d0: cea5 28bd 1df9 043e 4d95 7bbe 3439 473f
000002e0: bd71 9a3d 27a4 b23c 6ef4 bbbe 8257 9abc
000002f0: 2c9a 7e3e b896 c1bb fa39 b7be 12f5 393f
00000300: caf1 713d d3ef 4b3c 1998 b8bc 669f 5abe
00000310: fc21 c33c a37f fdbe 75ff c53d 8cbf 5dbb
00000320: 0e68 20bf cda2 0cbf 474c 923b 9116 8b3d
00000330: 5413 8ebd 9777 c33e b290 063d d123 023d
00000340: 7b20 253e 0934 ddbe 2038 08bf 38fe 1b3f
00000350: 266b b2be 0cac fe3d 0f14 56bb eb77 2b3f
00000360: 06c7 403e 3f94 aa3e a689 40bf a5d8 9c3d
00000370: a2a3 18be 4d04 3bbf c4c4 183f c26e d7be
00000380: 776f dfbe 7440 563f 90de 583f d927 a03e
00000390: 8fbb 433f 0698 efbe d269 afbe f39f 253c
000003a0: fe53 3abe 876b 8fbc 066f 27bf 935d 6d3e
000003b0: b03f 81be e086 a33d a27e 85be a72a c13e
000003c0: a50e 82be be3a a43e f50e c4bd 7b4c e7be
000003d0: 95ca 30be cefb 4c3f c163 143d b74b cf3d
000003e0: ab28 cdbe ad11 11bf 1089 77bd 9c64 e8bc
000003f0: 894d d13e 8603 b7be 905c 133d fd8a 0cbe
0.26766443 0.45860186 0.8757136 -0.60244167 -0.21346779 0.109938204 -0.5346768 0.044702306
-0.11563687 -0.27703375 -0.55882 -0.46549222 -0.25948742 0.45529467 0.06450408 0.56636274
1.060252 -0.22421166 0.3515637 -0.23917818 -0.27841726 -0.2242334 0.02570758 -0.030486481
-0.7052785 0.19204439 0.13012433 -0.10435955 -0.24261574 -0.11890124 0.12056203 0.15180974
0.08563201 0.47117338 0.26107085 0.33019048 -0.06984531 -0.30822453 -0.5419805 0.039925773
-0.06087923 -0.026215443 0.1105497 -0.45044506 -0.0564072 -0.23916563 0.08685385 0.37512514
0.11776374 0.022794945 -0.39690223 0.16549274 -0.7601677 0.31578 -0.25823027 -0.35988545
0.26080054 -0.05738193 -0.24081935 0.04464903 0.10231022 0.18608181 -0.4112059 0.048661508
0.2649669 0.0777723 0.20305273 -0.19804016 -0.41540506 -0.31975403 0.21134967 -0.024523798
0.1344873 0.2867045 -0.21234344 -0.20121743 0.08442874 0.27736723 0.0029006202 0.32006732
0.06989455 -0.443924 0.5310288 -0.27517012 0.067472495 -0.36312076 0.0041125477 0.30095997
-0.16320372 -0.66892934 0.33615857 -0.69690704 -0.46269122 0.36847734 0.09380928 -0.4252583
-0.37451807 0.03246209 -0.12225605 -0.6493546 -0.17882194 -0.018260617 -0.19207604 0.0053508687
-0.3478318 -0.87327224 0.29330036 0.039743766 0.45500964 0.25832888 0.056303572 -0.9413426
-0.035268154 -0.049749393 -0.37103796 0.2449587 0.020561894 -0.2580515 0.17712498 0.13353443
0.90975296 -0.096208006 -0.45319402 0.020049058 0.9076287 0.6807602 0.0062126475 0.5955817
-0.62021303 0.828902 -0.47592115 -0.010792259 -0.39287645 0.12217364 0.6312137 0.0061224387
-0.19592942 -0.21541794 0.026837014 0.04856686 -0.3176825 0.06563897 -0.044087328 -0.27506447
-0.41825777 -0.2620967 -0.317694 0.26483274 -0.39789727 0.08472102 -0.008201004 0.46077362
0.4098845 -0.05121829 -0.38205436 -0.39254862 -0.18661074 0.12067725 -0.4549868 -0.43381408
-0.12913111 0.24781726 -0.0020749138 0.39726552 -0.15033333 -0.17902444 0.2273638 0.011905845
-0.12468035 -0.0782344 1.3672959 -0.24093488 0.284302 0.53232485 -0.56471765 -0.059426352
-0.5867491 0.60319674 -0.5970496 0.33115277 -0.04117375 0.12985654 -0.24568672 0.7782166
0.07541225 0.02180679 -0.36709923 -0.018840555 0.248635 -0.0059078597 -0.3578642 0.7263957
0.05906848 0.012447315 -0.022533463 -0.21349868 0.023819916 -0.49511442 0.09667865 -0.0033836095
-0.62658775 -0.54935914 0.0044646594 0.067914136 -0.0693728 0.38177177 0.032852836 0.03177244
0.16125672 -0.43203762 -0.5321064 0.6093478 -0.34847373 0.12435159 -0.0032665764 0.66979855
0.18825921 0.33316228 -0.75210035 0.07658509 -0.14906171 -0.7305344 0.5967524 -0.4207669
-0.43639728 0.836921 0.84714603 0.312804 0.76458067 -0.46795672 -0.34260422 0.010108936
-0.18196103 -0.017507328 -0.65403783 0.23180227 -0.25243902 0.0798471 -0.26073176 0.37727854
-0.25401798 0.32076067 -0.09573165 -0.45175537 -0.17264779 0.80071723 0.036227945 0.10121863
-0.4007009 -0.56667596 -0.060433447 -0.028368287 0.40879467 -0.35744876 0.035976946 -0.13724895

layer3.bias f4 [4]
00000000: f964 0c3e 6cb7 e63d 0042 be3d 980f c13d
0.13710393 0.11265454 0.09289932 0.094268024
