state_dic_target_net/test_v7_.pth (torch, 98719 bytes, 6 tensors)

layer1.weight f4 [128, 121]
00000000: 5c20 bcbd 9aaf b0bd f8b8 abbd 8008 f8bd
00000010: 9d9c e9bd af82 bbbd fb10 97bd bdf3 97bd
00000020: 14d0 02be 4f12 eabd e865 ddbd 00c0 dfbd
00000030: 10f1 2bbd 12d6 153e 527b 0abd c6ae 33bd
00000040: 7df6 c5bd 9ed0 9ebd f59e 4a3d e57f 963c
00000050: 793d 5ebd e12d e7bd 94b8 d0bd 8067 82bd
00000060: d7f1 92bd fcda dbbd d1da 93bb 7785 d2bd
00000070: 0e21 86bd 5d17 eabd 27b5 cbbd a087 12be
00000080: 5aae d5bd f7fa d2bd 65e1 5c3d 4284 09bd
00000090: 8a11 56bc 2c7c 70bd a1a4 abbd 79b5 f0bd
000000a0: 33b2 c0bd 05ce abbd 24f2 d23b 7c9a 00be
000000b0: 2b9b afbd e120 0bbe c334 b4bd 4eb5 03bd
000000c0: 3640 d4bd 3ac9 05be 6813 08be 3ae4 fbba
000000d0: 1f7a fcbd 38eb 9fbd ee75 cebd 0278 99bd
000000e0: 236f 13be 95a4 c1bd 9418 a0bd fee5 0dbe
000000f0: 38a1 cdbd dbf5 2cbd 89dc ce3c c400 a9be
00000100: 5a0a 80bd a41e 9abd 712c efbd eb72 6bbd
00000110: 776d ecbd 7d87 30bd 2e5a 9abd bd24 edbd
00000120: 2bb0 b9bd c272 09bd 31df 90bd 67a4 173c
00000130: f763 d7bd 569b dcbd db4c 77bd 588b 67be
00000140: 0fa1 68be 093d 01be 40eb 35be 3be8 023d
00000150: 284d 0d3d b76c f8bd d19f 55bf 70bd cfbd
00000160: 4b12 08be cbd8 09be e8e4 00be c73d 94bd
00000170: 537f 65be 093f e1bd 9da1 acbd a4d2 b1bd
00000180: 7010 a3bd 142c 7dbd 13d9 9cbd db90 eabd
00000190: 121a 16be fe90 21be 9769 5fbe e2aa 25be
000001a0: 8b4b a9bd e94f 2dbe d806 1fbe 1d43 d4bc
000001b0: 25a3 b0be ab4f c0bd e43e c1bd 7c96 d5bd
000001c0: 0dc9 d0bd 3ae3 f9bd 0912 b8bd dafd bdbd
000001d0: 052a fcbd cef9 a4bd 0105 f7bd 4c0b b6bd
000001e0: 2b9e eabd 1818 4fbd e83f b2bd 36de aebd
000001f0: fa71 59bd c98f aabd a51b 41bd dfe0 a9bd
00000200: 69c4 92bd 4bcd a2bd 75d5 82bd 5f82 8bbd
00000210: e383 8abd 812b 01be ef80 25be 4028 2abe
00000220: f486 debd f1c0 a7bd 9428 9cbc 19f2 fbbd
00000230: a603 29bd 72c2 8c3d 9792 c2bd ef12 a2bd
00000240: 7075 5d3d 95bf 8dbd 1d59 96bd 1c70 58bd
00000250: 5990 a1bd 4fa0 bebd 12ac 72bd c8c3 96bd
00000260: 07df 9dbd 43ad 95bd 3fe3 2ebd b7d6 dbbe
00000270: 0951 98be 09cc 9f3a 8aba 6bbd 4d61 8ebd
00000280: 674b 53bd 0980 903b a116 65bd cf43 95bd
00000290: 3581 81bd 776c aebd 1680 963d fe7f afbd
000002a0: 2265 9b3c cfc2 9abd 8b13 c1bd ade7 aebd
000002b0: 13f7 bbbb 6d1f cdbd c2ed 33bd c5d7 c8bd
000002c0: 1c47 54bd 26d3 de3c 1f16 94bd fb2b e0be
000002d0: af7a 4d3b 9aa8 b83b 1c5a a0bd 9c28 34bd
000002e0: 7f94 95bc d67e dcbc d97a b0bd 443a 7abd
000002f0: 8e31 9e3d d265 5dbd 5301 06bc 01a8 cabd
00000300: 6b85 95bd cbe1 8bbd 48ab dbbc f575 9dbd
00000310: 36e1 68bd 39a3 97bd 396a 85bd 03c9 36be
00000320: 1e5b a63d 990b 2bbe dc25 bb3d 2f6b b2be
00000330: fbf6 2d3d ce50 32bd 16c4 d6bc 1482 f7bc
00000340: ae49 62bd 9100 d8bd df19 e03d 13e7 37bd
00000350: 101f 35bd e299 6d3d 359b 9abd c8dd c6ba
00000360: 8561 42bd f447 59bd c5ab 01bd 9136 67bd
00000370: 710a 34bd e7cb acbd 8c17 6cbd 1a10 1fbe
00000380: 5689 8739 25c7 5fbd 8612 d8bb b975 32bd
00000390: d7e0 24bd dc59 b3bc 4738 d6bd ab42 91bd
000003a0: 97e8 bbbd 6975 babd 07c6 c2bd dc5c 38bd
000003b0: 171b a3bd 6172 9cbd 1367 d0bd 0330 4dbd
000003c0: 8955 a5bd f125 93bd 426f c9bd be69 8ebd
000003d0: 548e c8bd ca0a cbbd 31c2 a5bd cf99 d1bd
000003e0: ffbf 24bd ec05 aebd ac39 bfbd c4ec d4bd
000003f0: eac6 38bd f5ae 37bd 5227 54bc 0184 673c
-0.091858596 -0.08627243 -0.08384889 -0.12110996 -0.11406825 -0.09155785 -0.07376286 -0.07419536
-0.12774688 -0.11429273 -0.10810453 -0.10925293 -0.041977942 0.14632443 -0.033809014 -0.04386785
-0.096661545 -0.07754634 0.049468 0.018371532 -0.054257844 -0.112880476 -0.101914555 -0.06367397
-0.071750335 -0.10735127 -0.004512169 -0.10279363 -0.065492734 -0.114302374 -0.099466614 -0.1430955
-0.104336455 -0.10301774 0.05392589 -0.033573397 -0.013065705 -0.05871217 -0.0838101 -0.11753363
-0.09408989 -0.083889045 0.006437557 -0.12558931 -0.08574518 -0.13586761 -0.08799126 -0.032155327
-0.1036381 -0.13065043 -0.13288653 -0.0019217797 -0.1232798 -0.07808536 -0.10081087 -0.07493593
-0.14397864 -0.0945522 -0.07817188 -0.13857266 -0.10040516 -0.042226654 0.025251644 -0.33008397
-0.062519744 -0.075253755 -0.116783984 -0.05748264 -0.11544316 -0.04309796 -0.07536732 -0.11579273
-0.090668045 -0.033556707 -0.070738204 0.009255505 -0.10517114 -0.107718155 -0.06037603 -0.22611749
-0.22717689 -0.1262094 -0.17765522 0.031959753 0.03449741 -0.12130111 -0.83446985 -0.10143554
-0.13288228 -0.13461606 -0.12587321 -0.072383456 -0.22411852 -0.10998351 -0.08429263 -0.08682755
-0.079621196 -0.061809614 -0.07658591 -0.1145341 -0.14658383 -0.15777966 -0.21817623 -0.16178468
-0.08266362 -0.16925015 -0.15529954 -0.025910908 -0.3449947 -0.093901955 -0.094358236 -0.10429093
-0.101945974 -0.12201543 -0.08987815 -0.09276934 -0.12312702 -0.08055459 -0.12061501 -0.088888735
-0.114559494 -0.050560087 -0.087035954 -0.08538477 -0.053087212 -0.08328206 -0.047145505 -0.08294844
-0.071663685 -0.07949313 -0.0638837 -0.06811976 -0.06763437 -0.12614252 -0.16162466 -0.16616917
-0.10865584 -0.081910975 -0.019062318 -0.12302036 -0.041263245 0.06873025 -0.09500616 -0.079137675
0.054067075 -0.06921307 -0.07341216 -0.05284129 -0.0788886 -0.0930792 -0.05924613 -0.07361561
-0.07708555 -0.07308438 -0.042697188 -0.42937252 -0.29749325 0.0012191545 -0.057550944 -0.069521524
-0.05158558 0.004409794 -0.055929784 -0.07288324 -0.063234724 -0.08516782 0.07348649 -0.085693344
0.018969122 -0.07556688 -0.09427556 -0.085402824 -0.0057362407 -0.100157596 -0.043927915 -0.0980678
-0.051825628 0.027200293 -0.07230782 -0.43783554 0.0031353643 0.0056353332 -0.07829687 -0.04398404
-0.018259285 -0.026915949 -0.08617181 -0.061090723 0.077242956 -0.05405218 -0.008179027 -0.098953255
-0.07300838 -0.06830176 -0.026815072 -0.07688514 -0.056855403 -0.07404179 -0.06514401 -0.17850117
0.08122848 -0.16703643 0.091380805 -0.348474 0.042471867 -0.043534093 -0.026216548 -0.030213393
-0.055246048 -0.10546983 0.109424345 -0.044898104 -0.044219077 0.058008082 -0.07549135 -0.0015172297
-0.047456283 -0.053047135 -0.031657953 -0.056448523 -0.04395527 -0.08437329 -0.057639644 -0.15533486
0.0002585153 -0.05463328 -0.006594005 -0.0435693 -0.040253486 -0.021893434 -0.10459953 -0.07092794
-0.09175222 -0.091044255 -0.09510427 -0.045010433 -0.07964151 -0.076390035 -0.1017591 -0.050094616
-0.08072955 -0.07184971 -0.09835674 -0.069537625 -0.09792772 -0.09914167 -0.0809368 -0.10234415
-0.040222164 -0.08497223 -0.09337172 -0.10396722 -0.045111574 -0.044844586 -0.012948828 0.014130593

layer1.bias f4 [128]
00000000: de6f c93d 0944 cf3d 0de8 d53d 8176 9d3c
00000010: 1b1a 133d f4cb d43c e332 d13a 6c72 223c
00000020: 9fc9 853b 2821 d63d 5e73 fa3d 194e c8bc
00000030: 250f cc3c 41e8 92bd 353d edbb 824c 6a3b
00000040: 70fb afbc fc4f 6dbc c44b 023c d4a5 e63d
00000050: 3b88 293e 470c 063d baa0 ab3c dd3d 0f3c
00000060: 07e6 f43d b714 b43d a1f7 c03d ec07 dc3c
00000070: 7a33 9d3d e739 8bbc 3fe1 62bb c439 1fbd
00000080: 054b 183d 5331 7fbc f010 0c3b f6e1 3d3d
00000090: b290 1abc e269 703d 24d3 853c 2063 823d
000000a0: 7ed5 bd3d b82b 043c b46d 6a3d d93a 1b3d
000000b0: e244 0f3e 4c0a c1bc 3997 26bc 1b66 8b3d
000000c0: bee6 ed3c 1ec3 13bd 7364 1c3d fabe 123c
000000d0: fffc 92bc 7b3f d53c 9e04 ba3d 17e9 b13c
000000e0: 8ef9 e03c b1ba 5e3d 8cd9 9fbb 00b8 103e
000000f0: ba52 84bc 0699 973c 3448 113e 9e39 8cba
00000100: 728b 353c f300 b43c 3d1c 84bb 84ef e73d
00000110: f870 3f3d ef2e d8bc 75b4 383b 8a5d b33c
00000120: c1a5 8fbc 99d7 813d d0ab 3d3b ea32 56bb
00000130: b2fc 18bc 90a6 83bc 3f4c 71bc 1160 3fbd
00000140: 1622 fc3d 7fb8 c6bd afc9 863d f7f5 be3d
00000150: 6c18 2ebd 3876 ea3d e6bc 5e3d 184d a238
00000160: f7d5 ed3c a50d 4d3d a5ae e1bc b6f2 9b3c
00000170: 93b3 fa3c ca1a ba3c 0ecb 12bd 8d48 e7bc
00000180: a921 c23c ad5c 023d b776 5e3d 08a5 aa3d
00000190: 7b1f 00bd 663b ccbc 2a46 963d bdbf a639
000001a0: 2926 0b3e cb25 2f3a d919 c73c 1dad c6bc
000001b0: be62 ab3d 4842 0d3c 61aa efbc 1cb2 d93c
000001c0: 29fa 1bba ac1f e63d 88cc 333d ba56 10bc
000001d0: 23bf c93c e62d c1bc a8d7 67bc cfdd ba3c
000001e0: b2b8 2dbd a322 b43d dc32 b23c c28e 5f3c
000001f0: 84c9 e53d a528 4c3c c5ef 263d 8d25 babd
0.0983579 0.101203986 0.10444651 0.019221546 0.035913568 0.025976159 0.00159606 0.009914976
0.004082873 0.10455543 0.12229036 -0.024451302 0.024909565 -0.07173205 -0.0072399625 0.0035751169
-0.0214822 -0.014484402 0.007952634 0.11262098 0.16555874 0.032726552 0.020950664 0.008742777
0.11957937 0.087930135 0.094222315 0.026859246 0.07675834 -0.016995383 -0.003461912 -0.03887345
0.03718092 -0.015575725 0.00213724 0.04635807 -0.009433912 0.058694728 0.016336031 0.06366563
0.09269236 0.008067064 0.057233527 0.03789792 0.1399112 -0.02356448 -0.01016789 0.068065844
0.02904069 -0.03607475 0.038181733 0.008956665 -0.017942904 0.026031246 0.09082912 0.021717591
0.027462747 0.05437726 -0.0048782285 0.1413269 -0.016152728 0.018505584 0.141877 -0.0010698324
0.01108061 0.021973109 -0.0040316866 0.11324981 0.046738595 -0.026389567 0.0028183733 0.021895189
-0.017535092 0.0633995 0.002894152 -0.0032684156 -0.009337591 -0.016070634 -0.014727651 -0.046722475
0.12311189 -0.097031586 0.06581437 0.09324258 -0.04250376 0.1144833 0.054379366 7.739122e-05
0.02903269 0.05006184 -0.027549097 0.019036632 0.030603206 0.022717852 -0.03583818 -0.028232837
0.023697691 0.031826664 0.054312434 0.083322585 -0.031280022 -0.024930667 0.073376015 0.00031804843
0.13588776 0.0006681352 0.024304317 -0.024252469 0.08368443 0.00862176 -0.029256048 0.026574187
-0.00059500575 0.1123651 0.043896228 -0.00880974 0.024627274 -0.023581456 -0.014150538 0.022810845
-0.042412467 0.08795669 0.021752767 0.013644876 0.11220077 0.012460862 0.040756006 -0.090891935

layer2.weight f4 [64, 128]
00000000: 03aa 50bc 271d 373c 6ebd 443c 5678 d63c
00000010: 5c67 7abb 19a5 2e3c 8262 683c da05 743c
00000020: d52a a5bc f89b 4a3b 371d fdbb 9789 ea3c
00000030: e1a2 353c 0f3f 95bb 1900 943c 2d6d 1a3c
00000040: 9ba2 593b 03df 553c 7787 93ba bf5f 053c
00000050: 926c cdba 770e 13bc 44c8 2bbb 7d65 13bc
00000060: e295 5abc b616 8b3c 95df d039 9642 c03b
00000070: deb3 e6bc abbd 4f3b ff1a ebbc 1899 943c
00000080: 9cb9 77bc 2099 ecbc c97d e83a ed21 2ebc
00000090: ac37 01bc 3839 4abb 8025 7f3c cf64 81bc
000000a0: 3e75 bd3c dc52 e93b 306b 09bd f385 b1bc
000000b0: 65f8 9bbc 8a66 d4bc 1419 09bd 15b8 aabc
000000c0: 0146 c6bc d6ab debc 7587 fc3a 732c 3ebc
000000d0: 7cd6 94bc cde5 c7bc dd64 e83b d2f2 f1bc
000000e0: 2605 73bc 27d2 033c f243 c1bb fd98 023c
000000f0: 5898 afbc 234e 6e3a 96ee dabb 55ae 44bb
00000100: ae79 15bc c999 86bc 477b 953c 9465 c2bc
00000110: 2af5 a6bc 77fa 99bc 8f9b 15bc d30e b23a
00000120: a7f3 133c a6e8 593c c5d4 07bd 4a56 b73c
00000130: 76c4 14bd fa0d cebc 1a6f 533c 32db b0bc
00000140: a682 14bc d2a2 903c 8f62 a8bc 7042 1dbd
00000150: 2cd0 1a3c 7032 49bc 07a6 4539 2696 7d3c
00000160: 0a83 abb9 6f17 09bd cc57 113a d589 a03c
00000170: 42db 75bc 0666 9dbc cf85 b9bc 6091 fe3a
00000180: 5a61 dcbc ac9c 653c 0fa6 e0bc 23a6 04bd
00000190: 6267 c13b b892 1cbc 360c 6ebb 8dad 36bc
000001a0: ba55 d9bc 3e67 4b3c 1f87 d5bb a97b f6bc
000001b0: c72c 6abc 189c 103c f991 97bc 2623 f4bb
000001c0: f8fa d13c a883 51bc 51d7 8d3c d919 933c
000001d0: 1813 61b9 fc58 233c e8b4 783c 0766 c4bc
000001e0: db0f 093c e6e1 723b 82f6 923c 922f d4bb
000001f0: 1e93 ba3c f141 fc3b 3ffd 993c 1d2f 9fbc
00000200: 54ce 0cbd bd89 00bd 32ec c6bc 6853 f0bc
00000210: 1da4 a63c 8523 fa3c b428 12bc 5f1a 863c
00000220: dfd7 30bc 6870 203c 8bc2 293c 5297 4abc
00000230: ab5f 8dbc 6b86 ccbc dc0d ba3c 16e5 1fbc
00000240: e12b 4d3c 89fd 2c3c 85e7 f7ba 9f96 14bd
00000250: e50e 55bc 7e76 12bd 0710 b63c 89c3 413c
00000260: e5f7 d2bb 8d57 ab3c 11f2 ca3a 5458 21bc
00000270: 4a12 73bc 0af2 d43c e1b3 f53b 4937 dd3c
00000280: 5e6e d3bb 22d9 db39 26dc 15bd af23 e8bc
00000290: c873 7c3c 337d a8bc 9980 8b3b 4e7c 013a
000002a0: 6d28 1bbc 7a54 a63c f74b 0bbc 7da6 553b
000002b0: a4c4 11bd c70e 22bc 8c12 a23c 148b 7c3c
000002c0: 7895 a93c 5e9f a8bc e90c f6bc 6ae6 2abc
000002d0: 822c d2bb 3a20 97bb c1ad 043c bb11 b33c
000002e0: bdb9 8d3c b3af f3bc 0232 a7ba 26df f4bc
000002f0: 0578 e1bc bf67 ebbc 07dd babc e00f 4ebb
00000300: 37b8 b53b 3096 82bc 3d1e 7c3c 0b6e 863c
00000310: 5ea4 213c 8a34 8c3c ce57 ebbc 163b e2bc
00000320: 48e7 a83b ba4c e2bb 7b27 f3bc b271 843c
00000330: be60 78bc 8835 a9bc 678e bfba 53b2 d53b
00000340: c795 a7bc 8578 a3bc 4ab4 2bbc faeb 41bc
00000350: af82 a83b 9805 17bd b277 a53c 2ae5 3bbc
00000360: ad3a ac3c c0e5 be3c 6aee a7bc 92bb 5c3c
00000370: f5a8 11bc e738 82bc b99f 1a3a 8073 d0bc
00000380: 3883 51bc b7e0 b23b 1adf 18bb 4ba2 0f3c
00000390: 1f5f 263c d1aa e83b 8603 19bd b11d e93c
000003a0: 2148 203a 8a02 c539 3faf f1bc 5e47 b43c
000003b0: f658 19bc f61e f5bb a32a d63b 8094 31bc
000003c0: f3c0 e5bc d3e7 e0bc 72eb 87bb 6eed c93c
000003d0: c9e7 6e3b d736 85bc d727 0fbd c7ff 0cbd
000003e0: c628 d03b 1cc2 a2bc 084a 183c 0b21 df3c
000003f0: abd2 ec3c a167 47bc a2ba 08bc e32e e1bc
-0.012735846 0.011176384 0.012008054 0.026180428 -0.003820858 0.01065948 0.014183642 0.014893973
-0.020162025 0.0030915719 -0.00772443 0.028630061 0.011086197 -0.0045546363 0.018066453 0.009425444
0.0033208493 0.013053658 -0.0011255582 0.008140503 -0.0015672615 -0.008975617 -0.0026211897 -0.008996365
-0.013341399 0.016978603 0.00039839433 0.0058673127 -0.02816194 0.0031698744 -0.028699396 0.018139407
-0.015119936 -0.02888161 0.0017737682 -0.010628206 -0.007886808 -0.003085686 0.015572906 -0.01579514
0.023127194 0.0071204733 -0.033549488 -0.021670317 -0.019039342 -0.0259278 -0.033471182 -0.02083973
-0.024203302 -0.027181547 0.0019266444 -0.011607277 -0.01816868 -0.02440157 0.007092102 -0.029534731
-0.01483277 0.00804571 -0.0058979923 0.007971046 -0.021434948 0.0009090623 -0.0066812737 -0.0030011137
-0.009123249 -0.016430752 0.01824726 -0.023730077 -0.020380575 -0.018796189 -0.009131326 0.001358474
0.009030259 0.013300097 -0.033161897 0.022380013 -0.036320172 -0.025153149 0.012904907 -0.021588895
-0.009064352 0.017655764 -0.020554809 -0.038393438 0.009449046 -0.012280092 0.00018849234 0.015477693
-0.00032713293 -0.033469614 0.0005544394 0.019596973 -0.015005888 -0.019213688 -0.022646813 0.0019421987
-0.02690189 0.014014404 -0.027422933 -0.032385003 0.005902217 -0.009556465 -0.0036323196 -0.011149776
-0.026530135 0.012414752 -0.006516352 -0.030088263 -0.014292902 0.008826278 -0.018502222 -0.007450479
0.025632367 -0.012787737 0.017314585 0.017956661 -0.00021464785 0.009969946 0.01517985 -0.023974432
0.008365597 0.0037060915 0.01793981 -0.0064753974 0.022775229 0.0076982905 0.018797515 -0.019431645
-0.034376457 -0.031381357 -0.024282549 -0.029336646 0.020341927 0.030534515 -0.008920837 0.016369997
-0.010793655 0.009792425 0.010361324 -0.012365179 -0.017257532 -0.02496644 0.022711687 -0.009759208
0.012522669 0.010558494 -0.0018913603 -0.036276456 -0.013004039 -0.035757534 0.02222444 0.011826404
-0.0064382427 0.02091577 0.0015483518 -0.009847719 -0.014835903 0.02599432 0.00749825 0.027003901
-0.006452366 0.00041932712 -0.036586903 -0.028337328 0.015408464 -0.020567512 0.0042572734 0.00049394823
-0.0094700875 0.020303953 -0.008501998 0.0032600455 -0.03558792 -0.0098912185 0.019784234 0.015414018
0.020701155 -0.020583805 -0.030035453 -0.010430912 -0.006413997 -0.004611996 0.008098067 0.02185904
0.017300481 -0.029746866 -0.0012755992 -0.029891562 -0.02752305 -0.028735993 -0.022810472 -0.0031442568
0.0055456418 -0.015940756 0.015388069 0.016409894 0.009865848 0.017114896 -0.028728392 -0.027616065
0.005154524 -0.006906119 -0.029681912 0.016167495 -0.015159784 -0.020655409 -0.0014614583 0.006521502
-0.020457162 -0.01995493 -0.010479996 -0.011836046 0.005142532 -0.03687057 0.020198677 -0.011468211
0.021024073 0.023302913 -0.020499427 0.013472455 -0.00889038 -0.015896274 0.00058984343 -0.0254457
-0.012787633 0.005458917 -0.0023326338 0.008766721 0.010154515 0.007100441 -0.037356876 0.02845654
0.00061142637 0.0003757666 -0.02950251 0.022006687 -0.009359589 -0.0074804975 0.0065358444 -0.010838628
-0.028046107 -0.027454292 -0.0041479403 0.024649348 0.0036454073 -0.016261501 -0.034950104 -0.034423616
0.006352517 -0.01986795 0.009294994 0.027237436 0.028909048 -0.012170703 -0.008345278 -0.027488178

layer2.bias f4 [64]
00000000: c975 b2bc a2ec 7b3c 03f5 d13d 82cb 583e
00000010: b1b7 1cbc e385 5f3e 9ad4 223d 2041 1fbc
00000020: fc75 203e 5191 643e d15f 6abc 746a dcbc
00000030: 7223 883c 510d 14bd d45f 36bb 7379 ab3d
00000040: 490b b9bc a44c 533e b503 da3c 59fd 283e
00000050: 45b0 263e ece4 f6bc 0456 ee3d 7bdc 803c
00000060: a609 3a3e 1d9a 16bd 8754 723a 00d5 bbbc
00000070: 8b69 673c a234 0e3e 9dbc 903c eb3f 8dbc
00000080: 7cae 933d 5c06 533c d187 ccbc 86bc 483b
00000090: e44d 0d3d 73e1 65bd d542 aebc 5712 8dbc
000000a0: 3c11 8b3d 614e 503e 9c67 c3bb 9cb0 df3b
000000b0: 4d64 dd3b e700 fbbc dfa2 a2bc 5b1b 06bd
000000c0: f0f8 69bc 63f2 4abd 2872 4a3e b7e1 86bc
000000d0: a503 10bd ef68 3b3e 5428 473e 9481 313e
000000e0: 487d 233d f7a4 98bb 7ed2 a83c fe87 543e
000000f0: d5b7 9ebc e1e1 ff3d 40f7 d6bc 3976 4ebc
-0.02178468 0.015376242 0.102518104 0.21171382 -0.00956528 0.21828417 0.039753534 -0.009720117
0.15670007 0.22321059 -0.014305071 -0.02690623 0.016618464 -0.036145512 -0.0027828114 0.08372774
-0.022588389 0.20634705 0.026613096 0.16502894 0.16278179 -0.030138455 0.116375 0.015730133
0.18167743 -0.036768068 0.0009244163 -0.022928715 0.0141242845 0.13887265 0.017668063 -0.017242393
0.07211015 0.012879934 -0.024967106 0.0030629947 0.03449811 -0.05612321 -0.021272102 -0.01722066
0.067903966 0.20342399 -0.005963279 0.0068264734 0.0067563416 -0.030640079 -0.019853054 -0.032740932
-0.014280543 -0.049547564 0.1977011 -0.016465051 -0.035159726 0.18301748 0.19448978 0.17334586
0.0399144 -0.004658337 0.020608183 0.20755002 -0.019374767 0.12494255 -0.026240945 -0.012601429

layer3.weight f4 [4, 64]
00000000: c54f 133d 990c f73b 5c44 45be 9938 6abe
00000010: 9727 fc3c 3028 6ebe cc76 063f 9789 823f
00000020: a978 88be 2ccc 88be 0991 313d 53c1 b6b9
00000030: 3ec5 39bc 7e49 c03c f8e1 f23e adb8 a53e
00000040: 1b9b 04bc 801a 2fbe e2c2 133f 43f3 983e
00000050: 98dc 42be 59d3 123d 5006 8fbe 5bf3 dbbc
00000060: 1022 a5bd af7c 143f 4f2b 05bd e043 bb3c
00000070: b2b3 c6bb 9de5 c03e 4d9d 25bd 7e22 c63c
00000080: 8652 6ebd 0d57 a23d 7ff5 52bc f70f bbbc
00000090: 3411 b7be 1949 093f 1fd0 4e3f 5e2a b03c
000000a0: 0ffc 283f cc6a 79be c432 32bc 3ec3 0a3f
000000b0: ddf1 c23e 6731 063d 0ea4 843c 3361 063c
000000c0: 5dcf 7cbc d2b5 133f 18ea 8dbe 70a7 1f3d
000000d0: 75a4 8d3c e028 7cbe 9c50 6cbe 6548 70be
000000e0: 9b40 0e3f 1183 133c 851d 263f 57f9 aebe
000000f0: c46e 9d3c 38c0 7cbe d514 2dbc 495c 2539
00000100: 6d41 eebc d664 1bbd c121 25be 6a68 75be
00000110: 550a 553c d59d 5dbe fa2a 103e 3b94 fd3e
00000120: 4f7c 76be 9082 7cbe 464e ae3c e390 213d
00000130: 1d59 bdbc eb60 373c 5551 7ebe b978 783d
00000140: 76df 893b ca3e 60be 6cf4 5e3f da96 cc3e
00000150: 6ab1 4bbe f9e3 8d3c 4ed8 5dbe 092b 533b
00000160: e694 4dbe b1f0 473f 7c19 1c3e c348 d7bc
00000170: a5a4 283d 9018 f93e b47a 35bc 24fc fe3c
00000180: 2ce4 f6be 4fec dc3e c702 d33c 0053 df3c
00000190: 27be 4ebe 1342 483e 1bc1 3e3f 3ed8 153c
000001a0: ad81 253f 2d8f 5fbe de51 863c d127 983e
000001b0: e76c e2bd 6402 91ba 4969 b93c e193 24bd
000001c0: 04e4 19bd 96ab ae3e 0634 84be 65d6 f33b
000001d0: e783 17bb e294 55be 555a 6bbe 266c 54be
000001e0: e25d 323f 83be 31bc 5751 303f 0acf 85be
000001f0: 0bac c03c 6d07 fcbd 6955 ea3c f99f e93e
00000200: 4420 20bd 06f1 bc3c 4a27 7dbe 1cd1 88be
00000210: 611c 2fbd 78e6 68be 6c66 003f ee20 863e
00000220: d9b9 6cbd 5c3c 03be b71e 0e3d eba7 d73b
00000230: a912 033d 1807 3ebd 2f1f a63e ca3b 763e
00000240: 6f60 5e3c 0942 71be ed45 033f 3fd2 f73e
00000250: 7fee 8abe 33ed d6bb fab6 76be be44 5b3b
00000260: de05 b2be e4fe 7b3e 2953 093f 01ed ac3c
00000270: 355f eb3c 8af3 ba3e a7cf 0cbd f9d3 66bc
00000280: 2eae 50be 0e23 8c3e 8ebf 563d cdc1 123d
00000290: eeea d3be 6dd4 05bf d343 1e3f f5e7 a83b
000002a0: 1de3 863f d46e 65be 58a3 163d ccf3 ea3d
000002b0: cf58 bf3e 0907 15bc 22d9 1f3d 1531 f3bc
000002c0: 2df9 303d 7884 2a3f 24e5 1dbe 684a 09bd
000002d0: bfa3 81bc bde5 a5be c626 67be 559e 82be
000002e0: 2bb6 143f d953 e93b 64f2 423f b753 24be
000002f0: 5e2e 953c 38ba 78be a002 1a3d ea64 77bd
00000300: 4005 063d e8b9 f0ba d0d1 7bbe 4fb7 0bbe
00000310: 1444 03bd bbe1 86be dd5a 663e 8bc0 8fbd
00000320: b2ac 8dbe 91cc 82be f7fc 493c 2796 503c
00000330: e714 b83a f56d 783c 3114 293f 5c94 a93e
00000340: 0151 3d3c 1159 78be 1b81 033f 7d7a 093f
00000350: 3ccf 95be 575b 893c 26bf bdbd 6e34 ee3c
00000360: 8032 4cbe 1b12 d43e 3703 423e e49c 803c
00000370: a6f7 ba3c a463 493e b925 f23c bd4d d3bc
00000380: 4ea5 1dbe d362 a23e 6daf 03bd 1ba8 c5bb
00000390: d38e b1be 5428 e93d 7166 ec3e 1587 2abd
000003a0: 4679 643f 0b0d 8dbe ab90 9cbc 02e0 603d
000003b0: b090 723f a630 24bb 1777 cbbc 0d1c 37bd
000003c0: 6713 143d 6502 6cbd 235c 63be 6cbb 78bc
000003d0: be5e 3c3b d0da 54be b4f6 68be 7de9 79be
000003e0: 8a9c 473f 7811 1e3d 10a3 5a3f bea9 64be
000003f0: 45fb c4bc 7136 8cbe 919e 9cbc d854 423f
0.035964746 0.0075393436 -0.19264358 -0.22873153 0.030780597 -0.23257518 0.5252502 1.0198239
-0.26654556 -0.2671827 0.043351207 -0.00034857783 -0.01133853 0.023472544 0.47438025 0.3236746
-0.008093621 -0.17099953 0.5771924 0.29873094 -0.19029462 0.035846088 -0.27934504 -0.02684944
-0.080631375 0.5800275 -0.032512005 0.022859514 -0.006063902 0.3767518 -0.040433217 0.024186369
-0.05818417 0.0792676 -0.012875914 -0.022834761 -0.35755312 0.53627163 0.8078632 0.021504577
0.6600961 -0.24357146 -0.010876361 0.54204166 0.38075152 0.032761957 0.016191509 0.008201885
-0.015430299 0.5769931 -0.27717662 0.03897804 0.017290333 -0.24624968 -0.23077625 -0.23465116
0.5556733 0.009003417 0.64888793 -0.34174606 0.019217856 -0.246827 -0.010564049 0.00015770005
-0.029083932 -0.03793796 -0.16126157 -0.23965612 0.013002952 -0.2164224 0.14078894 0.49527153
-0.24070857 -0.2465918 0.021277558 0.039444815 -0.023113782 0.011192541 -0.24835713 0.060662005
0.004207547 -0.21898952 0.8709171 0.3995884 -0.19891897 0.01732062 -0.21664545 0.0032221696
-0.20076331 0.7810164 0.15244097 -0.026279813 0.041172642 0.48651552 -0.011076618 0.03112609
-0.48220956 0.4314904 0.02575816 0.027261257 -0.20189725 0.19556455 0.74513406 0.009145794
0.64650995 -0.21831961 0.01639646 0.29717878 -0.11055928 -0.0011063335 0.022633212 -0.04018009
-0.03757097 0.34115285 -0.2582094 0.0074413293 -0.0023119391 -0.20857576 -0.22983678 -0.2074438
0.69674504 -0.010848644 0.68874115 -0.2613452 0.023519536 -0.12306104 0.02860518 0.45629862
-0.03909327 0.023064148 -0.24722019 -0.26722038 -0.042751674 -0.22744167 0.50156283 0.26196998
-0.057794426 -0.12815994 0.03469726 0.0065812967 0.032000218 -0.046393484 0.32445666 0.24046245
0.013572796 -0.23560347 0.51278573 0.48402593 -0.27135083 -0.006559038 -0.24093238 0.0033457722
-0.347701 0.24608952 0.5364252 0.021109106 0.028731922 0.3651393 -0.03437772 -0.014088624
-0.20378944 0.27370495 0.052428775 0.035829354 -0.41390175 -0.5227726 0.6182224 0.0051546046
1.053806 -0.22405559 0.03677687 0.11472282 0.37372443 -0.009095916 0.039025433 -0.02968649
0.043206383 0.6660838 -0.15419441 -0.033518225 -0.01582515 -0.3240184 -0.22573385 -0.25511423
0.58090466 0.007120591 0.7615111 -0.1604756 0.018210586 -0.24289787 0.03760016 -0.060398974
0.03271985 -0.0018365951 -0.24591756 -0.13644145 -0.032047346 -0.26344094 0.22495599 -0.070191465
-0.2767082 -0.25546697 0.012328378 0.012731112 0.0014044315 0.015162935 0.66046435 0.33121002
0.011554957 -0.24252726 0.51368874 0.5370253 -0.2925967 0.016767187 -0.09264974 0.029077735
-0.19941139 0.41420063 0.18946539 0.015699811 0.022823166 0.19666916 0.029559003 -0.025793904
-0.1539509 0.31716022 -0.03214972 -0.0060320026 -0.3467928 0.11384645 0.46171907 -0.04163273
0.8924755 -0.27549013 -0.019111952 0.05490113 0.94752026 -0.002505341 -0.02483706 -0.044704486
0.036151316 -0.05761947 -0.22203116 -0.015181404 0.0028742994 -0.20786595 -0.2275036 -0.24405475
0.77973235 0.03859088 0.85405064 -0.22330377 -0.024045596 -0.27385285 -0.01911858 0.7591071

layer3.bias f4 [4]
00000000: 30a5 25be 3329 a1bd f9ce 65bd e3b8 03be
-0.16176295 -0.07869186 -0.056105588 -0.12863497
