state_dic_target_net/test_v8_.pth (torch, 98719 bytes, 6 tensors)

layer1.weight f4 [128, 121]
0.005027722 -0.0012996626 0.010205854 0.0037468767 -0.009785222 -8.399046e-06 0.0042153588 -4.6897057e-05
0.009182919 -0.010638204 -0.0064110737 0.010020003 -0.012765331 0.0021005718 0.0039764172 -0.0058834325
-0.000917309 -0.011825148 0.010712708 -0.011016121 0.009568393 -0.0034017542 0.008846869 -0.00627085
0.010167696 -0.00944863 -0.010056372 0.01628223 -0.0099833235 0.008511477 -0.010646866 0.006714197
-0.009141019 -0.003122805 0.0003763775 -0.0007168269 -0.009521288 0.0056057787 -0.012889298 -0.006720232
-0.010856275 -0.012697417 0.0040693693 0.007712393 0.01287631 -0.0020619906 0.011425329 -0.0012291968
0.009424272 0.0069301603 0.009396998 -0.0128481565 -0.0016388939 -0.0027168056 0.007853398 0.003292329
-0.0075257444 0.014555759 -0.013803963 -0.0055386336 0.0021423998 -0.008398068 0.0097411275 -0.0041165403
-0.005399165 -0.00066872966 0.014403801 5.9497224e-06 0.008822959 0.0048596244 0.014832397 0.009634109
0.0064499797 -0.0005511685 0.015289874 0.0037601348 0.01362666 0.010336233 -0.004582649 -0.010491389
0.0024584583 0.005034158 -0.0011274812 0.009637585 0.005649257 0.00997403 -0.014221469 -0.01102285
0.0075795697 -0.007984554 0.011332562 -0.007829399 0.002805338 -0.0030920524 -0.008285673 -0.010152433
-0.0016208065 -0.006112645 -0.0009204371 0.011073216 -0.011459414 0.004900038 0.0018041988 0.010187861
0.01100895 -0.011720948 0.00039074867 0.008550251 -0.007543339 0.002392689 0.010061936 0.009613626
-0.010496323 0.015901443 -0.002287719 -0.003731669 0.0042663054 0.0049334965 0.015441312 -0.007334381
0.011248432 -0.0010087063 0.0011116231 0.006517349 0.012931736 0.014484512 0.010050678 -0.004130922
0.0058287927 0.013588746 0.0058731074 0.0049526934 0.012899714 0.12740256 -0.13587262 0.12560447
0.10649439 0.0062242937 -0.0012288062 0.011546084 -0.0016359615 0.0038973405 0.0053645847 0.015165464
-0.11682242 0.0061348556 0.011225812 0.034616563 -0.0040719034 -0.0050132666 0.013105353 0.01687246
-0.008473228 0.007915089 0.0034107736 -0.061665613 -0.030268233 0.007839121 -0.0072640055 -0.009333385
0.0004051416 0.0075919847 -0.010318313 -0.01460988 0.008585215 0.0077552837 -0.05130502 0.0033145875
0.006112545 0.005960389 0.02071416 0.008138523 0.012660983 0.004243533 0.017402925 0.022639154
0.02019159 -0.074735865 0.0085913185 0.002470993 -0.021432383 -0.018497037 -0.082932875 -0.048864983
-0.024864318 0.008162236 0.003346615 0.007774703 0.050449226 0.0034193755 -0.025583506 0.022673488
0.0040303455 -0.001659264 0.013288582 0.0055134934 0.052802347 0.012281736 0.0036926551 0.11623453
0.10260103 0.03355256 0.006714825 -0.012011225 0.00972846 0.023218561 0.0021923492 0.045223583
-0.0021813535 0.0047174036 -0.060341973 0.0026790695 -0.0015060153 0.0054432475 0.015511498 0.0029072599
-0.0036380864 -0.004171823 0.015541383 0.010618539 -0.0044198977 0.10675503 0.111944176 0.08304565
0.01174477 0.0065167276 0.025267264 0.042259723 -0.011687966 0.00041737084 0.00061401573 0.0056983903
-0.0035680544 0.0047921357 0.009289651 0.021003343 0.0061387895 0.01880159 -0.0034126523 -0.0028372495
-0.0016020812 0.009255759 -0.024187617 -0.034470078 -0.035539303 -0.020192213 -0.017617049 -0.03545339
-0.035677854 -0.012783657 -0.02322118 -0.032477595 -0.03757513 -0.031962164 0.0034845208 0.017776417
00000000: 97bf a43b 7159 aaba 7436 273c 298e 753b
00000010: 3252 20bc a1e9 0cb7 fe20 8a3b 55b3 44b8
00000020: f473 163c dd4b 2ebc fc13 d2bb f02a 243c
00000030: ae25 51bc bfa9 093b 9b4c 823b cfc9 c0bb
00000040: 9177 70ba 44be 41bc 5b84 2f3c f67c 34bc
00000050: c0c4 1c3c f7ef 5ebb 75f2 103c b47b cdbb
00000060: 6896 263c 6dce 1abc 7bc3 24bc 5062 853c
00000070: 1891 23bc b973 0b3c 3170 2ebc c402 dc3b
00000080: 36c4 15bc f9a7 4cbb 8854 c539 70e9 3bba
00000090: 2dff 1bbc aeb0 b73b a22d 53bc 6435 dcbb
000000a0: 85de 31bc d408 50bc 5858 853b 3eb8 fc3b
000000b0: 29f7 523c 7622 07bb 4e31 3b3c 001d a1ba
000000c0: 4368 1a3c 6616 e33b def5 193c 1381 52bc
000000d0: 27d0 d6ba 6f0c 32bb 8aab 003c 1dc4 573b
000000e0: 859a f6bb 477b 6e3c 042a 62bc 6d7d b5bb
000000f0: 8167 0c3b 0d98 09bc 4099 1f3c 0be4 86bb
00000100: 7beb b0bb b04d 2fba ecfd 6b3c baa3 c736
00000110: 2c8e 103c 7c3d 9f3b 9503 733c 62d8 1d3c
00000120: 5a5a d33b 4b7c 10ba 6182 7a3c 986c 763b
00000130: 5b42 5f3c 4e59 293c 0c2a 96bb 13e4 2bbc
00000140: 161e 213b 94f5 a43b fec7 93ba f6e6 1d3c
00000150: 671d b93b 1d6a 233c 2a01 69bc 2f99 34bc
00000160: 0a5e f83b a6d1 02bc 36ac 393c e146 00bc
00000170: c3d9 373b 08a4 4abb a2c0 07bc 6456 26bc
00000180: 3e71 d4ba 954c c8bb 7d49 71ba 6f6c 353c
00000190: 44c0 3bbc 7f90 a03b de7a ec3a fcea 263c
000001a0: e25e 343c 3809 40bc 66dd cc39 5a16 0c3c
000001b0: 1d2e f7bb a9ce 1c3b d2da 243c 7882 1d3c
000001c0: c5f8 2bbc be43 823c 8eed 15bb 048f 74bb
000001d0: 5dcc 8b3b 2ba9 a13b 8ffd 7c3c 3f55 f0bb
000001e0: 584b 383c 9136 84ba e2b3 913a 7c8f d53b
000001f0: a2df 533c 7250 6d3c 99ab 243c af5c 87bb
00000200: 75ff be3b 55a3 5e3c 3273 c03b 344a a23b
00000210: 5259 533c d175 023e 3122 0bbe 759e 003e
00000220: bb19 da3d 29f5 cb3b e50f a1ba c92b 3d3c
00000230: c26d d6ba 866a 7f3b 66c9 af3b 9178 783c
00000240: 9840 efbd e606 c93b 78ec 373c 19ca 0d3d
00000250: 9a6d 85bb 5446 a4bb d6b7 563c 1d38 8a3c
00000260: 4bd3 0abc 4aae 013c 4987 5f3b 1595 7cbd
00000270: 16f5 f7bc a86f 003c e506 eebb 0eeb 18bc
00000280: 2f69 d439 2fc6 f83b 240e 29bc 475e 6fbc
00000290: 00a9 0c3c 0920 fe3b 3625 52bd 8d39 593b
000002a0: be4b c83b 5e4f c33b beb0 a93c 7157 053c
000002b0: 0370 4f3c 560d 8b3b 9490 8e3c bf75 b93c
000002c0: d568 a53c 1e0f 99bd 9ac2 0c3c 62f0 213b
000002d0: f792 afbc 1987 97bc b6d8 a9bd a626 48bd
000002e0: 41b0 cbbc e6ba 053c e252 5b3b f0c2 fe3b
000002f0: d9a3 4e3d 9a17 603b 8094 d1bc c0bd b93c
00000300: fd10 843b a97b d9ba 5ab8 593c 89aa b43b
00000310: 4647 583d 5639 493c 7900 723b 5f0c ee3d
00000320: 7d20 d23d 696e 093d 0908 dc3b bbca 44bc
00000330: 1e64 1f3c da34 be3c 84ad 0f3b 5d3c 393d
00000340: 0af5 0ebb 7394 9a3b 2529 77bd 5493 2f3b
00000350: 7d65 c5ba 455d b23b f023 7e3c ba87 3e3b
00000360: f66c 6ebb cab3 88bb 49a1 7e3c 61f9 2d3c
00000370: cad4 90bb 62a2 da3d fd42 e53d d613 aa3d
00000380: 236d 403c 468a d53b 4bfd ce3c 8818 2d3d
00000390: e27e 3fbc 91d2 da39 e6f5 203a 90b9 ba3b
000003a0: 05d6 69bb 5907 9d3b 9f33 183c 340f ac3c
000003b0: e627 c93b cb05 9a3c cea6 5fbb 26f1 39bb
000003c0: edfc d1ba 78a5 173c 1c25 c6bc 7f30 0dbd
000003d0: a991 11bd 246a a5bc a151 90bc 9337 11bd
000003e0: f122 12bd 8b72 51bc 583a bebc 3a07 05bd
000003f0: 61e8 19bd c2ea 02bd 8f5c 643b d99f 913c

layer1.bias f4 [128]
-0.007414492 -0.0026596915 0.029794117 0.028897801 -0.0028581256 0.008257018 -0.020597488 0.004558051
-0.006330665 -0.0142092565 -0.009563774 0.06543095 0.016813392 -0.009430183 0.019004012 0.028694896
0.028807398 0.025716653 0.016267585 -0.011256098 0.004167159 0.009507789 -0.015236173 -0.007497124
0.008232608 0.0037693095 0.010005689 -0.010639361 -0.008639523 0.011727631 -0.013668079 -0.014028432
-0.009729555 -0.0060712993 -0.0024634632 0.002772487 -0.0039842185 -0.0071419035 0.0027052453 0.0046920814
-0.0044331136 -0.00773901 0.0015010976 -0.0019501479 -0.0010171937 0.03073405 0.034779638 0.009723097
-0.0038291668 0.031486977 -0.00054030464 0.0034038443 0.0063242237 0.010885127 0.013293456 -0.011273939
0.010227344 0.016013209 -0.018207816 0.0029255927 0.012092597 0.025120582 0.00082377414 0.009582151
0.0038185827 -0.0048271073 -0.01210375 -0.001443467 -0.012349721 0.0019205888 0.03731531 -0.013881609
0.009423039 0.00614935 -0.012611423 -0.006133894 0.018134115 -0.018373925 0.0024247244 -0.0031305423
0.013706593 -0.0049181413 -0.007059466 0.025230128 0.0033404052 0.026348865 0.0016688121 -0.014068429
-0.02175619 0.017389966 -0.011357389 0.0060120863 -0.012907365 -0.0093507385 0.02246298 -0.0113316905
0.0043977606 0.0024690714 0.006395306 -0.016126433 0.03050383 -0.018442994 -0.002645088 0.007691749
0.012531016 -0.014119668 0.009197285 -0.005448149 0.02309794 0.018098556 -0.008597764 -0.004116434
-0.019935627 0.03892066 0.01928137 -0.015134258 0.015368141 -0.0072715185 -0.0023875323 0.0077665877
-0.010451341 0.0006507867 -0.019379817 0.00707118 -0.005331111 0.003276993 0.025044253 -0.008371231
00000000: 44f5 f2bb 384e 2ebb cb12 f43c 15bb ec3c
00000010: 644f 3bbb 7248 073c 10bc a8bc b45b 953b
00000020: 7871 cfbb f1cd 68bc 60b1 1cbc a900 863d
00000030: 3dbc 893c 0e81 1abc 4dae 9b3c 8f11 eb3c
00000040: 7efd eb3c bbab d23c 9943 853c 7f6b 38bc
00000050: aa8c 883b 8fc6 1b3c 24a1 79bc 6faa f5bb
00000060: 10e2 063c 8506 773b e7ee 233c b750 2ebc
00000070: c98c 0dbc 4025 403c 14f0 5fbc 82d7 65bc
00000080: b668 1fbc c0f1 c6bb 0e72 21bb 9db2 353b
00000090: 0c8e 82bb a106 eabb 7c4a 313b 08c0 993b
000000a0: a743 91bb 8597 fdbb 7ac0 c43a 1b9c ffba
000000b0: 5b53 85ba f9c5 fb3c 1875 0e3d a04d 1f3c
000000c0: c2f2 7abb 7df8 003d 3ba3 0dba 0813 5f3b
000000d0: 6f3b cf3b 8857 323c cccc 593c 54b6 38bc
000000e0: 9790 273c 222e 833c 8f28 95bc 4dbb 3f3b
000000f0: 0720 463c aec9 cd3c 8cf2 573a 74fe 1c3c
00000100: 3041 7a3b b62c 9ebb cf4e 46bc b732 bdba
00000110: 7c56 4abc 44bc fb3a f0d7 183d b06f 63bc
00000120: 1763 1a3c 7d80 c93b 24a0 4ebc d5fe c8bb
00000130: ff8d 943c ea84 96bc 20e8 1e3b c929 4dbb
00000140: 9e91 603c 5c28 a1bb 1853 e7bb 6aaf ce3c
00000150: b3ea 5a3b 93d9 d73c 0bbc da3a 457f 66bc
00000160: 0a3a b2bc 6775 8e3c 5814 3abc 0901 c53b
00000170: 6a79 53bc d733 19bc 4904 b83c 8ea8 39bc
00000180: 171b 903b 25d0 213b b78f d13b 951b 84bc
00000190: 2be3 f93c c315 97bc 3659 2dbb 110b fc3b
000001a0: e44e 4d3c 2e56 67bc 36b0 163c 6386 b2bb
000001b0: e437 bd3c 6c43 943c a3dd 0cbc 27e3 86bb
000001c0: 0a50 a3bc 456b 1f3d f7f3 9d3c aef5 77bc
000001d0: a8ca 7b3c eb45 eebb 2578 1cbb dc7e fe3b
000001e0: 1a3c 2bbc 8e99 2a3a 6cc2 9ebc 5bb5 e73b
000001f0: 9ab0 aebb d2c2 563b 9b29 cd3c 7d27 09bc

layer2.weight f4 [64, 128]
0.0014580932 0.08758504 -0.3955795 -0.052699346 0.0290564 0.04423401 -0.086890675 -0.010508288
0.047854535 -3.263327e-05 -0.09209463 0.016083986 0.10255353 -0.35181412 -0.16487461 0.05479363
0.11395789 0.05349651 -0.008198188 -0.0039136796 -0.45449454 -0.012132996 -0.16970609 -0.009004534
0.012859593 0.24378271 -0.25956142 0.036439467 -0.002667966 -0.0033628256 -0.0023371694 0.0014804921
-0.004062051 -0.002839652 -0.3765408 0.0056569437 -0.005132778 0.009370638 -0.21293771 0.04662178
0.07554656 -0.1283904 0.00045539052 -0.017595293 0.10867368 -0.07005091 0.019207794 -0.00019279307
0.010968257 0.04835567 0.0058903173 -0.00743529 -0.17057675 0.008399992 -0.06343821 0.014924933
0.0055808686 -0.048374508 0.1348363 -0.0001578566 0.040785246 0.0440144 0.0023517695 -0.015722051
0.08006022 0.0011851707 -0.0073535917 -0.106534146 -0.013534055 -0.0049040276 -0.17820385 0.15915507
-0.0045783757 0.04879038 0.0057510976 -0.007357526 -0.244414 -0.02941613 0.014499885 0.0057616923
0.010742658 -0.10740089 -0.009212764 0.049862016 -0.011433036 -0.0529201 -0.06694473 0.0103048915
-0.08176349 -0.016473899 0.0026443293 -0.028979398 -0.063284 -0.043673396 -0.10487602 -0.014915389
0.064359725 -0.0940428 0.053654872 0.06254049 -0.015029676 -0.029404141 0.021956643 -0.020506345
0.07515021 0.05550053 -0.3606881 -0.02593361 -0.1553949 -0.36030042 0.089605324 0.006322908
0.12279568 -0.19201729 0.121364504 0.0037068562 -0.05117249 0.07531873 0.030850224 0.015161704
0.1373747 -0.002096582 0.128446 0.003295307 0.15460965 -0.0639745 0.04532821 0.03389565
-0.0027747387 0.121277384 -0.25019085 -0.024257304 0.048136033 0.053322915 0.10361729 0.002669133
0.08326157 -0.0064161504 0.2531994 0.088809066 0.08400159 -0.27789423 -0.07075917 0.06161655
-0.06618463 0.0655579 -0.028000427 0.008190624 -0.07791318 -0.02330815 0.018182695 0.067633905
-0.010729791 0.2559868 -0.37822077 -0.020672366 -0.0015091582 -0.011411879 0.06279538 0.0033927266
6.5495486e-05 -0.0075931936 -0.53227925 0.14252932 7.9169266e-05 0.0053858794 -0.09126355 -0.067732275
0.09021854 -0.10021934 0.0057710144 0.015736243 0.028232766 -0.11026458 0.035838902 0.005195686
-0.094066694 0.047476422 -0.00063607364 0.0030347332 -0.043928593 0.00083757256 -0.019668063 -0.004413328
-0.012247012 0.01441897 0.16255546 0.009349994 0.06859478 0.08545369 6.2082916e-05 -0.01354245
-0.14047793 -0.007872045 0.00067040324 -0.063009754 0.039534237 0.0013843817 -0.15044063 0.11769522
0.0072760833 0.043118294 -0.008684616 -0.0025499484 -0.058071963 0.027104756 -0.011148804 0.0046797795
0.0057640956 -0.06665973 0.0068955855 0.07108379 -0.017127875 0.028075548 -0.05052858 0.0071537513
-0.07909382 -0.0018851518 0.0119833965 -0.03068115 0.2042005 -0.13622127 -0.048313864 0.03150011
0.066513024 -0.20642681 0.0028317482 -0.021961197 -0.07667593 0.0203496 0.03400769 0.04254219
0.07796095 -0.021001773 -0.102727614 0.01432129 -0.26381207 -0.20637175 0.014898501 -0.00054438674
0.1031233 -0.105966255 -0.056377195 0.010045263 0.00057735003 0.11610384 -0.063809454 -0.0014431569
0.12229449 -0.0025180874 0.101870835 0.0009723526 -0.0008130337 -0.12180811 0.00989901 0.10306954
00000000: 7d1d bf3a c95f b33d 6589 cabe 45db 57bd
00000010: b007 ee3c b92e 353d bdf3 b1bd f42a 2cbc
00000020: 1e03 443d b5df 08b8 1c9c bcbd 90c2 833c
00000030: 9607 d23d fb20 b4be e4d4 28be 496f 603d
00000040: c162 e93d 281f 5b3d b151 06bc 533e 80bb
00000050: 82b3 e8be 79c9 46bc 6fc7 2dbe c187 13bc
00000060: 0bb1 523c 2da2 793e 3ce5 84be 8d41 153d
00000070: 0bd9 2ebb da62 5cbb 322b 19bb 120d c23a
00000080: f41a 85bb 7419 3abb f5c9 c0be e25d b93b
00000090: dd30 a8bb 4e87 193c 580c 5abe 7bf6 3e3d
000000a0: 28b8 9a3d c678 03be 7bc1 ee39 0124 90bc
000000b0: 4e90 de3d da76 8fbd aa59 9d3c 7f28 4ab9
000000c0: 34b4 333c 9810 463d 9003 c13b bca3 f3bb
000000d0: acab 2ebe 1fa0 093c e4eb 81bd b587 743c
000000e0: b8df b63b 5924 46bd 8712 0a3e 4f86 25b9
000000f0: 6e0e 273d 7248 343d 2520 1a3b 88cb 80bc
00000100: 9df6 a33d bb57 9b3a 66f6 f0bb 932e dabd
00000110: f1bd 5dbc f7b1 a0bb 127b 36be 8cf9 223e
00000120: 3306 96bb 6cd8 473d b473 bc3b 6717 f1bb
00000130: aa47 7abe 19fa f0bc ed90 6d3c 94cc bc3b
00000140: f901 303c fff4 dbbd 22f1 16bc 1d3c 4c3d
00000150: a151 3bbc bfc2 58bd 521a 89bd d9d5 283c
00000160: 9e73 a7bd 45f4 86bc 7c4c 2d3b 3466 edbc
00000170: 0b9b 81bd e0e2 32bd 3dc9 d6bd ad5f 74bc
00000180: 08cf 833d 8399 c0bd 36c5 5b3d 3a15 803d
00000190: 083f 76bc f4e0 f0bc 6bde b33c ecfc a7bc
000001a0: 5ae8 993d 8654 633d 1cac b8be b972 d4bc
000001b0: d71f 1fbe 4c79 b8be ff82 b73d 6630 cf3b
000001c0: 4d7c fb3d 2ea0 44be f48d f83d baee 723b
000001d0: 3f9a 51bd b540 9a3d 9cb9 fc3c cc68 783c
000001e0: f4ab 0c3e cf66 09bb 5987 033e 14f6 573b
000001f0: fe51 1e3e 1005 83bd 13aa 393d 2ad6 0a3d
00000200: 64d8 35bb 4760 f83d 0419 80be 41b7 c6bc
00000210: 4a2a 453d 2169 5a3d 4d35 d43d 9fec 2e3b
00000220: 0b85 aa3d 923e d2bb 5aa3 813e 87e1 b53d
00000230: 0709 ac3d 2748 8ebe 2fea 90bd a361 7c3d
00000240: cf8b 87bd 3843 863d 2761 e5bc f831 063c
00000250: f290 9fbd bcf0 bebc e0f3 943c a583 8a3d
00000260: 01cc 2fbc b410 833e 27a6 c1be 1859 a9bc
00000270: f2ce c5ba e4f8 3abc dd9a 803d 8258 5e3b
00000280: 9f5a 8938 53d0 f8bb 7443 08bf 35f3 113e
00000290: ad07 a638 087c b03b 62e8 babd 38b7 8abd
000002a0: 7fc4 b83d cc3f cdbd c71a bd3b 4be9 803c
000002b0: 6748 e73c 65d2 e1bd d0cb 123d 9340 aa3b
000002c0: 0aa6 c0bd a376 423d 2ebe 26ba 60e2 463b
000002d0: 78ee 33bd 8b90 5b3a eb1e a1bc ae9d 90bb
000002e0: b1a7 48bc 8b3d 6c3c f074 263e b830 193c
000002f0: 6c7b 8c3d 5802 af3d 8332 8238 27e1 5dbc
00000300: 72d9 0fbe c0f9 00bc 00be 2f3a 420b 81bd
00000310: a7ee 213d 2474 b53a 1c0d 1abe 310a f13d
00000320: 366c ee3b cf9c 303d eb49 0ebc 091d 27bb
00000330: dedc 6dbd cb0a de3c 79a9 36bc d658 993b
00000340: bde0 bc3b e684 88bd 5df4 e13b 6194 913d
00000350: c24f 8cbc b1fe e53c 0ef7 4ebd 046a ea3b
00000360: f1fb a1bd 3317 f7ba 0256 443c 0957 fbbc
00000370: f019 513e 977d 0bbe c2e4 45bd 4206 013d
00000380: fb37 883d 8d61 53be da94 393b f8e7 b3bc
00000390: 4508 9dbd 34b4 a63c a64b 0b3d b840 2e3d
000003a0: fea9 9f3d e90b acbc db62 d2bd d8a3 6a3c
000003b0: 6012 87be 1e53 53be d818 743c 2db5 0eba
000003c0: 4f32 d33d d604 d9bd c6eb 66bd e394 243c
000003d0: 4e59 173a dac7 ed3d 88ae 82bd 4f28 bdba
000003e0: 8975 fa3d 7f06 25bb a8a1 d03d 7ae5 7e3a
000003f0: c521 55ba 8876 f9bd 752f 223c 1f16 d33d

layer2.bias f4 [64]
0.036068927 0.0367546 0.06678866 -0.019296592 0.06522565 0.008416443 0.004571624 0.06886496
-0.013245341 -0.012052273 0.0074922843 0.0066347606 0.058609784 0.0075943302 0.072579555 -0.016694944
0.041250292 0.018275501 0.059733227 -0.004042821 -0.009052378 -0.015618704 -0.008538374 0.048784256
0.0064212456 -0.0017408867 0.06472455 -0.02536091 0.012300492 -0.0016707956 0.07166882 0.06571128
0.030122438 0.048705574 0.030496366 0.050002478 -0.005604875 0.06477843 -0.00083225896 0.0044566863
0.015518424 0.0047169765 0.0007467584 -0.012356553 0.021996908 -0.005813907 -0.00015059416 0.0050713443
-0.011356386 -0.01878166 0.04967844 0.0043752044 0.003665948 0.022221908 -0.015024164 0.07993515
0.016110541 0.010540276 0.010968202 -0.013708236 0.009424801 0.0051832423 0.054813646 -0.004716005
00000000: 03bd 133d fe8b 163d 7ec8 883d e313 9ebc
00000010: 0795 853d 1fe5 093c 90cd 953b 1209 8d3d
00000020: fd02 59bc e676 45bc d681 f53b 6868 d93b
00000030: d010 703d dcd9 f83b 97a4 943d d6c3 88bc
00000040: 11f6 283d 81b6 953c d4aa 743d a479 84bb
00000050: 6d50 14bc 98e5 7fbc 89e4 0bbc 00d2 473d
00000060: 5069 d23b 772e e4ba 4e8e 843d afc1 cfbc
00000070: 0188 493c 99fe daba 1ac7 923d a393 863d
00000080: 55c3 f63c 7f7f 473d 84d3 f93c 66cf 4c3d
00000090: 19a9 b7bb 8eaa 843d f42b 5aba 6509 923b
000000a0: fd40 7e3c de90 9a3b 1cc2 433a 2473 4abc
000000b0: dc32 b43c 9682 bebb d0e8 1db9 852d a63b
000000c0: 2310 3abc ffdb 99bc 9f7b 4b3d e05d 8f3b
000000d0: 6740 703b b80a b63c e927 76bc 0ab5 a33d
000000e0: 41fa 833c 1fb1 2c3c f9b3 333c 8298 60bc
000000f0: 7b6a 1a3c 30d8 a93b 4684 603d b888 9abb

layer3.weight f4 [4, 64]
0.23883209 0.26237682 0.11477217 0.21234849 0.14804503 0.2813855 0.09833384 0.14712226
-0.008515381 0.37817362 0.10427065 -0.0057980893 0.23684323 0.2694221 0.14934853 0.15673918
0.41412887 0.365031 0.12675045 0.2776528 -0.0062068175 0.42488852 -0.014729969 0.26387265
0.275986 0.3682989 0.2746905 0.12982494 -0.27920154 0.2358858 0.1288679 0.13690308
0.29532093 0.16906978 0.26484075 -0.23484473 0.27395934 0.17149508 0.16414851 0.45153183
0.20990752 0.005020238 0.28391802 0.13050176 0.4496283 -0.017082317 0.33004278 0.0029589394
-0.0031346318 -0.055413973 0.30446544 -0.012555365 0.25313494 0.14561653 0.31288627 0.15346539
-0.1257697 0.015679851 0.09837441 -0.004764416 0.39016744 0.17869964 0.05789532 0.6085116
0.25498202 0.28733405 0.14422378 0.16957717 0.16201615 0.25848618 0.54437125 0.1621174
-0.005650262 -0.13426642 0.0530166 -0.0007352019 0.2705527 0.17095003 0.15184951 0.025581894
0.20102575 -0.0008677825 0.14986497 0.52497154 -0.0077527217 0.28905308 -0.010735457 0.31030658
0.23459443 0.41628653 0.1936085 -0.074719146 0.49013752 0.37184224 0.15559667 0.15191518
0.43135455 0.17398411 0.3482859 -0.23751667 0.6439903 0.1726718 0.0700753 0.718013
0.37183997 0.010345708 0.44767654 -0.07440193 0.47122604 0.008946379 0.1905125 -3.7030564e-05
0.015034159 -0.03483591 0.1858901 -0.0011080586 0.1334755 -0.015119357 0.72786534 0.16303869
-0.0651378 0.013263152 0.45812678 0.012023672 0.23589161 0.13876744 0.22954997 0.492909
0.29110572 0.2658758 0.15420152 0.5597327 0.14398703 0.32131338 0.05203411 0.1592273
-0.010227565 0.0043290597 0.14451607 -0.005084137 0.35094184 0.12966397 0.12093292 0.1977229
0.20356983 0.29886663 0.1381894 0.54890186 -0.00097303255 0.67687273 -0.017889105 0.19569896
0.24844137 0.22111793 0.27473384 0.16929919 0.37865132 0.1291562 0.15466286 0.17824222
0.3435098 0.14805335 0.23281352 -0.24595964 0.17488173 0.19591253 -0.19727935 0.39763543
0.4205562 0.005737549 0.19273326 -0.21297075 0.47305268 -0.019186486 0.26740244 -0.018032156
-0.012193444 -0.06410214 0.21227114 -0.0066385856 0.38599434 0.21849833 0.4362517 0.14915775
0.568985 0.008224438 0.40268132 0.0031703324 0.32820156 0.5769946 0.29948497 0.09993659
0.27568704 0.17865863 0.14325728 0.124942504 0.16206042 0.34125873 -0.37944165 0.12518613
0.0077493857 0.071347594 0.25593165 -0.017145379 0.24986172 0.36190125 0.15573937 0.5297363
0.19483812 0.17370693 0.13929528 0.15773141 0.0022776187 0.43268323 0.017598255 0.27590668
0.33459002 -0.020271728 0.26533705 0.495166 0.4277897 0.25850636 0.15124595 0.16620168
0.28941566 0.17091158 0.25736964 -0.24783033 -0.30857217 0.2044147 0.048780408 0.16068901
0.51551205 0.015016512 0.21810286 0.38304675 0.4689401 0.011144618 0.21569571 -0.0071803965
0.0013737972 0.44109136 0.30749428 0.008184689 0.23979774 0.1858924 0.34198442 0.13914819
0.037376884 -0.017218856 0.24887034 -0.002229625 0.45343962 0.25537944 0.18495336 0.50382745
00000000: 6690 743e 4156 863e ac0d eb3d e271 593e
00000010: 1e99 173e c311 903e 4163 c93d 38a7 163e
00000020: 1984 0bbc f99f c13e da8b d53d e6fd bdbb
00000030: 0887 723e b2f1 893e d2ee 183e 3c80 203e
00000040: b308 d43e 58e5 ba3e dfca 013e 8228 8e3e
00000050: 8f62 cbbb fd8a d93e f855 71bc 511a 873e
00000060: 094e 8d3e ac91 bc3e 3ca4 8c3e d4f0 043e
00000070: 81f3 8ebe 0c8c 713e f2f5 033e 5230 0c3e
00000080: 4e34 973e a120 2d3e 3599 873e 237b 70be
00000090: 6644 8c3e 689c 2f3e 8c16 283e 2e2f e73e
000000a0: fff1 563e cf80 a43b b45d 913e 41a2 053e
000000b0: ae35 e63e 37f0 8bbc 5efb a83e c4ea 413b
000000c0: 656e 4dbb c3f9 62bd e5e2 9b3e 05b5 4dbc
000000d0: e79a 813e 801c 153e a132 a03e 0826 1d3e
000000e0: c6c9 00be 0873 803c 8678 c93d d11e 9cbb
000000f0: 07c4 c73e 0afd 363e a523 6d3d 6bc7 1b3f
00000100: 018d 823e 731d 933e 66af 133e a3a5 2d3e
00000110: 90e7 253e 4d58 843e ea5b 0b3f 1b02 263e
00000120: d525 b9bb 237d 09be ef27 593d 90ba 40ba
00000130: e285 8a3e 860d 2f3e 707e 1b3e 1f91 d13c
00000140: b2d9 4d3e e67b 63ba 3476 193e 8964 063f
00000150: 8b0a febb c4fe 933e c5e3 2fbc 81e0 9e3e
00000160: 8639 703e 8223 d53e 4e41 463e 5a06 99bd
00000170: 4ef3 fa3e 1b62 be3e bc54 1f3e a78f 1b3e
00000180: 81da dc3e e428 323e 8852 b23e 9237 73be
00000190: 8cdc 243f e0d0 303e a483 8f3d b3cf 373f
000001a0: cf61 be3e 0b81 293c dc35 e53e 0a60 98bd
000001b0: 8a44 f13e d593 123c b515 433e 4451 1bb8
000001c0: d551 763c 19b0 0ebd f959 3e3e 473c 91ba
000001d0: cdad 083e 2eb7 77bc 6255 3a3f 9df3 263e
000001e0: f866 85bd b14d 593c 988f ea3e f0fe 443c
000001f0: 928d 713e 0d19 0e3e 260f 6b3e 925e fc3e
00000200: cf0b 953e df20 883e 01e7 1d3e a44a 0f3f
00000210: 5671 133e 3083 a43e b821 553d 7b0c 233e
00000220: 8491 27bc c9da 8d3b 05fc 133e d598 a6bb
00000230: a6ae b33e a2c6 043e aeab f73d df77 4a3e
00000240: 9c74 503e 0c05 993e 8681 0d3e d584 0c3f
00000250: 1c13 7fba 8847 2d3f 2c8c 92bc 4f65 483e
00000260: 6a67 7e3e bd6c 623e eaa9 8c3e c45c 2d3e
00000270: 96de c13e 8641 043e f15f 1e3e 2185 363e
00000280: 84e0 af3e 4c9b 173e ab66 6e3e d8dc 7bbe
00000290: 3214 333e 4b9d 483e 9903 4abe df96 cb3e
000002a0: 2453 d73e 0d02 bc3b de5b 453e 0115 5abe
000002b0: f633 f23e fa2c 9dbc f9e8 883e 2cb8 93bc
000002c0: 03c7 47bc fc47 83bd 9b5d 593e 7e88 d9bb
000002d0: 0da1 c53e 07be 5f3e 625c df3e cfbc 183e
000002e0: 00a9 113f cbbf 063c 3f2c ce3e 5ac5 4f3b
000002f0: 090a a83e ebb5 133f 1856 993e 8eab cc3d
00000300: da26 8d3e 4af2 363e 09b2 123e dbe1 ff3d
00000310: 2bf3 253e 77b9 ae3e 2d46 c2be cb30 003e
00000320: 8fee fd3b b01e 923d 7909 833e 7774 8cbc
00000330: c0db 7f3e 1f4b b93e 247a 1f3e cc9c 073f
00000340: a583 473e 3be0 313e 6ca3 0e3e 5884 213e
00000350: 1a44 153b a888 dd3e 372a 903c a443 8d3e
00000360: 624f ab3e e510 a6bc 42da 873e 6686 fd3e
00000370: 4007 db3e f25a 843e 38e0 1a3e c630 2a3e
00000380: 4a2e 943e 7203 2f3e f4c5 833e 3cc7 7dbe
00000390: 2cfd 9dbe 1652 513e f7cd 473d a98b 243e
000003a0: 99f8 033f d107 763c 5b56 5f3e b41e c43e
000003b0: eb18 f03e ea97 363c 56df 5c3e 8849 ebbb
000003c0: fc10 b43a bad6 e13e e46f 9d3e 1319 063c
000003d0: 8a8d 753e 945a 3e3e 9518 af3e dd7c 0e3e
000003e0: 8118 193d 8f0e 8dbc ded7 7e3e e61e 12bb
000003f0: 3d29 e83e 18c1 823e 6a64 3d3e d6fa 003f

layer3.bias f4 [4]
0.046610486 0.04366305 0.11328701 0.046116475
00000000: a3ea 3e3d 07d8 323d 0503 e83d a1e4 3c3d
